saved_models/best_IEGM_net.pkl (torch, 12065 bytes, 14 tensors)

weight f4 [5, 1, 64]
00000000: 45f3 433d 4b0d 32bd a84b 2cbd 4646 8bbb
00000010: e1af 223c 9689 f23d d18c d33d 61d2 1abe
00000020: 464c fbbc bfd5 9bbc d7c1 bf3d 2ddd 013c
00000030: 25cd 473d 13d8 853c 1022 a3bd f98b 15be
00000040: 66cb 6bbe d2ee 92be de89 4fbe 0c1b a4bc
00000050: a3a2 1e3e 6bfd a43e 965b 203e cd59 9c3d
00000060: 9c8a 41be 7cee 1e3d f181 c8bd abc5 b83c
00000070: 3882 783c af1f a0bc cc19 24be 3e3c 9abe
00000080: 9b32 3fbe 8843 2bbe b2cd 85bd fcc8 653e
00000090: 9610 623e 2d39 313e d0df 593e 3da4 753c
000000a0: c337 72bd 0e72 87be 1ce1 d8bd 0434 29be
000000b0: f181 79bd 2081 a43d 8474 38bd 7d7d 96bd
000000c0: 1995 9abd b828 fe3d b684 3b3e d457 673e
000000d0: 85b7 053e a1bd 173d 0084 8dbe dedd 26be
000000e0: 39e5 19bd e920 933d f114 6c3e 51ef cc3d
000000f0: 5799 ad3d 95db 67bd 9191 223d c047 183d
00000100: 6dc9 ffbd 2b0f cfbc bb33 4cbe 204c 23be
00000110: 5026 1abe ccc2 2ebe 5bc0 4fbd 7fb4 c63d
00000120: 59e3 16bd e3de c83c 3c1f 7abc 6195 cfbc
00000130: 5343 80bc 46a2 2cbd 8ed6 a13c d3a9 dc3d
00000140: 69b8 a43d 6be8 22bc da1c 503e 58c2 66be
00000150: b460 5ebd 4fc9 d4bd 66f5 cd3d 3d90 bf3c
00000160: c53c 2dbd 02c9 a4bb 5855 2f3e 7d82 63be
00000170: 85e8 13bd 994d 16be dab0 333d 1d0b 8f3d
00000180: d2a0 56bd d56d 1b3e d5d1 8b3d 1398 033d
00000190: 21b5 24be 4dc1 9abc 1d4c 3a3e 2dd5 36bd
000001a0: 98d5 6a3d 7ecd ad3d 466f 92bd 8cae 523e
000001b0: 2097 bebd 394a 9d3d 846c 693d 11a0 1dbd
000001c0: 03a2 12be e2af f9bd 7f32 9abb 1456 a6bb
000001d0: af2a 3b3e bf96 273e 4bf3 35bd 7b1f 893d
000001e0: 2bd3 17bd c3e9 763e 7307 bc3c 1fdf f93c
000001f0: 1ad2 0abc 6540 d8bd 7edc 3bbe 7e43 60be
00000200: 7139 3bbe f44b 82ba 24bb b2bc 7e2d a8bd
00000210: 16f1 00be 0ece 0cbe c61e 34bc c6e9 993d
00000220: 7900 693e 2362 503e 55ef b33d e07e 79bd
00000230: 4bfc 01bd 6a6a cd3b e599 9ebc 0180 613d
00000240: a695 a73c 6b1d f9bd a25e 36be a106 41be
00000250: 2206 02be 6293 763c be0a 223e 253a 893e
00000260: 5936 3b3d e74e 093d fb9f 9c3d be29 19bc
00000270: 47ef 82bc 8bdb 98bc 751d 353d 0c59 79bd
00000280: befc 6ebd 1b41 70bd 3bce 84bc 47b0 a5bd
00000290: db40 c6bd f5e7 3dbe 74a9 ddbd b7ef 453d
000002a0: ad64 b43d ff9e 5b3e 8bb2 6c3e 0657 303e
000002b0: 190a c83d 119d e63d a93a 16bd 957e 29be
000002c0: 11e0 73be bfbf 41be 75c3 d7bd cb24 983c
000002d0: 7ede c4bc 8bd8 28bd 29db 6ebc b29c c23d
000002e0: 99fe 1b3e c821 363e 837f cf3d d12b 9cbd
000002f0: 4b7b 2abe 8e1f e6bd e967 a03d 4272 813d
00000300: 46fa 54be 23bf ebbd 99a8 78bc ca81 d0bc
00000310: 010b e93d de93 f73d 16f0 9c3c e8b5 0c3d
00000320: 4c8b 0c3e bbaa df3d 1d60 d03c d0c6 edbd
00000330: e257 d33c dc1b 02be fc0a 1b3d 793f 4d3d
00000340: 8243 223c d224 143e 6d59 023e bd11 403e
00000350: c2b4 f3bb 4bf0 0b3e 9b32 483e 70a7 71be
00000360: b001 34be a4b9 83be d194 2ebe 2883 64be
00000370: a489 a0bc abbf 863e 2cc2 d33d 51eb bb3c
00000380: 965f b13c a06f dfbc 8f09 cb3d 4df9 523e
00000390: 91d1 17be d339 81bd abf1 48bd e33e d7bc
000003a0: af09 21be 5612 04be 059c a5bd 0044 123e
000003b0: 6c15 493d 0d56 003e e535 193e 0afb 8d3d
000003c0: 9144 ebbc 7141 933e 2b51 a03c a6dc f43d
000003d0: 19f4 663e 0414 e8bd af90 53be 6159 c6bd
000003e0: 6e75 ddbc b31b 203d b427 68bd 6c93 753e
000003f0: 73e7 1c3e e00e 003e 687c 163e 0d04 203e
0.04783942 -0.04346971 -0.04206434 -0.0042503206 0.009929628 0.11842649 0.10329593 -0.15119316
-0.030676018 -0.01902282 0.09363144 0.007926268 0.048779625 0.016338384 -0.07965481 -0.14604177
-0.23026809 -0.2869783 -0.20267436 -0.020032428 0.15491728 0.32224593 0.15659937 0.07634316
-0.18900532 0.038801655 -0.09790409 0.022555193 0.015167765 -0.019546358 -0.16025466 -0.30124086
-0.18671648 -0.1672498 -0.06533374 0.2243995 0.2207664 0.17306967 0.21276784 0.014992771
-0.05913521 -0.26454204 -0.10589811 -0.16523749 -0.060914937 0.08032441 -0.045032993 -0.07348154
-0.07547969 0.1241011 0.18312344 0.22592098 0.13058288 0.03704608 -0.2763977 -0.16295573
-0.03757212 0.071840115 0.23054864 0.100065835 0.08476513 -0.056605894 0.039689604 0.0371778
-0.12489591 -0.025275787 -0.19941609 -0.15947008 -0.15053678 -0.17066497 -0.050720554 0.09702396
-0.03683791 0.024520343 -0.015266236 -0.025339784 -0.015657103 -0.042146944 0.019755628 0.10774579
0.08042986 -0.009943108 0.20323506 -0.22535074 -0.054291442 -0.10389959 0.10056572 0.023384208
-0.042294282 -0.005028845 0.171224 -0.22217746 -0.03611042 -0.14678039 0.04386983 0.069845416
-0.052399464 0.15178616 0.06827132 0.03212745 -0.1608472 -0.018891001 0.18193097 -0.044636894
0.057332605 0.0848646 -0.0715013 0.20574397 -0.093061686 0.076801725 0.056988254 -0.03848273
-0.14319615 -0.1219175 -0.0047057266 -0.0050761793 0.18278001 0.16366099 -0.044421475 0.066954575
-0.03706662 0.2411261 0.02295277 0.0305019 -0.008472944 -0.10559157 -0.1834583 -0.21900746
-0.18283631 -0.0009940849 -0.021817751 -0.08211802 -0.12591967 -0.13750479 -0.010993665 0.07515292
0.22754087 0.20349936 0.08785883 -0.060912013 -0.031734746 0.006268789 -0.019360492 0.055053715
0.0204571 -0.12163814 -0.17809537 -0.18850185 -0.12697652 0.015049787 0.1582441 0.26802173
0.045706127 0.033522513 0.07647701 -0.009348331 -0.015983237 -0.018659374 0.044217546 -0.060875937
-0.058346502 -0.05865584 -0.01621162 -0.08090263 -0.09680339 -0.18545516 -0.10823336 0.048324313
0.08808265 0.21447371 0.23114984 0.17220697 0.09767551 0.11260427 -0.036677036 -0.16552193
-0.23815943 -0.18920802 -0.10535327 0.018572232 -0.024031874 -0.041222136 -0.014578619 0.095025435
0.1523384 0.17786324 0.10131743 -0.07625545 -0.16648595 -0.11236487 0.07832319 0.06320621
-0.20798597 -0.11511066 -0.015176916 -0.025452513 0.11379052 0.1208875 0.01915745 0.034353167
0.13725013 0.10921236 0.025436455 -0.11610186 0.025798742 -0.1270594 0.037852272 0.05010936
0.00990379 0.14467171 0.12729426 0.18756767 -0.0074373195 0.13665883 0.19550554 -0.23599029
-0.17578769 -0.2572757 -0.17048956 -0.22315657 -0.019596882 0.26318106 0.1033977 0.022939356
0.021652024 -0.027274907 0.099139325 0.20602913 -0.14826037 -0.06309857 -0.049058598 -0.026275104
-0.1572635 -0.1289762 -0.08086399 0.14283752 0.049092695 0.12532826 0.14961965 0.069326475
-0.028719218 0.28760865 0.019569954 0.11956148 0.22554053 -0.11331943 -0.20660661 -0.096850164
-0.027033534 0.039088916 -0.05667849 0.23982018 0.15322666 0.12505674 0.14695895 0.15626545

bias f4 [5]
00000000: b79a 1fbb e5b6 c0bb a433 debc f477 c43c
00000010: 6b27 5cbb
-0.0024353692 -0.0058811777 -0.027124234 0.02398298 -0.003359283

weight f4 [5]
00000000: 6b42 8b3f 5683 753f 8b80 773f 822a 823f
00000010: 0c1a 773f
1.0879644 0.9590353 0.96680516 1.0169222 0.9652412

bias f4 [5]
00000000: 91a0 4e3e 4ddb 8ebd 3d49 fe3d 6690 c7bc
00000010: e88e d33d
0.20178439 -0.06975422 0.12416313 -0.024360847 0.103299916

running_mean f4 [5]
00000000: a5f8 953d fd09 0b3d 4976 4c3d f1e5 aa3d
00000010: 31f9 5c3d
0.07322816 0.033945072 0.049917493 0.08344639 0.053948585

running_var f4 [5]
00000000: 7ddc 443d f280 cf3b fcae c73c 6af3 fb3c
00000010: bc30 eb3c
0.048061837 0.00633251 0.024375431 0.030755717 0.028709762

weight f4 [5, 5, 16]
00000000: 4dff 853d c1ac cb3c 0e4a f53d 39e9 d23d
00000010: 5078 033c 2122 fa3d 8678 d83d 1a59 eb3c
00000020: cb5c d33d f55f 103d f148 023e 5973 29ba
00000030: 440b 163d bb9e f93d b469 b4bd 8dde cc3d
00000040: 8432 09bd bd26 e1bd 95e8 bf3c e384 fabd
00000050: 4eea 17be 2905 9eb9 5921 31be b2a7 a6bd
00000060: 35ac aebc d040 2bbe e121 0cbd 26a1 f7bd
00000070: af8e 8abd 7a82 e2bd a893 40be d6bd 663a
00000080: 0986 b83b ea9c 803d c52e dcbb 7600 063d
00000090: 2862 673d ff1f 363b 0cd0 343d 14eb 0abd
000000a0: 69e5 3f3d b55e bf3d 65ad 023e 3856 853c
000000b0: 01a8 923d a88e b63d b348 e13d d6a0 a33c
000000c0: 1c08 f0bc f85f d9bc feaa 83be abef 8ebc
000000d0: a1ca f3bd b147 2fbe a969 783c 9db4 0ebe
000000e0: 004d 8ebd 7b38 4cbe 1a5a 9bbd f1da f5bd
000000f0: 3c13 51be c86b 8f3c fbdd 2dbe 97e0 55bd
00000100: bef7 973d b324 163d e088 f33d 4ff4 b63d
00000110: 7881 b93d 3326 933d e232 bb3d 981f ba3d
00000120: 6131 103d 769b b63d cdeb d03d ed1a 7ebb
00000130: 35f9 db3d 5ec2 8b3d 44f6 223d e0ce 9d3d
00000140: 39d6 253d 5c30 4fbd cfaa d43d d25b 903d
00000150: e8fd 983d 4ac3 9c3c ecf9 983d 67d9 b03d
00000160: 3feb fcbc 29b2 62bd a573 b4bd b57f 37bc
00000170: 6cac 0d3e 4ef6 48be 46c0 54bd 9243 333d
00000180: c527 893d 5b4d e8bc f4fe bc3b 5d8a 3ebe
00000190: 4e71 b63d 8ebc d73d 8e14 323e 456b a7bd
000001a0: ed6f bebd 4eb3 ed3d 235a 793c accd a23c
000001b0: 87c4 6cbd 363d a9bb 6dbf 2cbd 3df4 7b3c
000001c0: b129 8dbd ffb1 d83d 014a d23c 5df6 8abd
000001d0: da89 8c3d 3f37 84bd b155 6639 78c4 92bb
000001e0: 809e 9a3d fad0 11be d3c3 163d 2941 01be
000001f0: f31a 15be c27f 54be 088a 08be 5cd7 95bd
00000200: ac44 12bb f63f cb3d d85e 263c 3405 6f3d
00000210: 44d8 443c 8276 0b3e d13f 903d c7ea 59bd
00000220: ed52 893d d755 4c3c dc3b 863c 440f 0a3d
00000230: a8d2 f7bd 1059 9c3c 31a7 5dbd 3e35 443d
00000240: 524e fa3d 7a56 913d c0b9 1bbe 06e6 563d
00000250: da3d 06be 0881 a4bd 343c 913d d8a0 d1bd
00000260: c138 853d d5a9 f8bd 0264 31be f10a 403e
00000270: c180 af3d 5b44 7dbc 4515 8dbb 5acd 813d
00000280: e528 ac3c a76a e13d 87cc cf3d 0ed4 d53b
00000290: 0f53 8ebc d607 2bbe 4c50 95bb daf6 80bc
000002a0: 5472 173d ae28 113d 3461 5c3e 1b43 1ebb
000002b0: deb9 513b c326 f43d 3a0a 963d cda1 183d
000002c0: ba3e 0c3d 082a ddbb 586b 28be 8e76 b6bd
000002d0: a220 a13d f365 0a3e 8785 7fbd b01a 7d3d
000002e0: 46e7 e0bd 0a16 a0bc af72 c2bd 4336 913c
000002f0: 1b9c 423d 42de b73d d6f2 e7bc 6621 3fbe
00000300: ff3c 9b3d 6bef 13bc 7dda fdbc 7fab 083e
00000310: 1f24 dd3d d98c a23d 65cf bb3d a794 ad3d
00000320: 0198 7f3d 69ee 4f3d aae1 d13d 2dae b23c
00000330: f04c e63d 10c2 763d 6f96 383d c830 173c
00000340: 2995 64bd 89e6 a7bd 32fc 573d cf8d cebb
00000350: 7339 66be 7d65 9dbb 9f5f f43d 6409 0ebd
00000360: af92 d6bd 8836 66ba b4dd 233d f2ef 7b3b
00000370: f3de 953d 89c6 68bd 00d0 753d d8f9 123d
00000380: 1df1 9d3c 2662 a73d 1d95 993d 285d 303e
00000390: 33dc f93d 11dc eaba 74cb 423c f5a5 06bd
000003a0: 3f66 3b3e d7c5 b03c a78e 213d d115 b03d
000003b0: 5ed0 9e3c d239 22bb efe1 68bd 5289 8a3d
000003c0: 4236 1e3d f509 103d 5cef e73d afa8 84bd
000003d0: 9a2a 4c3d 3aed cd3d c613 92bd f074 a83d
000003e0: c827 473e 779b f43d 0001 3bbd fbad 90bc
000003f0: b969 3abd f8cb 9d3d fc73 6c3d 285f 16bc
0.065428354 0.024862649 0.119770154 0.1029839 0.00802429 0.12213541 0.10569863 0.02872901
0.10320433 0.03524776 0.12723137 -0.00064640265 0.036631837 0.121884786 -0.08809224 0.10003386
-0.03349544 -0.10993717 0.023426333 -0.122323774 -0.14835474 -0.00030139953 -0.17297877 -0.08137454
-0.02132235 -0.16723943 -0.034211997 -0.120912835 -0.06765496 -0.11060043 -0.18806326 0.00088020915
0.0056312126 0.06279929 -0.0067194426 0.032715283 0.056490093 0.0027790067 0.04414372 -0.033915594
0.046849642 0.09344236 0.12761457 0.016276464 0.071609505 0.08913928 0.110001944 0.019974153
-0.029300742 -0.02653502 -0.25716394 -0.017448267 -0.11903883 -0.17117192 0.01516191 -0.13936086
-0.0694828 -0.1994342 -0.07585545 -0.120046504 -0.20417494 0.017507449 -0.1697921 -0.05221614
0.074203 0.036656093 0.11891341 0.08933317 0.09057897 0.0718502 0.091405645 0.09088057
0.03520334 0.089163706 0.102012254 -0.0038773373 0.10740892 0.06824182 0.03978564 0.07705474
0.0404875 -0.05058323 0.10384142 0.07048763 0.07470304 0.01913609 0.07469544 0.08635216
-0.030873893 -0.055345688 -0.0881112 -0.011199881 0.13835305 -0.19625208 -0.05194118 0.043765612
0.066970386 -0.028357198 0.0057676975 -0.18607469 0.0890833 0.10534011 0.17390653 -0.08174757
-0.09298692 0.11606465 0.015219244 0.019873463 -0.05780461 -0.0051647676 -0.042174745 0.015378055
-0.06892718 0.10580825 0.025670053 -0.06785271 0.068622306 -0.0645585 0.00021966432 -0.0044789873
0.07549763 -0.14239874 0.036807846 -0.12622513 -0.14561062 -0.2075186 -0.13333905 -0.07316467
-0.0022318764 0.09924309 0.010154448 0.05835457 0.012014452 0.13619426 0.07043422 -0.053202417
0.0670527 0.012471638 0.016385965 0.033705965 -0.12100726 0.019085437 -0.054114524 0.04790234
0.1222197 0.07096572 -0.15207577 0.05246546 -0.13109532 -0.08032423 0.07091561 -0.10235757
0.065049656 -0.12141768 -0.17323306 0.18754174 0.0856948 -0.015458192 -0.004305514 0.06337996
0.021015594 0.110066704 0.10146432 0.006525523 -0.01737359 -0.16702208 -0.0045566913 -0.015742708
0.036974266 0.035439186 0.21521455 -0.0024148885 0.0032001655 0.11921456 0.07326169 0.03726368
0.03423951 -0.0067493953 -0.16447198 -0.08909331 0.07867552 0.13515453 -0.0623832 0.06179303
-0.10981612 -0.019541759 -0.094945304 0.01772607 0.047512155 0.08977939 -0.028314035 -0.18665084
0.075799935 -0.00902925 -0.030987972 0.1334667 0.10797905 0.07937021 0.09170417 0.08475619
0.06240082 0.050764475 0.1024812 0.02181157 0.112451434 0.060243666 0.04506534 0.009227939
-0.055806313 -0.08198268 0.052730747 -0.006303526 -0.22482853 -0.004803358 0.11932301 -0.034676924
-0.104771964 -0.00087819295 0.040006354 0.003844258 0.07317915 -0.056829963 0.060012817 0.0358828
0.01928001 0.08173017 0.07499144 0.17223036 0.12200203 -0.0017918368 0.011889327 -0.032873113
0.18300723 0.021578712 0.039442685 0.08597911 0.019386467 -0.0024753702 -0.056856092 0.06764473
0.038625963 0.035165746 0.11324951 -0.06477486 0.049845316 0.10055013 -0.07132678 0.08225429
0.19448769 0.11943715 -0.04565525 -0.017661085 -0.04551098 0.077049196 0.0577278 -0.00917796

bias f4 [5]
00000000: 1f58 a5bb 4a49 12be 16ad dabd f601 7ebd
00000010: 7a4a 4fbe
-0.0050459052 -0.1428577 -0.10677545 -0.06201359 -0.20243254

weight f4 [5]
00000000: 2431 8d3f b32e 713f 2801 723f e912 683f
00000010: 6c42 ac3f
1.1030622 0.9421188 0.94533014 0.90653855 1.345777

bias f4 [5]
00000000: 268e c7bb 3b07 c43b 3793 81bc ea92 65bb
00000010: 67f9 943d
-0.0060899435 0.0059823073 -0.015817268 -0.0035030195 0.07274132

running_mean f4 [5]
00000000: 5b94 e33e 2c65 e73d 012f 913e 2f01 a23e
00000010: 4c05 cf3c
0.44449124 0.11298594 0.28356174 0.31641528 0.02527108

running_var f4 [5]
00000000: 4a24 763d 74e2 383e 763c e23e 132c 513e
00000010: c7f3 a03b
0.0600932 0.18055135 0.44186753 0.20426969 0.004911873

weight f4 [2, 130]
00000000: 3bc4 e6bd 0f8c 17be 7db3 a0bd c217 2dbe
00000010: 883c 10bd a99f b0bc 11f7 e1bd 667f f2bd
00000020: 73ff 1ebe 33f5 a9bd 875b cbbd 5c15 91bd
00000030: d8d2 17be a7c3 06be d838 37bd c78c 2dbd
00000040: c6cf 97bd 87e7 bdbd e024 c4bd 92af 2bbe
00000050: c746 b1bd 44b6 d5bd eeec 1bbe 4383 9cbd
00000060: 9b13 d7bd d023 86bd 42cb a5bc ac92 9a3d
00000070: 7ed5 13bd 1a98 de3d e43d b0bd 9c4e a8bc
00000080: 6206 173d b719 a0bd 68a0 6f3d 20d4 8abd
00000090: e614 533d bf6f 3c3d 6581 59bb 7f33 d4bd
000000a0: 935e f83c 6624 7dbc fd1d 523d db45 d9bd
000000b0: 7724 043d 007e 5ebd 1ac3 0a3d 54bf 6f3d
000000c0: d22d e6bd 635b a83d f27b 0fbe 833f 7f3c
000000d0: 25ec d3bd 40c6 b4bd 580a cebd 5c82 b23a
000000e0: 9af4 8bbd 9941 3abd 1cd4 12be e802 ac3c
000000f0: 4fa7 b0bd e504 4d3d a5fa bfbc 6676 b8bc
00000100: 4b33 83bd 1f3b 743c 908c cb3c 5ac3 49bc
00000110: 1bdf 59bd 15b2 e2bc 1002 9fbc d334 d4bd
00000120: 6479 99bb 469b 54bc 353c cdbc 2087 fbbd
00000130: 5dff abbc 9ff3 f53c cc8c 3abd 25c6 90bd
00000140: 59bd 06bd 2cbe 213d 4d12 fbbc 3fe0 d9bd
00000150: 4230 8fbd 233f 3e3c 6ffd 7ebd 14a2 58bd
00000160: 87f8 4cbc 5a63 32bd cc8e 24bd 19a4 dc3b
00000170: f46c 58bd 6a60 8cbd c527 633b 7d62 b1bd
00000180: fabc 9c3c 4e09 d2bd 598b 99bd dee2 683a
00000190: 6075 dc3b ce81 9ebd d5dd 59bd 7e4c 8a3b
000001a0: b645 b63d 4300 d53d 7354 103e 133b ae3d
000001b0: 2ad5 1d3e b550 b43d a296 453e 0c35 dc3d
000001c0: e98e 393e 3b56 143e f7be 853d 2712 f43d
000001d0: 8246 e43d abb0 f83d 1d5e fa3d 17c5 193d
000001e0: affb 243e 5e7c c23d 6cb0 313e 23c6 d33d
000001f0: 0be6 e73d 18e9 d13d 7794 293e 1ee9 5e3e
00000200: d757 c33d fb87 943d fc93 4f3d 0392 f33d
00000210: c659 da3d 0905 003d fdd2 1b3e fedd 233e
00000220: 8ce1 cf3d 3719 5e3d 63c3 a33d 9a23 c43d
00000230: 44da 6a3d 5e80 063e 9715 623d a435 ae3d
00000240: 021c b33d 4276 193e b6b3 153e 626d e03d
00000250: 4bbe f43d 667d 5f3d 3c09 063e 135e b73d
00000260: d71e a23c 5769 133e 0d85 173e 2dab de3d
00000270: c755 e5ba 1edb febc 484b 863d 963a 153d
00000280: 3539 b73d d761 a53c b079 b1bc 3d66 6bbc
00000290: b168 38bd e6ca 153d a073 a93b 4b90 08bd
000002a0: 5038 bbbc 8ea2 0dbd a30c ff3c 4d87 4ebd
000002b0: 568b c1bd 6721 5f3d c873 d0bc 08a1 113e
000002c0: 7787 8e3d 1b94 21bc 5f2c 90bb 9823 65bd
000002d0: 9d49 333c 4cf2 24bd 2994 a93d 441e a03d
000002e0: 288c 153d 7e52 e23d eb64 a93d 0003 37bc
000002f0: bacf 413d 0b58 ea3d 2c57 633c 2af5 433d
00000300: dd33 863d 98ed 3d3d 6bbc 823d 9900 253d
00000310: 0424 a33d ae00 ab3d 13f1 7b3d 14d2 a13d
00000320: d9ac b33d 5e5f 0b3d 5536 113c a7ff 223e
00000330: ee7c ac3d 643b 253d c575 67bc ce81 313d
00000340: fd54 1e3e df17 013e 36dc bb3d 7587 393d
00000350: 5e24 823c 28cf 123c 12e3 233c a8e6 8b3d
00000360: b8e2 13bb 57ce 583d ee47 923d f2b5 e13a
00000370: 25ea 4c3d 5068 07bb 3fde 473d 0080 163b
00000380: 1841 c73d b316 3ebc c7ef b9bc 9071 913c
00000390: 2e16 f93b e891 2d3d 308c 923c 408d c03b
000003a0: fc1c 623d 1ee9 8c3c 7ac8 c1bd cb94 a5bd
000003b0: 7123 f0bc dd47 13be 4187 62bd abf4 27be
000003c0: 20ad cabc 5565 dfbd 25ff 7abd 505d aebd
000003d0: 5502 3cbe e90f 05be 2455 00be 84b2 25be
000003e0: e3e8 cfbd 3276 38be e013 0fbe 116e c6bd
000003f0: 6784 d6bd 90f5 22be a190 18be 004f edbd
-0.11267897 -0.14799522 -0.07846735 -0.16903594 -0.035213977 -0.021560507 -0.11033452 -0.118407056
-0.15527134 -0.08298721 -0.09929567 -0.07084152 -0.14826524 -0.13160573 -0.044731945 -0.042370584
-0.074126765 -0.09272676 -0.09577346 -0.16766194 -0.08656078 -0.10435155 -0.152271 -0.07642224
-0.10501786 -0.065497994 -0.020238522 0.07547507 -0.036092274 0.10868855 -0.08605555 -0.020545296
0.03687132 -0.07817405 0.058502585 -0.06778741 0.051533602 0.046005007 -0.0033188697 -0.103613846
0.030318534 -0.015450573 0.05129813 -0.10609027 0.032261338 -0.05431938 0.03387747 0.058532074
-0.11239208 0.08220556 -0.14012125 0.015579107 -0.10347775 -0.08826876 -0.10060567 0.0013619172
-0.068337634 -0.045472715 -0.14338726 0.02099748 -0.086256616 0.050053496 -0.023434946 -0.022517394
-0.06406268 0.014906674 0.024847299 -0.012314642 -0.053191286 -0.027672807 -0.019410163 -0.10361638
-0.0046836603 -0.012976473 -0.025053123 -0.122816324 -0.02099579 0.030023394 -0.04554443 -0.07069043
-0.03289542 0.039488003 -0.030648375 -0.10638475 -0.06991626 0.011611733 -0.06225341 -0.052888945
-0.012510425 -0.04355178 -0.040175244 0.006733429 -0.05283828 -0.06854327 0.0034661156 -0.08661363
0.01913308 -0.10255681 -0.074972816 0.00088839035 0.0067278594 -0.07739602 -0.05319007 0.0042205444
0.08900015 0.104004405 0.14094715 0.08507361 0.15413347 0.08804456 0.19295743 0.107523054
0.18120922 0.1448602 0.06530564 0.11917525 0.11146261 0.12143072 0.12224982 0.037541475
0.16111635 0.094963774 0.17352456 0.10340526 0.11323174 0.10249537 0.16560541 0.21768615
0.095382385 0.07252499 0.05067824 0.11893084 0.10661654 0.031254802 0.15217204 0.16002652
0.101504415 0.054223265 0.079962514 0.09577103 0.05733706 0.13134906 0.05519637 0.08506325
0.087455764 0.14986518 0.14619336 0.10958363 0.11950358 0.05456295 0.1308946 0.0895349
0.019790096 0.14395653 0.14796849 0.10872493 -0.0017496877 -0.031110343 0.065573275 0.036432825
0.08946458 0.020188255 -0.02166447 -0.014367637 -0.045021717 0.036570452 0.0051712543 -0.033340733
-0.022854 -0.034578852 0.031133955 -0.050422 -0.09450404 0.054475214 -0.025445834 0.14221585
0.069594316 -0.009861971 -0.0043998207 -0.055942148 0.010942844 -0.040270135 0.082802124 0.07818273
0.036510617 0.110508904 0.08271202 -0.011170149 0.047317244 0.11442574 0.013875764 0.04784123
0.06552861 0.046369165 0.06383594 0.040283773 0.07965854 0.08349739 0.061509203 0.07901397
0.087732024 0.034026496 0.008863051 0.15917836 0.08422266 0.040339842 -0.0141272 0.043336682
0.15462108 0.12606762 0.09172861 0.045295198 0.015886482 0.008960523 0.010002868 0.068311036
-0.0022565555 0.052931156 0.07142626 0.0017220362 0.050027985 -0.002066154 0.048795935 0.0022964478
0.097292125 -0.011602092 -0.022697343 0.017754346 0.007601521 0.042375475 0.017889112 0.0058762133
0.055203423 0.017201003 -0.09462066 -0.08085021 -0.029313775 -0.14382882 -0.05530477 -0.16401927
-0.024740756 -0.109079994 -0.06127848 -0.08513892 -0.18360265 -0.1299435 -0.12532479 -0.1618138
-0.101518415 -0.18013838 -0.13972425 -0.09688962 -0.104744725 -0.15913987 -0.14898922 -0.11587334

bias f4 [2]
00000000: c6f8 1cbc 6f7f f73c
-0.009580797 0.030212132
