saved_models/diffconv_IEGM_net_state_dict.pkl (torch, 12237 bytes, 14 tensors)

conv1.0.weight f4 [5, 1, 64]
000000 47 79 6f be 25 4f 4f be 15 e6 0a be a8 eb 27 3d
       -0.23386107 -0.20245035 -0.13564332 0.040996224
000010 f9 ca d3 3d f8 35 ca bd f0 ab 5f bd 60 b5 bb bd
       0.10341448 -0.09873575 -0.05460733 -0.09165454
000020 24 e3 7d bd 65 e6 20 3e 36 5f 0d 3e c9 08 ac 3d
       -0.061984196 0.15712889 0.13805851 0.08400113
000030 45 5a 47 bc 49 d0 96 bd 9a eb 6f be 22 8e 31 be
       -0.012167518 -0.07363946 -0.23429719 -0.17339376
000040 bb 64 ff bd e9 94 9c bc cd 47 3e 3d 0e e7 fb bd
       -0.12470385 -0.019113975 0.046455193 -0.122999296
000050 10 bb f7 bc 7f b3 f2 bd bd 2b 0b 3c 24 0b fe bc
       -0.030240566 -0.118506424 0.008494315 -0.031011172
000060 65 ac 7b 3d b5 e6 93 3d 3c 77 1e 3e d1 02 d9 3d
       0.061443705 0.07221738 0.15475172 0.1059624
000070 5e 12 bf bc 35 d3 94 bd 34 9b 98 bd d5 1b 12 be
       -0.023324188 -0.07266847 -0.07451478 -0.1426843
000080 4a ca e5 bd 57 16 02 be 8b a2 ce bd 1e c3 16 3e
       -0.11220224 -0.12703834 -0.10089596 0.14722869
000090 15 15 2e 3d 4a 4c 84 bc 55 d1 a9 3d 3f 74 fd 39
       0.042500574 -0.016149659 0.0829188 0.0004834253
0000a0 23 4f b8 bc 7f a1 c1 bd 6e 94 fb 3d f3 92 b7 bc
       -0.022498673 -0.09454631 0.1228417 -0.022408938
0000b0 be b2 82 bd 91 39 8d 3d 63 c8 10 bd 74 2d df bd
       -0.063817486 0.068957455 -0.035347354 -0.10897341
0000c0 1e 47 08 bd 2c 59 11 be ad 36 21 bd 50 93 a7 bb
       -0.033270948 -0.14194173 -0.039358784 -0.0051139966
0000d0 55 77 d4 3d b2 08 84 3b ee 0f 34 3d be d3 61 3d
       0.10374323 0.004029357 0.043960504 0.055133574
0000e0 7b 26 1b bd a9 7e b3 3c 17 8b e6 bd cb 89 0e bd
       -0.037878495 0.021910982 -0.11256998 -0.03479938
0000f0 ee a6 af bd fa 47 79 3d f3 0c 5e 3d 9d 83 9d bd
       -0.08576761 0.060859658 0.054211568 -0.07691119
000100 c2 e1 97 bd 91 62 cc bd 20 5f 55 bd 20 59 06 3d
       -0.07416107 -0.099797376 -0.05209267 0.03279984
000110 e8 e2 29 bd 45 42 8f bd 68 7b 04 bd 43 87 50 bd
       -0.04147616 -0.06995062 -0.032344252 -0.050910246
000120 ea d8 0c be 08 d1 14 be 05 6c ab 3c 00 ce b2 3d
       -0.13754621 -0.14532864 0.020925531 0.08730698
000130 55 bc 27 3e 4d 7d 3c 3e 50 9d d5 3d e6 47 c1 3d
       0.16380437 0.18407173 0.104303956 0.09437542
000140 d8 92 ac bd e5 9d 1f be fe 21 38 be 07 dd a6 bd
       -0.08426446 -0.15587576 -0.17981717 -0.08147626
000150 20 9a 8a bd 2c 61 d0 bd 1a e8 6a 3c 31 44 99 3d
       -0.06767678 -0.10174784 0.014337564 0.074837096
000160 d1 79 98 3d 84 4c e9 3d 44 42 91 3d ed 99 58 bd
       0.0744511 0.11391547 0.07092717 -0.05288117
000170 d7 26 0a bd 98 3d c4 3b 60 90 8b 3d 1c c4 a4 3d
       -0.033728447 0.005988788 0.06814647 0.080452174
000180 d6 a2 71 bc 7b 86 ed bd 32 b9 0c be 09 bd 31 bd
       -0.014748296 -0.11597916 -0.13742521 -0.04339317
000190 d6 ae 0b 3d f0 24 01 3e 44 ae 13 3e 04 81 12 3e
       0.034102283 0.12611747 0.14421946 0.14307028
0001a0 4d 27 85 3d 23 84 73 3d 01 d0 6a bd e3 b0 78 bd
       0.06501637 0.059452187 -0.057327274 -0.060715567
0001b0 c7 40 f5 bd 6c ff 5b bc 17 56 09 3b 0d 58 56 3d
       -0.11975246 -0.013427597 0.0020955855 0.052330066
0001c0 e8 3d 65 3d 10 11 80 3c e3 f5 2e bd aa 20 e6 3c
       0.05596724 0.015633136 -0.042714965 0.028091747
0001d0 14 a7 fe 3c 23 09 be 3d eb 13 91 3d c7 03 f4 3c
       0.031085528 0.092790864 0.07083877 0.029786957
0001e0 b3 92 50 3d e1 06 be 3c 16 5c d2 bd 61 d6 cb bd
       0.050921153 0.02319664 -0.1027147 -0.09952999
0001f0 a5 48 7c 3c 0f 6d d4 bd ff 77 2f bc 31 f6 61 3c
       0.015398179 -0.10372364 -0.010709762 0.013791607
000200 f8 bf 12 bd 2b 8f 27 be e5 67 5e 3d be d0 ed 3d
       -0.035827607 -0.16363208 0.0542983 0.1161208
000210 1c db 37 bc a1 f4 36 3d a8 75 87 bd ae ca bf 3d
       -0.011221673 0.04466689 -0.06614238 0.0936483
000220 cc bc 27 3e c5 82 9e bd 66 20 8a 3d 1a a1 02 3e
       0.16380614 -0.07739786 0.06744461 0.12756768
000230 e7 75 42 be ac 04 28 3d 86 12 e1 bd 4c 4d c3 3d
       -0.18990289 0.04102008 -0.10989861 0.095362276
000240 5b da 79 3d 95 a6 06 be b3 95 1b bc f4 aa f7 3d
       0.060999256 -0.13149484 -0.00949614 0.120931536
000250 92 93 d5 bc d6 3a 9f 3d c4 27 84 3d 2a c7 f4 bd
       -0.026071344 0.07774894 0.06452897 -0.1195205
000260 1f ee 30 bd b1 7b 01 be 24 05 c0 3d 8f 21 1e 3d
       -0.04319584 -0.12644841 0.093759805 0.038606223
000270 ff 25 8d bd 70 ab 11 bd fe 4a c8 bd a7 35 a5 3d
       -0.06892013 -0.035563886 -0.097799286 0.08066874
000280 df 9c b6 3d 0c f1 4f bd a9 28 50 3d 92 0a 3a 3e
       0.089166395 -0.05076699 0.050820027 0.18168095
000290 2b 26 8f 3d 2e 99 51 be 26 ae 9f ba 28 d6 f1 bd
       0.06989702 -0.2046859 -0.0012182638 -0.11808425
0002a0 f7 61 9e 3c 32 4a bf bd 49 e5 9b 3d 7f 3f 53 3e
       0.019333823 -0.093403235 0.07612092 0.2062969
0002b0 b5 bb aa bd aa d1 05 bd d8 df 04 3d b6 c4 80 3c
       -0.083365835 -0.032670654 0.032440037 0.0157188
0002c0 35 75 02 bd cd 03 28 3e af 38 00 be c2 19 de bd
       -0.03185006 0.164077 -0.12521623 -0.10844757
0002d0 cf 94 ec bc b8 e9 6f bd 17 0a 16 be 7c 8b 7a 3c
       -0.028879551 -0.0585725 -0.14652286 0.015292045
0002e0 32 d5 8e bc 3f 3a a6 bd c6 c2 27 3e dd c6 38 bd
       -0.017435644 -0.08116578 0.16382894 -0.045111526
0002f0 7f c9 e4 3c 81 53 97 3d 03 0d b0 3d 57 8f a9 3d
       0.027928112 0.07388974 0.08596232 0.08279293
000300 c0 35 14 3d 47 7e d1 bd 2e e5 6e 3d 4e dc a5 bc
       0.036184072 -0.102291636 0.05832403 -0.020246651
000310 0d 4f 26 be 3a 2b e9 bd a3 61 e6 3a 2b 9b 1e 3d
       -0.16241093 -0.11385198 0.0017576705 0.0387222
000320 ed b5 e9 bc fe a8 29 bd 8d 5a 68 3d 77 e3 62 bd
       -0.028529132 -0.04142093 0.05672698 -0.05539271
000330 af f3 f8 3d 7e de e7 bc fd 39 85 bc 95 90 c6 3d
       0.12155854 -0.028304335 -0.016263003 0.096955456
000340 cb d5 e4 bc 8e d9 2c 3d e3 b2 1e bd 92 db fd bd
       -0.027933976 0.042199664 -0.03874482 -0.12395395
000350 58 4a ce bd b2 3e 22 be 17 36 e6 3d 89 bc 59 3d
       -0.10072774 -0.15844229 0.112407856 0.053158317
000360 64 d2 1f 3e 55 47 1e 3e fd f4 24 bd 21 ee 00 be
       0.15607601 0.15456899 -0.0402727 -0.12590839
000370 32 0f 03 be 1c 38 8d bc c6 16 3d 3d 32 1d c9 3d
       -0.12798765 -0.01723867 0.046164297 0.09820022
000380 b0 c9 18 bc 75 17 07 bc 26 bd c5 bc af 20 62 3c
       -0.00932543 -0.008245339 -0.024138045 0.013801738
000390 ac 7e c8 3d c3 45 b2 3b c4 bf 1a 3d dd 4b 8d bd
       0.09789786 0.005440445 0.03778054 -0.068992354
0003a0 f1 52 c4 3d bd 07 29 3d 50 21 e2 3d 05 6a 06 3e
       0.09586132 0.041267145 0.1104151 0.1312638
0003b0 5e f0 38 bd af a7 bb bd 66 2a d5 bb ac 45 7b 3d
       -0.045151107 -0.091628425 -0.0065052984 0.06134574
0003c0 68 57 46 3d f2 49 9a 3d f6 1c c0 bc 9c 2e 43 bc
       0.0484232 0.07533635 -0.02345131 -0.011912968
0003d0 ce bf 02 3e 81 67 09 3d 4c a5 30 bc 84 23 9c bd
       0.1276848 0.033545975 -0.010781597 -0.076239616
0003e0 92 30 c6 bd 8f 15 e3 bd 47 95 a0 3d ea 95 08 3e
       -0.09677233 -0.11088096 0.078409724 0.13338438
0003f0 9e 90 74 3d a9 d5 09 3e 5c e8 4f bd 3f bf 1e be
       0.05970823 0.13460411 -0.050758705 -0.15502642

conv1.0.bias f4 [5]
000000 50 dd d5 bc 14 ae 8a bb d0 de b4 bb 35 e1 ef bd
       -0.026106507 -0.0042321775 -0.0055197254 -0.11712877
000010 68 7b 9a bb
       -0.004714418

conv1.2.weight f4 [5]
000000 c1 6d 89 3f 51 e4 86 3f 27 9f 86 3f 88 f6 88 3f
       1.0736619 1.0538427 1.051732 1.0700235
000010 c0 6d 89 3f
       1.0736618

conv1.2.bias f4 [5]
000000 0b f6 ad bc c3 32 ba 3b 11 d4 2d 3c e1 1f d3 3b
       -0.021235486 0.005682321 0.010609643 0.0064430092
000010 59 17 6a 3b
       0.0035719483

conv1.2.running_mean f4 [5]
000000 68 96 3f 3c 8b 89 f6 3c 2c eb 3b 3d 19 07 11 3b
       0.0116935745 0.030094882 0.045878574 0.0022129475
000010 0a 5b a8 3c
       0.020551223

conv1.2.running_var f4 [5]
000000 45 77 a7 3a 70 a9 4c 3b 3f 5c 00 3b dc 4e 86 39
       0.0012776634 0.0031228922 0.0019586233 0.00025617226
000010 6b fc 2d 3b
       0.0026548158

conv2.0.weight f4 [5, 5, 16]
000000 ce b7 5a 3d 3c 3d 3b 3d d9 81 1e 3d cb ee db bc
       0.053397946 0.045712695 0.03869805 -0.026847264
000010 94 86 43 bd 1b 1f 89 bd 4e 0d c8 3a 2f 18 3d 3c
       -0.047735766 -0.06695386 0.0015262754 0.01154141
000020 18 76 21 bd 12 fe 88 3d 84 d3 04 3c 13 90 e3 3d
       -0.039419264 0.06689085 0.00810707 0.11111464
000030 59 cc 66 3d cb d6 09 3e 95 1d 89 3d 1e ab d2 bb
       0.056347225 0.13460843 0.066950954 -0.00642909
000040 2d 5d 96 3d 2f 8c 16 3d 1f 2c 18 3d ff 76 4f bd
       0.073419906 0.036754783 0.037151452 -0.050650593
000050 a4 5e b9 bd 5a 4e aa 3d 78 aa 69 3d 66 67 09 be
       -0.090512544 0.083157256 0.057047337 -0.1341835
000060 2c 0a a0 3d d6 af c3 3d 94 2c b5 bc 36 1b e9 3c
       0.0781444 0.095550224 -0.022115983 0.028455358
000070 06 81 8b 3d 7e c1 f7 3d a9 21 c7 3d d3 32 45 bd
       0.06811719 0.120974526 0.09723217 -0.048144173
000080 18 76 52 bd 33 cd 6e bd 03 1a d1 bd 44 6f d1 3d
       -0.051382154 -0.058301162 -0.102100395 0.102263
000090 00 08 39 3d 4b 9a 8f bd af 5b 0a be cd 84 1a bd
       0.045173645 -0.07011851 -0.13511537 -0.037724305
0000a0 f6 e1 10 3e 81 86 9a 3d 26 1a 93 bd 64 b0 a6 3d
       0.14148697 0.07545186 -0.07182722 0.081391126
0000b0 08 95 13 3e 64 b9 df 3d fa 11 06 be 54 45 c6 3d
       0.1441232 0.10924032 -0.13092795 0.09681192
0000c0 5a ee a7 3d f5 86 bf bd af ad 98 bc 90 21 05 3d
       0.08199759 -0.09351913 -0.018637506 0.03250271
0000d0 0b 18 10 3d fd 20 23 bd be fe 86 3b a4 fa c0 bc
       0.03517918 -0.039826382 0.004119723 -0.023557015
0000e0 ba 18 1a 3d a6 62 86 3d 49 ea bb 3d 23 cc 4d bd
       0.037621237 0.065617844 0.09175546 -0.050243508
0000f0 7c 6a 44 3d a7 a5 12 be e5 16 02 bd 8a 6a 4f bd
       0.047953114 -0.14321004 -0.031760115 -0.050638713
000100 37 af cf 3b 5b d3 85 3d f6 1f c8 3c 2f 1e 3a 3b
       0.006338026 0.065344535 0.024429303 0.0028399338
000110 d5 e0 90 3c 58 72 f5 3d 94 aa ad bc 84 56 53 3d
       0.017685333 0.119847 -0.021199502 0.05159618
000120 e7 c2 81 3b 6f ca 67 bd 4e 66 9b bd b3 bc 94 bd
       0.0039600017 -0.05658954 -0.075878724 -0.07262554
000130 c1 c1 16 bc 2c d7 05 3d eb 8e 50 3b 78 e0 6c bd
       -0.009201468 0.032675907 0.0031823467 -0.057831258
000140 55 87 16 3b c2 3c 3f bd 7d 15 39 3d ec 0c 90 bd
       0.0022968848 -0.046688803 0.04518651 -0.07033715
000150 e7 eb 90 3b fc d0 a6 bc cb 53 1d bc c5 ed 5a 3d
       0.004422653 -0.020363323 -0.009602497 0.05344941
000160 9e dd dc bc 18 03 90 bd c4 e8 e6 3c 4e 72 d7 bc
       -0.026961144 -0.0703184 0.028187163 -0.026299622
000170 2e 01 6c 3d de dc b1 bd 62 59 be bc b1 d2 b4 3d
       0.057618313 -0.08684705 -0.02323598 0.08829249
000180 18 42 f6 bc 90 f7 9a bd e8 46 c1 3d af 6f 76 3c
       -0.030060813 -0.0756675 0.094373524 0.015041276
000190 45 38 9a bc 6c e5 8b bd 50 30 22 bd 25 90 73 3d
       -0.01882566 -0.06830868 -0.039596856 0.05946364
0001a0 1e 62 b2 3d 39 ea b7 3a eb 48 df bd ac 15 80 3d
       0.087101206 0.0014031596 -0.1090258 0.062541336
0001b0 03 c5 d9 3d fb 5d fc 3c 6e b9 c4 bd cc 6d b4 3d
       0.1063328 0.030806532 -0.096056804 0.088100046
0001c0 9b c7 a5 bc ca 22 e9 3d 14 b1 3f 3e 81 03 4c 3d
       -0.02023678 0.113835886 0.18719894 0.04980803
0001d0 38 a6 47 3d f7 9f 69 bd 4b cd 71 bc b0 6d 25 3e
       0.048742503 -0.05703732 -0.014758418 0.16155124
0001e0 b4 20 a2 bb a6 84 43 bd 96 ab 49 3b f2 2a 71 bd
       -0.004947746 -0.047733925 0.003077244 -0.058878846
0001f0 b0 cf 25 3d 2b 72 5d 3d 90 62 ce bd 6a f6 00 3d
       0.04048127 0.054063957 -0.10077393 0.031485
000200 9c 18 8e 3d dc b9 0a bc 3b 70 0c 3d 31 de d5 bd
       0.069382876 -0.008467164 0.03428672 -0.1044277
000210 89 a0 b8 3b 99 e7 85 bd 98 d9 ad 3d eb c8 61 3c
       0.0056343717 -0.06538314 0.08488768 0.013780813
000220 5a 1a 32 3d 31 99 3c bc ea 92 00 3c 7d b7 ed bd
       0.043482162 -0.011511133 0.007847527 -0.11607263
000230 2b bc 80 bc 17 5d 5f 3d 02 e8 54 bd 8c c6 4d 3d
       -0.015714725 0.054532137 -0.051979072 0.050238177
000240 a3 20 ee bc d3 eb d4 bd 7c 97 da 3d c8 00 a1 bc
       -0.029068297 -0.103965424 0.106734246 -0.019653693
000250 6d 17 1f bb 78 72 59 bd ae 9b c6 3c 5e 54 b8 3d
       -0.0024275437 -0.05308768 0.024244156 0.09000467
000260 01 f8 f7 3b d3 ee aa 3d e5 73 7e 3d 04 67 9a 3d
       0.007567406 0.08346333 0.062122244 0.0753918
000270 85 e6 96 3d 63 6b 25 3e d8 05 9d bd 99 67 dc bc
       0.07368187 0.16154246 -0.0766713 -0.026904868
000280 b1 2c 93 3c 5b 81 f2 bc 3a 16 18 3e e5 2a 03 3e
       0.017965646 -0.029602697 0.14852229 0.12809332
000290 e5 46 df 3d 1d 3d 1b 3d 6e a7 eb 3c 70 1b c3 bc
       0.10902194 0.03790008 0.02876636 -0.023816794
0002a0 9b 17 d4 3c 31 fe f8 3c 18 15 97 3d 4d 27 e4 bc
       0.025890162 0.030394645 0.0737707 -0.027850771
0002b0 be 13 52 3d 8f fc bd 3d 7e a2 2e bc c6 48 c2 3b
       0.05128836 0.09276687 -0.010658858 0.0059290854
0002c0 ed fd 05 3e 5b 73 f8 3c 1e fa e8 3d 52 f8 f3 3c
       0.13085146 0.030328443 0.11375831 0.029781494
0002d0 0c 22 00 3d 31 df e8 3d bd f9 96 3d af fc 58 bd
       0.03128247 0.113706954 0.073718525 -0.052975353
0002e0 a7 3c 48 3d 52 ff e4 3d 2a 64 f3 3d 97 a1 4f bd
       0.048885968 0.11181511 0.11884339 -0.050691213
0002f0 2c 1d bf 3d 69 4d 92 3d 61 67 09 3d bb 1a e0 3d
       0.09331736 0.07143671 0.033545855 0.109425984
000300 e8 52 37 3d e9 2e 36 3c 0a 9b 84 3d 54 41 b3 3a
       0.0447568 0.011119583 0.06474884 0.0013676086
000310 f3 af d7 3d 15 05 b9 bd 96 1e 9b bd 33 07 1a 3d
       0.105316065 -0.090341724 -0.07574193 0.037604522
000320 48 30 4f bd cd dd cf bc ba 31 9a bd eb ad a1 bd
       -0.050583154 -0.025374318 -0.07529016 -0.078945
000330 38 30 04 3b be 9c 38 3b c4 78 bb 3b e1 9b 2c bc
       0.0020170342 0.0028169597 0.0057211835 -0.010535211
000340 63 e9 f2 bc a6 5e ba bd dd 18 c0 3d f9 eb 3e bc
       -0.029652303 -0.09100084 0.09379742 -0.01165294
000350 b9 26 0f bd a4 7e fd bd d9 d0 27 3d 1b 56 2f 3d
       -0.03494904 -0.123776704 0.040970657 0.042806726
000360 35 4f a4 3c a9 43 97 bc 9d 82 ab bd 3d f9 40 bd
       0.0200573 -0.01846488 -0.08374522 -0.047112692
000370 2b df a2 3c f9 42 4c bd dc 1c 97 3d 4e c5 5b bd
       0.019881805 -0.049868558 0.07378551 -0.05365496
000380 32 36 9f 3d 13 fa d3 3c 81 11 9b 3b 7c 31 73 bd
       0.07774009 0.02587608 0.0047323112 -0.059373364
000390 ce f3 b6 3d 88 37 08 bd f5 98 34 bd 68 d4 08 bd
       0.08933221 -0.033256084 -0.044091184 -0.03340569
0003a0 26 d6 b0 3d fa 03 47 3c 62 15 56 3d 38 ef 9e 3d
       0.086345956 0.012146944 0.052266486 0.07760471
0003b0 29 75 14 3d e6 e3 a6 3c 8a f8 a4 bc 40 f7 08 bd
       0.036244545 0.020372342 -0.020138044 -0.03343892
0003c0 b1 a2 c3 3c 60 2c 61 3d e6 00 43 bd c6 0e 06 3c
       0.023881288 0.05497396 -0.04760828 0.008182233
0003d0 88 7b 18 be 40 ae 06 3d 65 6d 97 bd 9f 60 f3 bc
       -0.14890873 0.03288102 -0.07393912 -0.029709158
0003e0 cc f3 c7 bd fb 3d de 3c 18 56 c2 3d 55 c7 f9 bd
       -0.097632974 0.027129164 0.09489077 -0.12196223
0003f0 ce 11 ec 3d 19 c8 71 3b d5 9c ca 3d c9 06 93 bd
       0.115268335 0.003689295 0.098931946 -0.071790285

conv2.0.bias f4 [5]
000000 29 0e f3 bd cb 2b a0 bd f1 3a da 3d ea 31 dc bd
       -0.11867935 -0.07820853 0.106557734 -0.10751708
000010 cc 7e d2 bd
       -0.10278091

conv2.2.weight f4 [5]
000000 4c c8 77 3f 3b 7a 84 3f 02 21 7d 3f 15 0a 9a 3f
       0.96790004 1.0349802 0.9887849 1.2034327
000010 8c 2b 92 3f
       1.141954

conv2.2.bias f4 [5]
000000 3e 15 a3 3c bc db 26 ba 69 6a ad 3c 65 28 76 bc
       0.01990759 -0.00063651404 0.021168904 -0.015024279
000010 92 a5 2d bc
       -0.010598557

conv2.2.running_mean f4 [5]
000000 31 0e 07 3e 43 1d fe 3d 48 aa 62 3e 93 c2 b6 3d
       0.13189007 0.12407925 0.2213527 0.08923831
000010 c2 39 d8 3d
       0.105578914

conv2.2.running_var f4 [5]
000000 77 5c be 3d 8f 4d 99 3d aa 4b 43 3e 13 92 e6 3c
       0.0929498 0.07485496 0.19071832 0.028145825
000010 22 6d 19 3d
       0.037457593

fc1.1.weight f4 [2, 520]
000000 1e 91 eb bc a5 f1 d1 3c 53 25 a1 3a 0f 81 09 bd
       -0.02875572 0.02562792 0.0012294449 -0.033570345
000010 d3 aa 2d bc bd fa 85 bd b9 5b 4b bc 64 3c ce 39
       -0.01059981 -0.06541965 -0.012412005 0.00039336376
000020 ab 56 07 bd c9 62 06 bd 91 ea 04 bc fe 58 1f bd
       -0.033041637 -0.032809053 -0.008112566 -0.03890323
000030 66 b2 9a bc f2 d1 9b bc fe 45 3c bd 0c b8 44 bd
       -0.018883895 -0.019021008 -0.045965187 -0.048027083
000040 0f 0a a8 bc af 3f 1f bd 46 bf 24 bd 9b 25 8d ba
       -0.020512609 -0.038879093 -0.040221475 -0.0010768654
000050 b5 25 18 bd ac 73 0c bd 49 c3 ad bb a6 9b 07 bd
       -0.037145335 -0.03429 -0.005302821 -0.033107422
000060 bd 26 07 bd 3d 9b 0b 3d 9f 8a f8 bc 7d ca 3b bd
       -0.032995928 0.034083594 -0.030339537 -0.045847405
000070 28 fe 64 bc 1d 53 5a bd 3d b5 7f bc c4 84 a6 bc
       -0.013976611 -0.05330192 -0.015607175 -0.02032698
000080 d6 ae 8c bd 9c 6a 0d bd 3b 3d 22 bd 24 69 8c bb
       -0.06869285 -0.0345255 -0.039609175 -0.0042849947
000090 03 33 e3 bb ba 6c b8 bc f5 02 3c bd fd f4 13 bd
       -0.0069335713 -0.022512782 -0.045901258 -0.03612231
0000a0 04 06 39 bd d0 fe 20 bb e6 e0 54 bd d9 71 a2 bb
       -0.045171753 -0.0024565943 -0.051972292 -0.0049574194
0000b0 3f af 36 bd d1 6a 53 bd 1b 37 8b bb 2c 9c d9 bc
       -0.04460072 -0.05161554 -0.0042485124 -0.026563726
0000c0 b7 20 fe bc ab 5f 19 3a ac 75 49 bc 2d d9 0e bd
       -0.031021459 0.00058507425 -0.012296122 -0.034875084
0000d0 a5 f7 a4 bc c9 8d 21 bd 91 de 48 bd 69 e3 0e 3c
       -0.020137617 -0.039441857 -0.04904038 0.008721211
0000e0 3d 73 91 bc 23 43 59 bd b4 7a df bc d8 57 05 bc
       -0.017755145 -0.053042542 -0.02728019 -0.008138619
0000f0 95 27 f9 bc 4c 40 8c ba 47 83 2a bd e5 f0 3b bd
       -0.030414382 -0.0010700314 -0.041629102 -0.04588403
000100 54 da 61 bc ea 4c 93 bc 4f 56 2c bc 58 5f c1 3a
       -0.013784964 -0.017981011 -0.010518624 0.0014753146
000110 4d 4a 73 bd 68 e2 8e bc 49 34 c6 3b fa 1b 89 3c
       -0.05939703 -0.017441943 0.0060487133 0.016736973
000120 76 94 4d bd a8 06 e9 bc 8d f2 40 bd b8 8f ea bc
       -0.05019041 -0.028445557 -0.047106314 -0.028632984
000130 68 5a 67 bd ef d8 0f bd 6e b8 ab bc 7b a6 3b bd
       -0.056482702 -0.035118993 -0.020961966 -0.045813065
000140 36 d3 06 3c 0c 5f 55 bc c6 c7 84 3b 20 46 2b bd
       0.008229068 -0.013023149 0.004052135 -0.041814923
000150 e2 cb a1 bb ad c4 02 bd c5 9a 60 bd 53 a6 10 bd
       -0.004937635 -0.031925846 -0.0548351 -0.03531487
000160 35 10 4b bd 3f 6e 87 bd 61 3c a7 bc 8c 8f 28 bd
       -0.049576003 -0.06612825 -0.020414533 -0.041152522
000170 75 c7 f9 3a 86 cd 1a bd cb 1a fb bb c7 42 ec bc
       0.0019056635 -0.03779366 -0.007663106 -0.028840436
000180 ec a7 3f 3c 71 0b ba bb 28 55 2a 3c 94 a5 15 bd
       0.011697751 -0.0056776335 0.010396279 -0.03653486
000190 da 25 83 3c 0f fa 51 bc 02 f6 d3 3c 16 ec c8 3c
       0.01600926 -0.012815966 0.025874142 0.024526637
0001a0 7e 7e 94 3c 8e 46 4a bd a2 ee 17 bd c1 80 06 bd
       0.018126722 -0.049383692 -0.037092812 -0.032837633
0001b0 aa 3c 53 bd f7 9a 0b bc 1d 75 99 bb 7f a2 8b bd
       -0.051571526 -0.008520833 -0.0046831504 -0.06818103
0001c0 98 92 c5 bc 01 bb 1a 3d 03 50 bc bc c7 08 bc 3b
       -0.024117753 0.037775997 -0.022987371 0.005738351
0001d0 e0 f0 26 bd 50 da cc 3c 51 a0 d2 3c f9 a8 d5 3b
       -0.04075706 0.025006443 0.02571121 0.0065203873
0001e0 7b d1 c1 3c 1e 29 3e bb 5a ea 2a 3d 2a e4 3e bc
       0.023659458 -0.0029016207 0.0417274 -0.011651078
0001f0 6b 39 94 bc 94 95 47 3d a7 fb 08 bd b3 6a ed 3c
       -0.018093785 0.048726633 -0.03344312 0.028981542
000200 1f 5a c7 bc c5 57 f7 3c d6 96 0a 3c 82 8a 8c bd
       -0.024334965 0.030193219 0.008458814 -0.06862356
000210 e7 6f 69 3c 86 27 a8 3c 99 09 6d 3c 9e 5e d0 3c
       0.014247871 0.020526659 0.01446762 0.025435742
000220 7a c7 75 bd 5a c5 ac bc 32 ba d5 bc f5 11 e3 bb
       -0.06000469 -0.021090198 -0.026089761 -0.006929631
000230 b6 d5 00 3d d8 c2 22 3c 2d a6 2e 3c 9f ca 79 3c
       0.03145381 0.00993415 0.010659737 0.015246063
000240 52 4e 57 bc e6 4b b8 3c a5 38 e5 bc 5b cb 30 3d
       -0.013141232 0.022497129 -0.027981112 0.043162685
000250 ac e0 ec 3c 75 92 01 3d e5 bd d1 3c 16 50 bb bc
       0.028915726 0.031633813 0.025603244 -0.022865336
000260 c7 d0 15 bd 79 f3 91 3b 34 73 e1 3c d3 3b b7 3b
       -0.03657606 0.004454073 0.027520753 0.0055918484
000270 89 50 0e bd 53 2e 33 bc 91 90 94 3c 52 e5 24 3d
       -0.034744773 -0.0109363375 0.01813534 0.04025776
000280 54 f3 d9 3c 02 f1 8c 3a 9c c3 14 3c cc 61 af 3c
       0.026605286 0.0010752978 0.00907984 0.021408938
000290 1b 7d 0a 3d 6e 16 55 3d 08 2e b5 39 43 5f f5 bc
       0.033810716 0.052023344 0.00034557306 -0.02995265
0002a0 56 ae 96 bc 68 2f cf 3c c0 8c c4 3c a7 d1 ee bc
       -0.018393677 0.02529116 0.023992896 -0.029152704
0002b0 ac 14 e2 bc 42 9c 99 3c 9d 88 04 3d 2b bf 76 3c
       -0.027597748 0.018751267 0.032356847 0.015060226
0002c0 ab d2 d7 bc ef 17 e3 3c ef 18 8c bb d0 2f 20 3d
       -0.026345572 0.027721373 -0.0042754333 0.039108098
0002d0 e9 aa ca 3c 4f 58 23 bc 81 5d 18 3a 6a 44 fc 3c
       0.0247397 -0.009969785 0.0005812273 0.030794341
0002e0 47 f8 27 3d aa a4 0a 3d bb 05 51 bb b7 e2 86 bc
       0.04100826 0.033848442 -0.0031894285 -0.016465528
0002f0 06 8d cb bc e9 36 38 3d 01 8b 62 3c bc 30 a2 bb
       -0.024847519 0.04497424 0.013827086 -0.0049496572
000300 40 8a d4 b9 8c b9 d4 3c 4c ea 30 3c b8 98 14 3d
       -0.00040538795 0.025967382 0.010798048 0.036278456
000310 bf 1c 71 bd 50 86 3f 3b 59 a7 0f 3b 23 ea 81 3c
       -0.058865305 0.0029224344 0.0021919815 0.015858715
000320 65 99 6c 3c 5a da 18 bd e4 15 10 3d ef 74 67 3c
       0.014440869 -0.03731761 0.035177127 0.014127
000330 8c 8a 30 3d 7e d0 76 3d 77 24 14 bd 41 00 ec 3c
       0.04310088 0.060257427 -0.036167588 0.028808715
000340 b8 eb ea bc d1 f6 99 bd 5f 9a 1b bd a8 41 f2 bc
       -0.028676853 -0.075177796 -0.037989017 -0.029572323
000350 2c 3f ad bc 2d 37 2b bd d7 a5 00 bd 0b 0b db bc
       -0.021148287 -0.041800667 -0.031408157 -0.026738664
000360 da 61 3c bd d3 9b 9f bc 35 98 27 bd 63 f5 8c bc
       -0.045991756 -0.019483482 -0.04091664 -0.017206853
000370 e7 9f 97 bc f7 8c 03 bc ae e2 b2 3c 90 8b 93 3c
       -0.018508865 -0.008029214 0.021836605 0.018010885
000380 3c 3f ba bc 2a 77 3f bc 54 a9 11 bc 11 f4 4b ba
       -0.02273523 -0.011686126 -0.008890469 -0.0007780204
000390 17 ac 6f bc aa a1 22 bd ac 76 a9 bc 6e 31 26 bd
       -0.014628432 -0.039704956 -0.02068647 -0.040574484
0003a0 42 7b ba bb 3b fb 4c bc 48 3b a2 3c 2a e9 0b bd
       -0.005690963 -0.01251107 0.019803658 -0.03415791
0003b0 29 f5 29 bd 71 39 d7 bc c0 91 c2 bc 06 fa 5b bc
       -0.04149357 -0.026272507 -0.02375114 -0.013426309
0003c0 b6 08 a6 3c 01 44 2d bd 33 12 15 bd d8 2b 87 bc
       0.020267826 -0.04230118 -0.03639431 -0.016500399
0003d0 97 e8 4d 3c 5e 61 20 bd c5 2d 5b bc 9d 1c 6e 3c
       0.012567661 -0.039155357 -0.0133776115 0.014533189
0003e0 55 65 d5 bb 7c 7a 16 bd b9 bd 8d 3c a8 f6 a5 bb
       -0.006512324 -0.036737904 0.01730238 -0.005064804
0003f0 6c 50 8a bc a2 20 1d 3c 74 cb 08 bc 25 36 2a 3c
       -0.016884051 0.0095903 -0.008349288 0.010388886

fc1.1.bias f4 [2]
000000 8f c3 ee bc 32 2e 5b 3d
       -0.029145984 0.053510852
