saved_models/diffconv_best_IEGM_net.pkl (torch, 20860 bytes, 17 tensors)

weight f4 [5, 1, 16]
000000 ac 5d 1a 3f 4d f6 bc bc 29 84 cf be be 2c 8a be
       0.6029918 -0.023066664 -0.40530518 -0.2698726
000010 d3 22 81 bf 3d 0d 6a bf cf 16 82 bf d4 6d 25 bf
       -1.0088753 -0.9142645 -1.0163211 -0.6462071
000020 33 99 ae be 11 cd ca 3d d7 14 33 3f eb 90 6b 3f
       -0.34101257 0.099023946 0.69953674 0.92018
000030 79 dc e5 3e 1f 20 fe 3e e3 25 dc 3e 1a 09 a4 3e
       0.4489477 0.4963388 0.42997655 0.32038194
000040 d5 fd 67 be cc b2 76 bd 40 b0 b7 bd 2e a1 b9 3e
       -0.22655423 -0.060229108 -0.08969164 0.36255783
000050 3b 68 0a bd 30 81 ee 3b dd 54 17 3e fc 7d 30 be
       -0.03379081 0.007278584 0.14778467 -0.17235559
000060 04 af 7d 3e d0 0a 9e 3e bd 34 4f 3e 6f 91 f3 be
       0.24773794 0.30867624 0.20234962 -0.47571895
000070 b0 39 a3 bf 86 ee 89 bf 17 13 f1 bd fd 40 b4 3e
       -1.275198 -1.0775917 -0.11771219 0.35205832
000080 6e 9d 89 3e b7 5d 83 3f 6c c0 4a 3f ce 82 76 3e
       0.26877922 1.0262975 0.7919986 0.24073336
000090 46 c2 35 bf 61 55 3b bf 72 59 b5 be 3b 48 1e be
       -0.7099956 -0.7317715 -0.35419804 -0.15457241
0000a0 82 fc 02 be ac 45 90 be 1d 0c 63 be fa 13 3f bf
       -0.12791637 -0.28178155 -0.2217259 -0.74639857
0000b0 83 cd 09 3e a6 a7 09 3f df c5 1e 3f 95 50 10 3f
       0.13457303 0.53771436 0.6202068 0.5637296
0000c0 be 9d 80 3c b4 60 03 bd 33 b9 88 3d 2a 12 b2 3d
       0.015700217 -0.032074645 0.06675949 0.08694871
0000d0 53 3d 81 3e 69 18 3d 3f e6 1d 33 3f a6 b2 3d bc
       0.252421 0.7386537 0.69967496 -0.011578238
0000e0 78 c9 26 bf 63 00 a2 bf 05 a5 75 bf 83 06 42 bf
       -0.65151167 -1.2656368 -0.95954925 -0.75791186
0000f0 ec 25 68 3d 84 ee e9 3e 9f 5d 3c 3e 54 5c 93 3e
       0.05667679 0.45689785 0.18395089 0.28781378
000100 cf 93 1e be b1 e2 83 be a0 15 bb be e2 3d 22 bf
       -0.15486072 -0.2575889 -0.36539936 -0.63375676
000110 4a 42 d2 be 18 d0 d6 3e 3c e5 1e 3f 58 74 3f 3f
       -0.410662 0.41955638 0.62068534 0.747869
000120 69 d0 03 3f c6 6f e4 3d 21 1e b9 be 76 0f 8a bc
       0.51489884 0.111541316 -0.361558 -0.016853075
000130 17 74 9f 3e 37 ca 91 3e bb 1e 91 bd 49 52 b0 be
       0.31143257 0.2847459 -0.070859395 -0.3443778

bias f4 [5]
000000 2b da 08 bd 31 7b 41 bd c3 33 26 bc 29 3c 81 be
       -0.033411186 -0.047236625 -0.010144177 -0.2524121
000010 e1 04 cb be
       -0.3965216

weight f4 [5]
000000 1e b1 8a 3f d4 58 83 3f 4f 9e 7f 3f 69 b1 8a 3f
       1.0835302 1.0261483 0.99850935 1.0835391
000010 5c 2d 8a 3f
       1.0795093

bias f4 [5]
000000 b2 cb 60 3e 8f df 8b 3e 7c 9a 6b 3e 10 29 79 3e
       0.21952704 0.27319 0.2300815 0.2433207
000010 86 d9 1f 3e
       0.15610322

running_mean f4 [5]
000000 66 24 bd 3d 6f 51 65 3d 63 ae a8 3d a2 8a 46 3d
       0.09235458 0.055985864 0.082363866 0.048472054
000010 3c 77 6b 3c
       0.014371689

running_var f4 [5]
000000 36 62 81 3d 6e 11 c8 3c 1d e2 5b 3d 5d 6c 3e 3d
       0.063175604 0.024422374 0.053682435 0.046490062
000010 50 1b 11 3c
       0.008856609

weight f4 [5, 5, 13]
000000 41 71 3a 3e b1 9b 3e be 41 fc a3 be f3 3e 22 be
       0.18207265 -0.18614079 -0.32028392 -0.15844326
000010 23 0b ba bd ad 53 e5 be fc ef 8a be bb 00 eb bd
       -0.090841554 -0.44790402 -0.2713622 -0.11474749
000020 82 5b 4c 3e a6 33 88 be 6c a5 8d 3d c5 e6 08 be
       0.19956782 -0.26601905 0.06916317 -0.13369282
000030 fc c2 a9 3e 5c d8 4c be 7a b0 6a be ba d3 7d 3e
       0.33156574 -0.2000441 -0.22918883 0.24787799
000040 89 86 9d be dd cb 66 be 62 12 82 be dd d8 53 3e
       -0.30766705 -0.22538705 -0.2540465 0.20688196
000050 a8 29 a5 bd ca b1 a1 3e 3f cc 8b 3e 56 a2 f9 3d
       -0.08064586 0.31580955 0.27304265 0.12189166
000060 e7 d2 5c 3e 73 95 ca 3e 0e ec 55 bd 3f 38 f2 bd
       0.21564828 0.39567146 -0.052227072 -0.11827134
000070 c3 5c 0f be 3f e6 05 bf f8 c3 ca bd a7 ef d8 bd
       -0.1400023 -0.5230445 -0.09900659 -0.10592585
000080 c6 2a 9d 3d d0 b9 5f be 09 6c cc 3d 3d a3 8a 3d
       0.07674174 -0.21848226 0.099815436 0.067694165
000090 15 a2 97 3e 38 25 70 3e c7 a6 67 3e 5d 99 cc bd
       0.29615846 0.23451698 0.22622214 -0.09990189
0000a0 ce f7 11 bf 30 2b ca 3e ae ae af be 44 b9 32 3b
       -0.57018745 0.39486074 -0.34312958 0.0027271071
0000b0 54 b1 60 be 11 13 a1 be 98 5f 7e bd 6b a9 2a be
       -0.21942645 -0.3145986 -0.062102884 -0.1666619
0000c0 fe ee 4c 3d b2 87 9b bc fa 43 c8 3d 43 08 35 3e
       0.05003261 -0.018985603 0.097785905 0.17678933
0000d0 27 81 b0 be e1 67 bb bd 38 de d1 be 6e 2f ef be
       -0.34473535 -0.09150673 -0.40989852 -0.46715873
0000e0 45 f2 98 be e7 44 b3 be 6b 34 d1 bd ed e3 18 3e
       -0.29872337 -0.35013506 -0.10215076 0.14930697
0000f0 c2 68 f4 be ff da 7e 3d 10 8f 99 bd 4a 0f 6d 3e
       -0.47736174 0.06222057 -0.0749799 0.23150364
000100 fd 5b 9b 3d ed f1 ed 3d 19 9f 1f bf 7a 42 15 3a
       0.07585905 0.11618409 -0.6235214 0.00056938047
000110 c4 97 ad 3d 70 a6 d3 be b6 24 bb be a4 88 0d 3e
       0.084762126 -0.4133792 -0.36551446 0.13821656
000120 c8 7c 30 be c4 bc bc 3e 22 fb a7 be 04 f6 dc be
       -0.172351 0.36862767 -0.32808787 -0.43156445
000130 85 20 02 3d 2a 50 7e 3e 95 48 56 bf 09 71 15 3e
       0.031769294 0.24835268 -0.837045 0.145939
000140 1c 54 fc be 8b 5e cd 3e a8 e1 04 3e d0 15 85 be
       -0.4928292 0.40111193 0.12976706 -0.25993204
000150 fa 34 08 be 5d e5 16 bf 1b f4 95 be 34 ef 57 3e
       -0.13301459 -0.5894373 -0.292878 0.21087343
000160 da c5 45 bf 93 e1 9f 3e e2 48 d4 bd 24 47 3c 3e
       -0.7725502 0.31226787 -0.10365464 0.18386513
000170 3d 05 ca be d3 ff b8 be 4a ff 12 3f 32 86 90 be
       -0.39457121 -0.36132678 0.5742079 -0.28227383
000180 1d a5 52 3d 16 92 b5 3e de cb 1a be fe dd c8 3c
       0.051426996 0.35463017 -0.15116832 0.024519917
000190 08 ad 13 3e 6e 56 a8 be 17 65 0a 3e 66 e1 7e 3d
       0.14421475 -0.3287844 0.13515125 0.062226675
0001a0 fe 4a 3d 3f 7e cd 41 bd f3 98 21 bf fe c4 66 3e
       0.73942554 -0.047315113 -0.63124007 0.22536084
0001b0 e8 ec 30 3e 37 4b 42 3e 95 a5 6f be 45 af 80 3c
       0.17277873 0.18974005 -0.23403008 0.015708575
0001c0 7f 71 d6 bd 40 47 0b be 2c 36 1b bf b0 84 ab be
       -0.104708664 -0.13601398 -0.60629535 -0.3349967
0001d0 84 f1 7e be eb f6 d7 3e 8a 51 c6 3e b2 35 0f 3f
       -0.24896818 0.4218057 0.38734084 0.5594131
0001e0 16 8a c5 be 84 e6 02 bf 90 60 a9 be b9 24 4e bd
       -0.38581914 -0.5113299 -0.33081484 -0.05032799
0001f0 e8 eb 58 bd 71 51 23 bf d4 97 9b bd 36 50 0f 3f
       -0.052959353 -0.63796145 -0.07597318 0.5598177
000200 46 c9 10 bd ec 7b d3 be 9c 34 1e 3d fa 2f 17 be
       -0.0353482 -0.41305482 0.03862439 -0.14764395
000210 e1 f3 a9 be 6e 82 14 3e f9 23 41 bf fa 23 00 3f
       -0.33193877 0.1450288 -0.75445515 0.50054896
000220 c3 3a f2 be 65 ed 23 be 64 e1 0f 3c 4a 0d c9 be
       -0.47310457 -0.16008528 0.008781765 -0.3926795
000230 8d f1 9c bf 01 e4 3a be 2c f3 85 3e 61 40 73 3e
       -1.2261215 -0.18251039 0.26162088 0.23755027
000240 70 8f a2 3d fb 63 91 bf 24 0b 6e 3c 10 46 70 3d
       0.07937515 -1.1358637 0.014529023 0.058660567
000250 a0 9f fa 3e e9 1b 8f 3e 9a 2e d8 3d 71 1a 58 bd
       0.4894991 0.2795098 0.105557635 -0.05275959
000260 6a d3 83 3e c7 a7 a7 be 48 7e 9d bd 20 12 bf be
       0.25747234 -0.3274519 -0.07690102 -0.37318516
000270 9b 99 0b 3f 51 5b 8a 3e 58 74 8a bc 9d 64 54 be
       0.5453126 0.27022794 -0.01690118 -0.20741506
000280 76 01 14 bf 7e f8 01 3e 64 9d c1 3d 09 b7 c8 ba
       -0.5781473 0.12692448 0.09453848 -0.0015313338
000290 51 88 70 3d ba d5 a8 3e b4 12 1b 3e 7b aa 17 bf
       0.05872375 0.3297556 0.15143853 -0.5924451
0002a0 53 46 25 be c3 8d 81 3e cb 68 8f bc 41 d9 8a bf
       -0.16140108 0.25303468 -0.017506024 -1.0847551
0002b0 22 0f 2f be b7 02 43 bd 91 bd ed be d9 a9 64 be
       -0.17095616 -0.04761001 -0.4643369 -0.22330417
0002c0 09 7f f4 bd 4e 2e 3c 3d 3f 55 63 be 83 a6 ad be
       -0.119382925 0.045942597 -0.22200488 -0.339161
0002d0 2c 7c 92 be c3 86 dd be ef a1 3e bf 38 ba 90 3e
       -0.2861036 -0.43266878 -0.7446584 0.28267074
0002e0 53 c9 a6 bf 3b 41 2e be dc 46 66 bf 25 b5 09 bf
       -1.3030189 -0.17017071 -0.8995187 -0.5379203
0002f0 d9 28 81 3e f3 9e e4 3c 98 65 0d be 5f fa b2 be
       0.25226477 0.027907824 -0.13808286 -0.34956643
000300 31 74 ae 3e fb f0 45 bf ba c3 60 bf 1a 9a 24 3f
       0.34073022 -0.7732083 -0.87798655 0.6429764
000310 19 9a 92 bc 0b d2 9e be 0e c6 1a bf 5b cc 21 bd
       -0.017895745 -0.31019625 -0.6045846 -0.03950153
000320 77 28 35 3e 87 be 8a 3e f7 c4 1f be 77 21 39 bf
       0.17691217 0.27098486 -0.1560248 -0.7231669
000330 24 d1 75 be c5 99 83 be 8a 8c 7d be d7 c4 04 be
       -0.24005562 -0.25703254 -0.24760643 -0.12965713
000340 26 52 09 3f 84 f4 22 3e 35 e9 28 3d 93 73 31 3e
       0.53640974 0.15913588 0.04123803 0.17329244
000350 60 6e 26 bf 04 63 ba be 4e 61 b9 be dc 71 0e 3f
       -0.6501217 -0.36403668 -0.3620705 0.55642486
000360 51 ac 56 be 52 24 00 bf 56 f5 4c 3d 06 1b f4 bd
       -0.20964171 -0.5005542 0.050038658 -0.11919217
000370 11 77 38 be 3b 5f be 3e fa 3c 72 3e ac b2 1d bf
       -0.1801417 0.3718203 0.23656073 -0.61600757
000380 bf c6 6b bf b3 66 41 be 49 3b cf be 4e ff e8 3e
       -0.9210014 -0.18886833 -0.40474918 0.45507282
000390 93 44 58 3b 1d 5a 84 be 99 96 f2 be 01 55 c2 be
       0.0032999858 -0.2585 -0.47380522 -0.37955478
0003a0 d8 02 73 3d 4e 68 d0 3e 90 8d c4 3e 1d c9 b8 be
       0.059328884 0.40704578 0.38389254 -0.36090937
0003b0 a1 28 4d be 83 be 11 bf 71 42 92 be 67 13 cf 3e
       -0.2003503 -0.5693132 -0.28566316 0.4044449
0003c0 6e 66 b3 bb 9e a9 a8 be 9a ed 4d be ff 0f 52 be
       -0.005474857 -0.32941908 -0.20110169 -0.20513915
0003d0 4c 04 44 3e bc 30 bd 3d 8c 50 20 3d 15 40 7a be
       0.19142264 0.09237811 0.039139315 -0.24438508
0003e0 d2 6f 8c 3e 08 74 0f bd cd bc fa bd 69 8b 22 3e
       0.27429062 -0.035022765 -0.12243042 0.15873493
0003f0 1a fb 0b bd c0 16 ae be b1 56 d5 bd 3f 20 96 3d
       -0.034175016 -0.34001732 -0.10416926 0.07330369

bias f4 [5]
000000 e4 7e f9 ba 2e 9a 4f 3e 65 42 07 3f c9 3c 13 bd
       -0.0019035009 0.20273659 0.52835685 -0.03594664
000010 5d 02 96 be
       -0.29298678

weight f4 [5]
000000 6b b8 8e 3f 7c 37 8b 3f 02 be 81 3f 82 a4 7d 3f
       1.115003 1.0876307 1.0136111 0.99079144
000010 71 f0 97 3f
       1.1870252

bias f4 [5]
000000 a7 85 46 3d 0a ef 02 3d 7a 6c 01 bf 36 93 81 3c
       0.048467305 0.031966247 -0.5055615 0.015817266
000010 18 9c 91 3d
       0.07109851

running_mean f4 [5]
000000 c0 1e 14 3e 2e 8e e0 3e f6 c8 a4 3e a8 e5 86 3e
       0.14464855 0.43858474 0.3218457 0.2634709
000010 cb a8 e4 3d
       0.11165007

running_var f4 [5]
000000 f3 4a c8 3d 77 0a 3d 3f 7f 8b 47 3e 24 20 e7 3e
       0.097799204 0.73844093 0.19486807 0.4514171
000010 70 0c c6 3d
       0.09670341

weight f4 [1, 5, 10]
000000 e9 7d 31 3e 6c 47 16 bf 49 a2 e2 be 2b cb 81 bd
       0.17333187 -0.5870273 -0.4426444 -0.06337579
000010 88 65 47 bd 45 fb 9f 3c 31 63 1d bd 3b 89 00 3e
       -0.048680812 0.019528994 -0.038424674 0.1255235
000020 0c b4 d7 bc 4e 2a 31 bf 67 65 ec 3c 5f 99 d0 3b
       -0.02633097 -0.69205177 0.028856946 0.0063659395
000030 fa ee d6 bb e8 c3 bc 3e 30 6a a6 be 7f 25 91 3d
       -0.00655925 0.36868215 -0.3250289 0.0708723
000040 90 8c b7 be 80 7b ef bd 5c c3 89 3e f5 1b 0d 3e
       -0.35849428 -0.11693478 0.2690686 0.13780196
000050 29 6f cc 3d 5e 27 6c be 78 7b 0d bf 3f 4b f0 be
       0.099821396 -0.23061892 -0.55266523 -0.46932408
000060 3b 7a 9a 3e c3 3d 59 3e 4e 45 02 3e c9 31 1d be
       0.3017138 0.21214966 0.1272175 -0.15351023
000070 7f 73 9f 3e cf d8 0e 3e 83 45 26 be ce 26 9c be
       0.31142804 0.13949893 -0.16237454 -0.30498356
000080 d9 bd 80 3e 18 69 ae 3e 04 f1 9d bd 7c a5 77 bd
       0.25144842 0.34064555 -0.07711986 -0.060460553
000090 d8 b3 b8 3e 8b e0 47 3e b0 8f ed bd 9a 4f f8 bc
       0.3607471 0.1951925 -0.11599672 -0.030311394
0000a0 70 07 4c bd 67 b3 2a bd d1 96 2b 3e 02 8a a3 be
       -0.04981178 -0.041674998 0.1675675 -0.3194123
0000b0 fa 21 12 bf 34 d2 c2 be 8f 06 79 be 50 d4 db 3d
       -0.57083094 -0.38050997 -0.24318908 0.10733855
0000c0 4e 7a 5c be 3c 21 18 bf
       -0.2153103 -0.5942571

weight f4 [16, 103]
000000 98 ca 98 be c2 94 7c be 8b e0 ed bd c4 cc 55 be
       -0.29842067 -0.24666122 -0.11615094 -0.20878893
000010 11 03 a8 be e0 72 84 be e6 38 db be e5 d0 68 be
       -0.3281484 -0.25868893 -0.42816848 -0.22735937
000020 31 76 3d be 8b f9 3d be b6 55 3c be 39 85 8a be
       -0.18502118 -0.18552224 -0.18392071 -0.27054766
000030 a9 b6 55 be 27 c2 2a be a2 c6 5b be b9 43 9f be
       -0.2087046 -0.16675626 -0.21462491 -0.31106356
000040 1c 95 8f be a7 8a 17 be 16 8c 65 be 9e 22 52 be
       -0.2804345 -0.14798985 -0.2241672 -0.20521018
000050 e6 6d 54 be d1 e5 0a bf c6 5c 0b be 9c d2 bc be
       -0.20745048 -0.5425692 -0.13609609 -0.36879432
000060 ed d2 92 be d2 df 8f bd 9f 33 d2 be 9c 4d 58 be
       -0.2867655 -0.07025112 -0.4105501 -0.21123356
000070 7f 85 54 be 9c ba b0 be 8b 80 9b be 3c 47 3b be
       -0.2075405 -0.34517372 -0.30371508 -0.18288893
000080 e2 17 00 be 82 2b bb be 4a 9a 85 be 0b 68 c6 be
       -0.1250911 -0.3655663 -0.26094276 -0.38751253
000090 cc b1 ac be ca 5a 00 be 44 3f a2 be 88 61 8b be
       -0.33729398 -0.12534633 -0.31688893 -0.27222848
0000a0 d8 23 90 be fd c1 b6 be a3 a6 9c be 6f 14 e3 bd
       -0.28152347 -0.35694876 -0.30595884 -0.11087882
0000b0 79 63 46 be a8 28 99 be e8 0d a9 be 69 b2 17 be
       -0.19373883 -0.2991383 -0.33018422 -0.14814152
0000c0 84 49 aa be 90 42 ba be a2 86 4d be 5b 1b ac be
       -0.33259213 -0.36378908 -0.2007089 -0.3361462
0000d0 2d b0 86 be 89 05 61 be b3 c8 75 be 84 5a 30 be
       -0.26306286 -0.21974768 -0.24002342 -0.17222029
0000e0 00 40 81 be d0 86 51 be 2c 39 fa bd d0 b8 c7 be
       -0.2524414 -0.20461583 -0.12217936 -0.39008188
0000f0 3b be 54 be 5d 71 ab be 00 b6 74 be 63 1e a7 be
       -0.20775692 -0.33484927 -0.23897552 -0.3264037
000100 f4 5b 99 be cc 37 39 be b2 f4 a1 be af 11 2e be
       -0.29952967 -0.18087691 -0.31632 -0.16998933
000110 2c 78 c6 be 93 ba 9f be 5d c2 16 be 22 04 a8 be
       -0.3876356 -0.31197032 -0.14722581 -0.32815653
000120 97 6a 55 be 7d 5c a2 be 58 cc 8d be 0c 2f ab be
       -0.20841442 -0.31711188 -0.27694964 -0.3343433
000130 37 a9 cc be 45 de 85 be 2f e1 ed be 0a 32 ed be
       -0.3997285 -0.2614614 -0.46460864 -0.4632724
000140 70 e9 12 be 81 4a 73 be 75 3a 8d be 86 8d 59 be
       -0.14346862 -0.2375889 -0.27583662 -0.21245393
000150 ed ae 7f be 01 28 e3 bd 5e 33 86 be 0a bd af be
       -0.24969073 -0.110916145 -0.26211065 -0.34323913
000160 0c 95 2f be 1a be 89 be 4d 9a 68 be 7c 3c 91 be
       -0.171467 -0.26902848 -0.22715111 -0.28366458
000170 c9 da 6e bd 8f 4f b5 be 8e 4b ae be d2 11 28 be
       -0.05831412 -0.3541226 -0.3404202 -0.16413048
000180 a6 ad cf be 72 6b 8d be 36 f3 51 be 4c 1b 9c be
       -0.4056217 -0.27621037 -0.20502934 -0.30489576
000190 12 a6 e7 bd be 3b 7a be c1 a7 49 be d0 95 2e 3e
       -0.11310972 -0.24436852 -0.196929 0.17049336
0001a0 7f 82 1e 3e e4 e4 2a 3e 55 fc 67 3e 21 c9 84 3e
       0.15479468 0.16688877 0.22654851 0.259347
0001b0 0f 9e 6c 3e 64 2e d8 3e c7 2c 3a 3e e4 65 50 3e
       0.2310717 0.42222893 0.18181144 0.20351368
0001c0 19 d7 a5 3e 38 44 55 3e af ac c3 3e b0 55 39 3e
       0.3239067 0.20826805 0.38217685 0.18099093
0001d0 fc 0e 3f bc 6c 65 91 3e 65 f5 92 3e 58 82 c2 3e
       -0.011661287 0.2839769 0.28702846 0.3799007
0001e0 0f b0 11 3e 93 aa ae 3e 43 00 76 3e bc 4a 99 3e
       0.14227317 0.34114513 0.24023537 0.2993983
0001f0 52 15 02 3f 54 43 85 3e 61 80 a6 3e 05 3e a1 3e
       0.5081378 0.2602793 0.3251982 0.3149263
000200 90 40 ac 3d bb 3d 6f 3e 74 ed 20 3e fb 72 6b 3e
       0.08410752 0.23363392 0.15715581 0.2299308
000210 af f5 bf 3e 8e 2d 97 3e 9f 28 cb 3e 60 47 5b 3e
       0.3749213 0.29526943 0.3967943 0.21413946
000220 26 57 aa 3e 58 71 8e 3e 50 2b 8e 3e 2a 51 99 3e
       0.33269614 0.2782085 0.2776742 0.29944736
000230 32 23 09 3e f5 46 85 3e 3e 90 b8 3e 3d b6 88 3e
       0.13392332 0.26030698 0.36047548 0.26701537
000240 fa 31 69 3e 78 15 1e 3e 17 22 8c 3e 3a 52 97 3e
       0.22772971 0.15437877 0.27369758 0.2955492
000250 36 b3 b2 3e 61 36 ac 3e 86 66 4e 3e 60 e2 c1 3e
       0.34902352 0.33635238 0.20156297 0.37868023
000260 15 d4 f7 3e 31 32 76 3e 4c ee af 3e 32 3c 07 3e
       0.48403993 0.24042584 0.34361494 0.13206556
000270 67 f8 ab 3e e5 79 9d 3e ac 61 26 3e 7d 19 8b 3e
       0.33587953 0.3075706 0.16248196 0.27167884
000280 18 f3 90 3e c8 93 8f 3e 84 d0 8c 3e 2b 09 69 3e
       0.28310466 0.28042436 0.27502835 0.22757404
000290 c0 bd 48 3e d5 fe 8d 3e 24 9e 8a 3e 54 4c 79 3e
       0.19603634 0.27733484 0.27073777 0.24345523
0002a0 a8 e8 68 3e 06 8c ca 3e a0 5e 23 3c 26 0d b1 3e
       0.22745001 0.39559954 0.009971291 0.34580344
0002b0 4a f6 83 3e 29 26 2a 3e fa d9 79 3e 66 11 4b 3e
       0.2577384 0.1661612 0.24399558 0.19830856
0002c0 21 bd b8 3e 94 57 b2 3e b6 86 91 3e 14 c0 7a 3e
       0.36081794 0.34832442 0.2842309 0.24487334
0002d0 12 01 2e 3e 60 f0 b1 3e 7c 9a a0 3e ef c3 ad 3e
       0.16992596 0.34753704 0.31367862 0.33938548
0002e0 3b bb 80 3e 86 09 99 3e ef 0e 9d 3e d3 ff 64 3e
       0.25142846 0.29890078 0.30675456 0.22363214
0002f0 81 4e 20 3e 8a 9f 7a 3e 84 c4 7e 3e 27 8e 8a 3e
       0.15654947 0.24474922 0.24879652 0.2706158
000300 64 d2 47 3e d7 c5 58 3e 85 80 b7 3e 54 e2 ef 3d
       0.19513851 0.2116922 0.3584024 0.117130905
000310 fe b0 96 3e c3 3e 9e 3e de 8a 4a 3e 40 8b af 3e
       0.2943191 0.30907258 0.19779536 0.34285927
000320 81 5c a4 3e 83 8f a3 3e 59 78 2d 3e 29 75 0c 3e
       0.32101825 0.31945428 0.1694044 0.13716568
000330 24 18 6a 3e e8 97 24 3e ea 8e cc bc 2f 15 09 3d
       0.22860771 0.16073573 -0.02497049 0.033467468
000340 8d c5 14 be dd 21 9d 3e 7c 56 94 3b a4 1e 0c bd
       -0.14528485 0.30689898 0.0045269113 -0.03420891
000350 1a fd e8 3d f6 67 2a bd 00 5a 38 3d 6b ba 75 bd
       0.113764 -0.04160305 0.045007706 -0.059992235
000360 b1 d7 a1 3d 0a 51 1c 3e b1 cc 6a be d5 36 e6 3d
       0.07902468 0.15265289 -0.22929646 0.11240927
000370 b5 a4 a2 bc 6d 57 1a 3e 4c 1b ec 3b db 03 d7 bc
       -0.019853929 0.15072413 0.0072054025 -0.026246956
000380 2b b1 05 bd 88 77 1c be 72 5e 9a 3d 2d 51 47 3d
       -0.032639664 -0.15279973 0.07537545 0.0486614
000390 18 80 e1 bd c2 8e 82 3c 3a ff 17 3c 6a a2 c4 bd
       -0.1101076 0.015937213 0.009277159 -0.096012905
0003a0 9b eb 87 be 89 b7 2c be d7 c5 58 be ef d4 bd 3d
       -0.2654694 -0.16866888 -0.2116922 0.092691295
0003b0 08 bb 49 bd 15 d7 94 3c 16 a0 9e bd 78 5e 52 bd
       -0.049250633 0.018168965 -0.07745378 -0.051359624
0003c0 52 44 38 3d dd 38 58 3e de 7a 05 bf b7 1d 5f 3e
       0.04498703 0.21115442 -0.52140605 0.21788679
0003d0 a8 c9 bd bc 82 6a 34 3a 14 6f 51 3e 69 9b 3e be
       -0.023167446 0.0006882326 0.20452529 -0.18613972
0003e0 b7 90 6e bd 74 1b 28 be 35 eb 05 be 8f 98 ca 3b
       -0.05824348 -0.16416723 -0.13078006 0.006182737
0003f0 58 7b 29 bd c0 2b 2b bd 5c b3 0e 3e 10 76 f3 3d
       -0.041377395 -0.04178977 0.13935608 0.11887753

bias f4 [16]
000000 ac 70 0c bd 50 91 15 3d ac 2b 5e 3c 26 d8 50 bd
       -0.03428714 0.036515534 0.013560217 -0.050987385
000010 00 07 7a bd fa 13 b7 3d 3b ce dc 3c 66 8a 5c bc
       -0.061041832 0.08939357 0.026953807 -0.013460731
000020 4a 9f a0 bd 54 cf 7a bd e2 30 ac 3d e2 fe 85 bd
       -0.07842882 -0.06123288 0.08407761 -0.06542756
000030 0d c6 29 3e 59 12 4f be c6 3b dc bd 3b ad e4 bd
       0.16579457 -0.20221843 -0.107535884 -0.111658536

weight f4 [2, 16]
000000 d5 95 13 bd f7 6e a0 be 5f 64 2c be 84 b9 f4 bd
       -0.036031563 -0.3133466 -0.16835164 -0.11949447
000010 22 0e 9b 3d c6 e4 aa bd eb ce 85 bd 9c 84 01 3e
       0.07571055 -0.08344416 -0.06533607 0.12648243
000020 5b c2 9f 3d 4e fa 5f 3e 5f 49 2c 3e ad 95 67 3d
       0.07800742 0.21872827 0.16824864 0.056539226
000030 32 03 67 bd 51 c9 82 bd cd 52 a3 3d e5 a9 0e be
       -0.05639953 -0.06386054 0.07974777 -0.13931997
000040 03 c0 83 be 52 c4 b0 bc 62 bb 04 be 9a 41 1d be
       -0.2573243 -0.021577988 -0.12962106 -0.15357056
000050 12 5b c9 3c 04 b1 0b 3e 94 ec 45 bd 5b 46 12 3e
       0.024579559 0.13641745 -0.04832132 0.14284651
000060 25 fb 53 3d c5 29 45 3e 81 56 7c 3e 4f ec bc bd
       0.051753182 0.19254215 0.24642374 -0.0922476
000070 e3 51 3c 3e ba 37 83 be ee 4f b5 39 04 ba b8 bd
       0.18390612 -0.25628453 0.00034582563 -0.09019855

bias f4 [2]
000000 fe 79 09 3e 9b 30 f0 bc
       0.13425443 -0.029320052
