saved_models/final_IEGM_net_state_dict.pkl (torch, 12237 bytes, 14 tensors)

conv1.0.weight f4 [5, 1, 64]
0.047410227 0.07467655 0.023929968 -0.00493503 -0.08861716 -0.095960565 -0.073848575 -0.010499945
0.069873564 0.05267509 -0.0363293 -0.05769303 -0.009266871 0.10778135 0.1146637 -0.0033604323
0.03034623 -0.016540624 -0.019024253 -0.05569656 0.04609248 0.022735493 -0.057894703 -0.08135204
-0.125443 -0.17067002 0.061027132 0.036345884 0.050613407 -0.027456498 0.03999936 0.0033485142
0.066792384 -0.00504341 -0.1054067 0.029272767 0.016650937 -0.10368745 -0.04759102 -0.26008663
-0.16690248 -0.04223246 0.10951172 0.21827327 0.16009557 0.09591174 0.08418562 0.0005419192
-0.04881846 -0.18750231 -0.1369361 -0.13400842 -0.125604 -0.085822284 -0.011750793 -0.011708721
0.118850246 0.15884018 0.17437692 0.17683701 0.025887398 -0.05567747 -0.2504379 -0.16038428
0.19689749 -0.009150144 -0.18612717 -0.31887433 -0.36462763 -0.12696779 -0.040645 0.01837301
0.13585696 -0.0687739 -0.09261722 0.029252386 0.3071821 0.32749677 0.06773918 -0.08038273
-0.2863475 -0.29583114 -0.11374138 0.050042637 -0.04682206 0.0035551197 -0.029042935 -0.00052802014
-0.091683835 0.111032814 0.047780816 0.14619985 0.18069595 0.12822159 0.100747876 -0.012697247
-0.0963367 -0.022549309 0.047158316 -0.021052131 -0.17337841 -0.22448158 -0.1597609 -0.06371432
0.14117332 0.28458726 0.25614733 0.1597396 0.044034954 -0.07497072 -0.11343912 -0.13500403
-0.056658216 -0.06021786 0.013231899 0.048854116 0.04883489 -0.012079224 0.038357027 -0.030279407
-0.04277411 0.026833463 -0.0732118 0.031233031 0.09062685 0.014437192 0.03041446 -0.034124207
0.045973975 0.09683341 -0.06957803 -0.1644974 -0.10155173 0.051544316 -0.055946957 0.080358885
0.1753103 -0.06257277 0.07531473 0.13073519 0.065361895 -0.07873384 0.025126973 0.06592468
-0.057477485 -0.11121026 -0.0954999 0.036046155 -0.053755023 0.119449936 -0.2515391 0.029984847
-0.049846303 -0.15743774 0.14822954 0.09468656 0.11984036 0.078341626 0.15560217 -0.14323223
0.19419327 -0.124957435 -0.121965 0.05886748 -0.04461209 -0.13816121 0.040660553 -0.047751877
-0.021659171 0.078798756 0.16165699 -0.045264676 0.032148514 -0.071996875 0.16219042 -0.050508287
-0.064694285 -0.10057878 -0.04025844 -0.22078744 0.008424141 -0.18418558 -0.19714606 -0.06131765
0.107267864 -0.030424891 0.075379975 0.036643207 0.10663741 0.19011839 -0.09095778 0.3156073
-0.0737316 -0.0111305695 0.010352491 0.07800538 0.11067981 0.13276154 0.02675508 -0.10987604
-0.19352151 -0.0705192 0.07136438 -0.14673853 0.18144178 0.0642793 -0.060229946 -0.02760263
0.046296053 -0.15421163 -0.11484806 0.14047942 -0.039509103 -0.018216476 0.034448564 0.022124607
-0.06288007 -0.13335328 -0.08118614 0.061583575 -0.06347202 -0.020873291 0.029509252 -0.21738853
-0.08417317 0.13462663 0.11904618 0.07167447 0.06398685 0.12751475 0.019006355 0.041641187
0.08813672 0.07607562 0.082329825 -0.037566174 -0.044353034 -0.066816114 0.062017243 0.17605226
0.24716707 0.21528268 -0.0095360475 -0.17753184 -0.25261518 -0.1729874 -0.038205627 0.06115834
0.002696095 0.048891142 -0.15463996 0.09020449 0.08162265 -0.10076027 -0.13391137 -0.06970715
00000000: 3a31 423d 05f0 983d c808 c43c 08b6 a1bb
00000010: ea7c b5bd f986 c4bd ec3d 97bd f607 2cbc
00000020: df19 8f3d d6c1 573d 08ce 14bd 874f 6cbd
00000030: 13d4 17bc 78bc dc3d cdd4 ea3d b33a 5cbb
00000040: a898 f83c 3480 87bc c0d8 9bbc 1322 64bd
00000050: 78cb 3c3d c93f ba3c ff22 6dbd e69b a6bd
00000060: 2174 00be 1fc4 2ebe 96f7 793d 6cdf 143d
00000070: 0150 4f3d 73ec e0bc 5ed6 233d bf72 5b3b
00000080: 72ca 883d 3143 a5bb 78df d7bd 71cd ef3c
00000090: 8c67 883c 165a d4bd cdee 42bd 132a 85be
000000a0: 7ce8 2abe f2fb 2cbd ae47 e03d 0783 5f3e
000000b0: 18f0 233e 606d c43d 8369 ac3d 950f 0e3a
000000c0: def5 47bd 9b00 40be fa38 0cbe 8139 09be
000000d0: 569e 00be 98c3 afbd 6686 40bc efd5 3fbc
000000e0: c267 f33d 00a7 223e dd8f 323e c314 353e
000000f0: cf11 d43c 0f0e 64bd 6539 80be c73b 24be
00000100: 7f9f 493e 7cea 15bc 1f98 3ebe 7f43 a3be
00000110: 79b0 babe d803 02be 5f7b 26bd ff82 963c
00000120: 161e 0b3e 55d9 8cbd 19ae bdbd b3a2 ef3c
00000130: f946 9d3e a8ad a73e d7ba 8a3d b39f a4bd
00000140: 249c 92be 2e77 97be 3ef1 e8bd 82f9 4c3d
00000150: 7dc8 3fbd 03fd 683b 73eb edbc d56a 0aba
00000160: bcc4 bbbd 2c65 e33d d1b5 433d 6ab5 153e
00000170: 5c08 393e 854c 033e e754 ce3d 1d08 50bc
00000180: 2d4c c5bd 54b9 b8bc 1429 413d 8575 acbc
00000190: 1c8a 31be 80de 65be 5d98 23be a77c 82bd
000001a0: bd8f 103e 6cb5 913e be25 833e c792 233e
000001b0: ff5d 343d 408a 99bd c552 e8bd 7f3e 0abe
000001c0: 7212 68bd 01a7 76bd 9bca 583c 411b 483d
000001d0: 1807 483d f0e7 45bc 421c 1d3d 850c f8bc
000001e0: e833 2fbd dad1 db3c 11f0 95bd 6adc ff3c
000001f0: 929a b93d f989 6c3c bf27 f93c d3c5 0bbd
00000200: 354f 3c3d 9850 c63d ed7e 8ebd 0272 28be
00000210: 5afa cfbd 2220 533d a328 65bd 3393 a43d
00000220: 8b84 333e 2726 80bd 9c3e 9a3d 72df 053e
00000230: 75dc 853d 353f a1bd 15d7 cd3c 8503 873d
00000240: 836d 6bbd 34c2 e3bd 7495 c3bd 22a5 133d
00000250: 3a2e 5cbd 2ba2 f43d bcc9 80be c8a2 f53c
00000260: a32b 4cbd 5c37 21be 7cc9 173e 07eb c13d
00000270: dd6e f53d 9371 a03d 2d56 1f3e 78ab 12be
00000280: 9ada 463e afe9 ffbd c9c8 f9bd 071f 713d
00000290: 2bbb 36bd 227a 0dbe ae8b 263d 7997 43bd
000002a0: 936e b1bc 3e61 a13d 6989 253e 7467 39bd
000002b0: 29ae 033d 1973 93bd 3f15 263e c7e1 4ebd
000002c0: 707e 84bd 3ffc cdbd 09e6 24bd 1a16 62be
000002d0: 6905 0a3c 259b 3cbe a8e0 49be 3728 7bbd
000002e0: 41af db3d 9f3d f9bc d160 9a3d 3017 163d
000002f0: b764 da3d 65ae 423e 1348 babd 4897 a13e
00000300: 9800 97bd fe5c 36bc 7f9d 293c 49c1 9f3d
00000310: 19ac e23d a4f2 073e 782d db3c b006 e1bd
00000320: 812a 46be 5f6c 90bd 7d27 923d a042 16be
00000330: e0cb 393e dea4 833d adb3 76bd e91e e2bc
00000340: eea0 3d3d a7e9 1dbe 7635 ebbd d6d9 0f3e
00000350: 4cd4 21bd b83a 95bc f019 0d3d aa3e b53c
00000360: 44c7 80bd c38d 08be eb44 a6bd 0f3f 7c3d
00000370: 9efd 81bd 77fe aabc 63bd f13c 199b 5ebe
00000380: fc62 acbd 90db 093e 7cce f33d 11ca 923d
00000390: 8a0b 833d 3a93 023e 37b3 9b3c f38f 2a3d
000003a0: 0681 b43d 89cd 9b3d 8a9c a83d fdde 19bd
000003b0: 87ab 35bd e3d6 88bd cb05 7e3d 0b47 343e
000003c0: 5d19 7d3e 1073 5c3e 153d 1cbc e8ca 35be
000003d0: c756 81be 9c23 31be 817d 1cbd 2b81 7a3d
000003e0: f8b0 303b 1442 483d f059 1ebe 22bd b83d
000003f0: c729 a73d 675b cebd 1020 09be 9fc2 8ebd

conv1.0.bias f4 [5]
0.0005907508 0.0011648989 0.017775932 0.18876433 -0.0032204762
00000000: 9ddc 1a3a 85af 983a d59e 913c 704b 413e
00000010: a00e 53bb

conv1.2.weight f4 [5]
1.1421522 1.1224434 1.0737326 1.1177337 1.1600263
00000000: 0b32 923f 3aac 8f3f 1270 893f e611 8f3f
00000010: be7b 943f

conv1.2.bias f4 [5]
0.004120031 0.040371593 0.008499206 0.080117345 -0.011218164
00000000: 5301 873b af5c 253d 4140 0b3c 9014 a43d
00000010: 64cc 37bc

conv1.2.running_mean f4 [5]
0.039011613 0.05356282 0.05625551 0.12192558 0.03690501
00000000: a4ca 1f3d b064 5b3d 2d6c 663d 1eb4 f93d
00000010: b529 173d

conv1.2.running_var f4 [5]
0.007401839 0.007583944 0.00425292 0.007564957 0.0045755226
00000000: 208b f23b bc82 f83b 145c 8b3b 75e3 f73b
00000010: 44ee 953b

conv2.0.weight f4 [5, 5, 16]
0.07584225 -0.0075925114 0.021197688 0.084790476 0.025216881 0.031834193 0.117396384 0.019276047
-0.12650299 -0.09329816 -0.04455448 0.038184877 0.066721916 0.06491978 0.11898715 0.087821476
-0.0660604 0.13137242 0.08562052 0.041540984 0.03086694 -0.01299963 -0.061631553 -0.1593489
-0.10215599 -0.08291572 -0.051145136 0.09672781 -0.11747576 0.07126939 0.008860737 -0.0154585205
-0.016691947 0.106155306 0.092103764 0.0029102925 -0.052777573 -0.04868828 0.121668205 0.03562461
-0.022652725 0.019728575 0.027182292 0.12461046 -0.04852846 0.023748072 0.0027279684 0.059804942
-0.07644025 -0.053243123 0.07157238 0.050541017 -0.058692165 -0.033797313 0.030033002 0.055996653
-0.12854306 0.09473592 -0.14353545 0.003173552 0.047653735 -0.0037758374 -0.037524816 -0.124449335
-0.031495128 -0.0017796423 0.039673265 -0.011671592 0.027338205 -0.028712338 -0.03894808 0.09547127
-0.046491846 -0.021906653 -0.028940585 0.093634255 -0.08716906 0.027882183 0.053191096 -0.009823281
0.02087709 0.0520179 0.06392723 0.053783935 -0.092872456 -0.026003694 -0.12804653 -0.052080065
-0.10150754 -0.22933774 -0.059527244 0.112604216 -0.049032394 -0.109052934 0.03751507 0.036597613
0.1076169 0.06273011 0.07117566 0.042956717 -0.03677325 -0.1448098 -0.021385284 -0.12577608
-0.09746517 -0.12202575 -0.088448904 -0.16463931 -0.13634321 -0.10762931 -0.07901933 0.13855077
-0.0756659 0.060429074 0.11045981 -0.0407816 0.028001213 0.13558225 0.09687921 -0.014216972
-0.055805627 0.16480549 0.08105024 -0.012803931 0.00088043965 -0.0069671003 -0.01960365 -0.0037481452
-0.005616681 0.094421566 0.08664968 0.049399115 -0.04876167 0.0103450045 -0.0952698 -0.06158198
-0.020431357 -0.060662217 -0.04345503 -0.14232801 0.043687593 -0.071709916 -0.0428996 -0.00053311954
0.14576718 0.061820406 0.09070484 -0.10588147 0.001488873 -0.07483282 -0.114084415 -0.04415385
-0.025291454 0.11873256 -0.268353 -0.12285425 -0.031064909 0.0013180753 0.036699068 0.09978696
0.0543424 -0.031130016 0.04390699 -0.049624097 -0.008504093 0.040757123 -0.2143088 -0.048232906
0.028158274 -0.038274486 0.045215003 0.04774718 0.08352782 0.0798369 0.02436248 0.12622549
0.02342932 0.08466946 0.036858846 -0.08447311 -0.066446744 -0.011818289 -0.03773349 -0.06873572
-0.2036664 0.03399725 0.08345638 -0.02271842 0.106871314 0.027432047 -0.15422086 0.0031647743
0.13399045 0.017553363 -0.10075547 0.073166095 -0.101769984 0.122364685 0.020835448 -0.14438988
-0.021077618 -0.19292659 0.05400676 -0.11519269 -0.012720823 -0.028855788 0.011481065 0.14577305
-0.09825807 -0.05651218 -0.029275294 -0.12558948 -0.024363717 -0.1382427 0.015808519 -0.09954899
-0.04908063 -0.026682219 -0.045300998 -0.022060841 0.04464726 -0.09579155 0.111750424 0.00069415267
0.028744949 0.07916568 0.10067987 -0.02882072 -0.010841409 -0.03150409 0.035785064 0.033296075
-0.024085285 0.04515444 -0.14079723 -0.055308066 0.087163344 0.12584099 0.064331025 -0.005221883
0.09624023 -0.046213944 0.07934517 -0.08199213 -0.12528084 0.12143782 0.050981637 0.07499791
-0.042675883 -0.15580326 0.06503464 -0.1893539 0.035595037 0.09307897 0.04426991 -0.011886858
00000000: 2e53 9b3d 9aca f8bb c6a6 ad3c a1a6 ad3d
00000010: a293 ce3c 9264 023d 846d f03d cde8 9d3c
00000020: 008a 01be 1b13 bfbd c27e 36bd bf67 1c3d
00000030: 80a5 883d a9f4 843d 89af f33d bfdb b33d
00000040: ad4a 87bd 7e86 063e d059 af3d e126 2a3d
00000050: aadc fc3c 66fc 54bc 5e71 7cbd 5c2c 23be
00000060: 2937 d1bd b8cf a9bd 907d 51bd 3b19 c63d
00000070: 2297 f0bd b0f5 913d a02c 113c bc45 7dbc
00000080: 8dbd 88bc f467 d93d e6a0 bc3d 9bba 3e3b
00000090: 4c2d 58bd 5d6d 47bd 2e2d f93d 1ceb 113d
000000a0: 3592 b9bc d29d a13c 66ad de3c c533 ff3d
000000b0: c7c5 46bd 518b c23c b7c7 323b 07f6 743d
000000c0: b58c 9cbd 7615 5abd 8a94 923d 1904 4f3d
000000d0: 3267 70bd 0d6f 0abd c507 f63c bf5c 653d
000000e0: cba0 03be e804 c23d f5fa 12be 5efb 4f3b
000000f0: 9030 433d 0a74 77bb 9fb3 19bd 4bdf febd
00000100: 0901 01bd e342 e9ba 6f80 223d 343a 3fbc
00000110: 5ff4 df3c 2336 ebbc 0688 1fbd 7186 c33d
00000120: 3c6e 3ebd 9575 b3bc ce14 edbc 51c3 bf3d
00000130: b185 b2bd 2d69 e43c e8de 593d d4f1 20bc
00000140: 6e06 ab3c b910 553d 48ec 823d 8b4c 5c3d
00000150: ea33 bebd b305 d5bc a11e 03be e851 55bd
00000160: 2fe3 cfbd 83d7 6abe d7d2 73bd 0a9d e63d
00000170: 31d6 48bd 2557 dfbd 67a9 193d 61e7 153d
00000180: 4066 dc3d a578 803d 8bc4 913d 62f3 2f3d
00000190: 8c9f 16bd 0549 14be 3130 afbc 72cb 00be
000001a0: d29b c7bd a3e8 f9bd b324 b5bd 3597 28be
000001b0: 8e9d 0bbe c16c dcbd e3d4 a1bd 41e0 0d3e
000001c0: b9f6 9abd 7a84 773d c138 e23d 9b0a 27bd
000001d0: cd62 e53c 13d6 0a3e 9b68 c63d 4dee 68bc
000001e0: 7194 64bd c5c2 283e abfd a53d 94c7 51bc
000001f0: 4ecd 663a 464c e4bb d597 a0bc 71a3 75bb
00000200: 230c b8bb 1860 c13d 6375 b13d ba56 4a3d
00000210: 51ba 47bd 187e 293c d01c c3bd 633d 7cbd
00000220: a95f a7bc f278 78bd e7fd 31bd 6fbe 11be
00000230: c3f1 323d a6dc 92bd 7eb7 2fbd 0cc1 0bba
00000240: fe43 153e 6537 7d3d 76c3 b93d 62d8 d8bd
00000250: 4a26 c33a f341 99bd 17a5 e9bd abda 34bd
00000260: 0630 cfbc 0e2a f33d 9065 89be 029b fbbd
00000270: d67b febc 45c3 ac3a c351 163d 1b5d cc3d
00000280: 2396 5e3d 6004 ffbc d1d7 333d a342 4bbd
00000290: c054 0bbc f1f0 263d c473 5bbe de8f 45bd
000002a0: 2eac e63c b5c5 1cbd 5e33 393d 8c92 433d
000002b0: a210 ab3d 8781 a33d d393 c73c 4141 013e
000002c0: d8ee bf3c 2f67 ad3d 4df9 163d 3d00 adbd
000002d0: 3b15 88bd 7fa1 41bc 6f8e 1abd 50c5 8cbd
000002e0: ed8d 50be b340 0b3d 2eeb aa3d fb1b babc
000002f0: 59df da3d 2cb9 e03c 13ec 1dbe 1a68 4f3b
00000300: cb34 093e 12cc 8f3c e258 cebd 1bd8 953d
00000310: c86c d0bd 569a fa3d 1aaf aa3c f1da 13be
00000320: f8aa acbc 8c8e 45be 3136 5d3d 25ea ebbd
00000330: 006b 50bc f962 ecbc 141b 3c3c 8845 153e
00000340: 873b c9bd 5179 67bd bed2 efbc 879a 00be
00000350: 6b96 c7bc 7f8f 0dbe de80 813c 57e0 cbbd
00000360: c508 49bd ab94 dabc 8a8d 39bd f0b8 b4bc
00000370: 0ce0 363d 5c2e c4bd 68dd e43d ccf7 353a
00000380: 877a eb3c 9e21 a23d 3f31 ce3d 6e19 ecbc
00000390: 2aa0 31bc 6f0a 01bd 5c93 123d 7761 083d
000003a0: 814e c5bc ddf3 383d 262d 10be b68a 62bd
000003b0: b282 b23d 76dc 003e fcbf 833d 541c abbb
000003c0: 9919 c53d d54a 3dbd b87f a23d 7deb a7bd
000003d0: 9f49 00be 64b4 f83d 1fd2 503d 8198 993d
000003e0: e8cc 2ebd e48a 1fbe e230 853d fde5 41be
000003f0: 1acc 113d 30a0 be3d 5d54 353d 19c1 42bc

conv2.0.bias f4 [5]
0.053227473 0.006603345 0.033362538 -0.048707414 -0.08089563
00000000: 0d05 5a3d df60 d83b 28a7 083d 6d81 47bd
00000010: 9cac a5bd

conv2.2.weight f4 [5]
0.9908312 1.2846549 1.0672917 1.0267645 1.1110967
00000000: 1da7 7d3f 926f a43f 049d 883f 056d 833f
00000010: 6b38 8e3f

conv2.2.bias f4 [5]
0.018468324 -0.013533194 0.019420302 0.019197516 0.008995442
00000000: e24a 973c 54ba 5dbc 5317 9f3c 1c44 9d3c
00000010: 9e61 133c

conv2.2.running_mean f4 [5]
0.22399831 0.17605925 0.21696629 0.18360242 0.14843874
00000000: d05f 653e e048 343e 692c 5e3e 4602 3c3e
00000010: 5300 183e

conv2.2.running_var f4 [5]
0.15440018 0.054246042 0.14288166 0.14184512 0.09775852
00000000: 151b 1e3e 1931 5e3d 924f 123e d93f 113e
00000010: 9e35 c83d

fc1.1.weight f4 [2, 520]
-0.05313041 -0.047730725 -0.05444533 0.050031886 0.002069769 -0.015773203 -0.037537213 -0.053200696
-0.018526023 0.0018789723 -0.053262297 -0.0022740662 0.012357218 -0.051948883 0.012047485 -0.06412446
-0.010895121 -0.069429755 -0.029658267 -0.012690555 -0.025307424 -0.022069834 -0.018925345 -0.039482046
-0.01701759 -0.0531625 0.00096889475 -0.034076527 -0.06541273 -0.038539056 -0.031927533 0.007899409
-0.064279824 -0.03357304 -0.020142445 0.005023059 -0.009426849 -0.052452404 -0.013194808 -0.029522402
-0.05452611 -0.036497407 -0.014701734 -0.06759263 -0.011698622 -6.82508e-05 -0.025617357 -0.042692076
-0.06508571 -0.037903797 -0.031355266 -0.0037435945 -0.022127815 -0.024102174 -0.043267485 -0.028232886
-0.027514778 -0.017370317 -0.046932362 0.0043377536 -0.028529549 -0.012254882 -0.034671325 -0.008171576
-0.033798285 -0.0037644291 -0.033253968 -0.050463874 0.0180856 -0.013981056 -0.014442046 0.0024133597
-0.022907302 -0.027130336 0.004570418 -0.042709827 -0.052044924 -0.0031360833 -0.030301329 -0.018600805
-0.035667725 -0.09606149 -0.023256117 -0.001989188 -0.027104624 -0.019214455 -0.0655354 -0.049986854
-0.03592131 -0.026565192 0.010113256 -0.0067696706 -0.046781287 0.011043589 -0.06431034 -0.05129463
-0.07085072 -0.08402772 0.021067813 -0.02481312 -0.04497461 0.009035733 -0.056485012 -0.048611894
0.06397739 0.067077644 0.047589786 -0.0079851635 0.048839793 0.06810831 0.07218039 0.04597238
0.053269684 0.06714513 0.05742392 0.050582483 0.11834023 0.061768435 0.03877283 0.10045983
0.048187114 0.06551417 0.030377207 0.08124583 0.08993292 0.11273927 0.04733561 0.08067104
0.067370266 0.078417785 0.103709236 0.08739191 0.010951712 0.071288526 0.07396201 0.11760111
0.080474965 0.05681168 0.06731982 0.107932545 0.11762976 0.099905714 0.07759065 0.088465825
0.109495364 0.12414936 0.04926362 0.053416222 0.06249998 0.055601962 0.10503419 0.0539971
0.048470393 0.04350798 0.076426014 0.112178914 0.071926974 0.067384854 0.06339629 0.07932423
0.11982244 0.14041094 0.048188582 0.03775477 0.11392774 0.101959266 0.099646516 0.022949839
0.08009082 0.06874451 0.12475067 0.076450795 0.021555401 0.08293297 0.06662298 0.09653317
0.12808466 0.048001476 0.07005962 0.07779623 0.101122 0.12454892 0.04545549 0.09692744
0.05881257 0.082592025 0.10468046 0.0735628 0.10682674 0.10643585 0.10063826 0.10603411
0.05717595 0.074746005 0.06818684 0.086956 0.091745935 0.06679281 0.08700914 0.048851565
0.060690857 0.0646332 0.04122315 0.06341735 0.072255455 0.06217298 0.097875126 0.02003615
0.006785076 0.0037364033 -0.05094804 -0.006575759 -0.095026664 -0.003105457 -0.007705943 -0.057098076
0.0046684067 -0.04686051 -0.036420897 -0.07205572 -0.025610592 -0.056813944 -0.020924076 -0.04765053
-0.00038707315 -0.038756013 -0.051934257 -0.09542005 -0.03775939 -0.030346854 -0.0023463715 -0.016477376
-0.053656474 -0.013597958 -0.10477207 -0.035455737 -0.054206606 -0.062946245 -0.041458327 -0.032455582
-0.009624807 -0.033748493 -0.08459733 -0.016735269 -0.06022769 -0.0049861134 -0.01728206 -0.026952252
-0.06447488 -0.100840546 -0.027661711 -0.033592783 -0.075170286 -0.053320922 -0.04263915 -0.046898562
00000000: 469f 59bd 4b81 43bd 1102 5fbd 3cee 4c3d
00000010: f6a4 073b ce36 81bc 9fc0 19bd f9e8 59bd
00000020: e3c3 97bc d947 f63a 9129 5abd 8008 15bb
00000030: ee75 4a3c 5ac8 54bd d162 453c af53 83bd
00000040: 7381 32bc 3031 8ebd e5f5 f2bc 0cec 4fbc
00000050: 8451 cfbc cccb b4bc 5309 9bbc edb7 21bd
00000060: 7968 8bbc ecc0 59bd 6dfd 7d3a d493 0bbd
00000070: 1cf7 85bd 21db 1dbd 72c6 02bd 866c 013c
00000080: 24a5 83bd e283 09bd c501 a5bc 7998 a43b
00000090: 1273 1abc 55d8 56bd 092f 58bc f7d8 f1bc
000000a0: c556 5fbd 4e7e 15bd 8bdf 70bc 016e 8abd
000000b0: 94ab 3fbc df21 8fb8 7edb d1bc e3dd 2ebd
000000c0: a84b 85bd 0341 1bbd 616e 00bd 1857 75bb
000000d0: 6445 b5bc ec71 c5bc 3f39 31bd a748 e7bc
000000e0: ac66 e1bc 324c 8ebc 263c 40bd b723 8e3b
000000f0: cdb6 e9bc b3c8 48bc 8503 0ebd 13e2 05bc
00000100: 1270 0abd a4b4 76bb 5035 08bd 35b3 4ebd
00000110: 4128 943c cd10 65bc 559e 6cbc 7529 1e3b
00000120: 18a8 bbbc 7040 debc 72c3 953b 80f0 2ebd
00000130: 0f2d 55bd bf86 4dbb 7e3a f8bc b760 98bc
00000140: 5218 12bd e3bb c4bd 9d83 bebc 095d 02bb
00000150: 840a debc a267 9dbc 6c37 86bd 04bf 4cbd
00000160: 3922 13bd 3f9f d9bc 12b2 253c 1dd4 ddbb
00000170: bc9d 3fbd 2bf0 343c 24b5 83bd 511a 52bd
00000180: 2f1a 91bd ba16 acbd 6896 ac3c e244 cbbc
00000190: 4c37 38bd 9c0a 143c d45c 67bd 441d 47bd
000001a0: 9406 833d 0160 893d 82ed 423d 34d4 02bc
000001b0: 3c0c 483d 5f7c 8b3d 50d3 933d 894d 3c3d
000001c0: 5031 5a3d 6383 893d 5835 6b3d 942f 4f3d
000001d0: 5d5c f23d e600 7d3d 42d0 1e3d e2bd cd3d
000001e0: da5f 453d 4b2c 863d 9fd9 f83c 3764 a63d
000001f0: c02e b83d d9e3 e63d fce2 413d dc36 a53d
00000200: 6cf9 893d 8199 a03d 8265 d43d 88fa b23d
00000210: cf6e 333c b8ff 913d 6579 973d dad8 f03d
00000220: 0fd0 a43d 5db3 683d f9de 893d bd0b dd3d
00000230: dfe7 f03d 5e9b cc3d d9e7 9e3d 922d b53d
00000240: 1b3f e03d 0542 fe3d a6c8 493d f8ca 5a3d
00000250: fbff 7f3d e2be 633d 2a1c d73d 102c 5d3d
00000260: e488 463d 6c35 323d 3e85 9c3d 0fbe e53d
00000270: 734e 933d 1201 8a3d ead5 813d be74 a23d
00000280: 7865 f53d e3c7 0f3e 6461 453d bfa4 1a3d
00000290: f252 e93d 05d0 d03d 7913 cc3d 4d01 bc3c
000002a0: a806 a43d ecc9 8c3d 477d ff3d 3c92 9c3d
000002b0: f494 b03c c3d8 a93d a171 883d 2fb3 c53d
000002c0: a028 033e 329d 443d 6b7b 8f3d a153 9f3d
000002d0: 0d19 cf3d 8113 ff3d 892f 3a3d e581 c63d
000002e0: 73e5 703d 0226 a93d b662 d63d 18a8 963d
000002f0: fac7 da3d 0afb d93d 6f1b ce3d 6928 d93d
00000300: 5431 6a3d 6f14 993d 8ba5 8b3d fd15 b23d
00000310: 4be5 bb3d abca 883d d931 b23d 9418 483d
00000320: fa96 783d 695e 843d 9bd9 283d f5e0 813d
00000330: abfa 933d 18a9 7e3d c172 c83d da22 a43c
00000340: 5855 de3b 72de 743b e4ae 50bd 7779 d7bb
00000350: 579d c2bd ec84 4bbb 2382 fcbb acdf 69bd
00000360: 6ff9 983b cef0 3fbd 142e 15bd f391 93bd
00000370: 4ecd d1bc bdb5 68bd f868 abbc 342d 43bd
00000380: 14f0 cab9 a0be 1ebd 04b9 54bd 966b c3bd
00000390: 97a9 1abd f799 f8bc 95c5 19bb 90fb 86bc
000003a0: e4c6 5bbd f8c9 5ebc bd92 d6bd 093a 11bd
000003b0: bf07 5ebd f6e9 80bd 35d0 29bd 25f0 04bd
000003c0: 5eb1 1dbc dc3b 0abd 5d41 adbd 6718 89bc
000003d0: 4fb1 76bd 8d62 a3bb 1b93 8dbc f8ca dcbc
000003e0: 680b 84bd 7d85 cebd d09a e2bc 9698 09bd
000003f0: e1f2 99bd 0a67 5abd 64a6 2ebd b518 40bd

fc1.1.bias f4 [2]
-0.011344251 -0.0071555222
00000000: 3ddd 39bc df78 eabb
