saved_models/IEGM_net_state_dict.pkl (torch, 9101 bytes, 14 tensors)

conv1.0.weight f4 [5, 1, 64]
0	0x3d6610c2	0.056168325
1	0xbc490e4b	-0.012271474
2	0xbc8f2c2f	-0.017477123
3	0xbc1c6bdd	-0.009547201
4	0xbc6e9ca4	-0.014563713
5	0x3dc34025	0.09533719
6	0x3dc758bb	0.09733721
7	0xbe386bea	-0.18009916
8	0xbcc7ba4e	-0.02438083
9	0xbc3d8df9	-0.011569493
10	0x3dc2cc9d	0.09511683
11	0xb9bc5b5e	-0.00035926228
12	0x3d702d67	0.05863705
13	0x3ca0dea8	0.01963742
14	0xbda90f04	-0.08254817
15	0xbe1ddb51	-0.15415694
16	0xbe6f2cf3	-0.2335699
17	0xbe9171e5	-0.28407207
18	0xbe539b1e	-0.20664641
19	0xbb58bfdd	-0.0033073344
20	0x3e1c4ceb	0.15263717
21	0x3ead8b77	0.33895466
22	0x3e2015d5	0.15633328
23	0x3daca172	0.08429231
24	0xbe2b55f3	-0.16732006
25	0x3d8b216d	0.06793485
26	0xbe15c09b	-0.14624254
27	0x3c9073ae	0.017633285
28	0xbc1e8a71	-0.009676562
29	0xba6d27e5	-0.0009046777
30	0xbe209e4d	-0.15685387
31	0xbea38d8e	-0.31943935
32	0xbe30da58	-0.17270792
33	0xbe307e61	-0.1723571
34	0xbd317942	-0.04332853
35	0x3e6e5e53	0.2327817
36	0x3e55bbd9	0.2087244
37	0x3e266c80	0.16252327
38	0x3e5a8d8e	0.21343061
39	0x3d10ddf7	0.035367932
40	0xbd97485f	-0.073868506
41	0xbe8a1356	-0.26967877
42	0xbdc83e84	-0.09777549
43	0xbe3e1536	-0.18562779
44	0xbd18b0ad	-0.037277866
45	0x3df7dda1	0.12102819
46	0xbd2336f9	-0.039847348
47	0xbd99f4d2	-0.07517399
48	0xbda81aa0	-0.08208203
49	0x3e00780e	0.12545797
50	0x3e3827b2	0.17983893
51	0x3e6c23e8	0.23060572
52	0x3df7cbb0	0.12099397
53	0x3d0b4b60	0.03400743
54	0xbe8a04dd	-0.26956835
55	0xbe1a82f2	-0.15089014
56	0xbca86b78	-0.020559058
57	0x3da835c7	0.08213382
58	0x3e5cb48d	0.2155325
59	0x3db35859	0.08757085
60	0x3da53547	0.080668025
61	0xbd603070	-0.054733694
62	0x3d20fa27	0.039301064
63	0x3ce04ce4	0.027380414
64	0xbe05e904	-0.1307717
65	0xbc8cb634	-0.017176725
66	0xbe49d36f	-0.19709562
67	0xbe16b0e4	-0.14715916
68	0xbe26e83c	-0.16299528
69	0xbe3a3424	-0.18183953
70	0xbc87d3b7	-0.016580446
71	0x3ddd79cc	0.108142465
72	0xbc9866df	-0.01860374
73	0x3cb59a51	0.02216831
74	0xbd115085	-0.03547718
75	0xbd2407b8	-0.040046424
76	0xba216112	-0.0006156127
77	0xbcfb2ab4	-0.03066001
78	0x3bbe6e9a	0.0058115246
79	0x3dd2edb9	0.10299248
80	0x3d8a7308	0.06760222
81	0xbc435fe7	-0.01192472
82	0x3e43afe0	0.1911006
83	0xbe717ac9	-0.23581995
84	0xbd5deb99	-0.05417976
85	0xbdc20906	-0.09474377
86	0x3d96628c	0.07343015
87	0x3cdd87b9	0.027042257
88	0xbd01ca51	-0.031687085
89	0xbb293b25	-0.0025822606
90	0x3e12c69e	0.14333579
91	0xbe734025	-0.23754938
92	0xbd3ee193	-0.046601843
93	0xbe04f3b7	-0.12983595
94	0x3d27bbff	0.04095077
95	0x3d61028a	0.054934062
96	0xbd8c5010	-0.06851208
97	0x3e1aac88	0.15104878
98	0x3d9c4d08	0.0763188
99	0x3d17c549	0.03705338
100	0xbe32c2a2	-0.17457059
101	0xbc60ea44	-0.013727728
102	0x3e2643ed	0.16236849
103	0xbd897ac2	-0.06712867
104	0x3d9615be	0.07328366
105	0x3d9a1ebf	0.075253956
106	0xbd9a728a	-0.07541378
107	0x3e53dcd3	0.20689707
108	0xbdb15141	-0.08658076
109	0x3d8d7f10	0.06909001
110	0x3d7ecfbf	0.06220984
111	0xbd68674d	-0.05673914
112	0xbe231bb6	-0.1592854
113	0xbe1675fd	-0.14693446
114	0xbcb2023c	-0.021729581
115	0x3c9d205b	0.019180467
116	0x3e48fc04	0.19627386
117	0x3e2ba3c0	0.16761684
118	0xbd4185e5	-0.047246832
119	0x3da64d7c	0.08120248
120	0xbca44d87	-0.0200565
121	0x3e8043a4	0.25051606
122	0x3cf048a0	0.029331505
123	0x3cd2c969	0.025730805
124	0xbc78bb21	-0.015181334
125	0xbdc8c9d6	-0.09804122
126	0xbe34b103	-0.1764565
127	0xbe54d440	-0.20784092
128	0xbe4960ee	-0.19665882
129	0x3ca0f1b0	0.019646496
130	0xbc9962b6	-0.018723827
131	0xbdac4c05	-0.08412937
132	0xbdf6bebc	-0.120480984
133	0xbe0f0a76	-0.13968834
134	0xbd53c6f1	-0.051703397
135	0x3d8211a5	0.06351022
136	0x3e7b2e3f	0.2452936
137	0x3e602698	0.21889722
138	0x3dbd4a3f	0.09242677
139	0xbd3461d3	-0.044038605
140	0xbd3237d4	-0.043510273
141	0xbc8c6443	-0.017137652
142	0xbd1811f7	-0.037126508
143	0x3d33e8f8	0.04392335
144	0x3caf96e6	0.021434259
145	0xbdecd6ca	-0.11564405
146	0xbe1ad999	-0.1512207
147	0xbe376b91	-0.17912127
148	0xbe0e344f	-0.13887142
149	0xbd2626ba	-0.040564276
150	0x3e17e3f0	0.14833045
151	0x3e8e5930	0.2780242
152	0x3d8fa13d	0.07013176
153	0x3d7bad8f	0.061444815
154	0x3db1cbd2	0.08681454
155	0xbd0a09a7	-0.03370061
156	0xbce077d0	-0.027400881
157	0xbd60a22c	-0.05484216
158	0x3d7e4f87	0.062087562
159	0xbd49fb59	-0.04931197
160	0xbd911a0c	-0.07085046
161	0xbd9d838f	-0.076911084
162	0xbc919967	-0.017773343
163	0xbdb984b7	-0.090585165
164	0xbda5f918	-0.081041515
165	0xbe30241a	-0.17201272
166	0xbdca34d3	-0.09873357
167	0x3d3027a2	0.043006547
168	0x3d84416b	0.0645779
169	0x3e602ba7	0.21891652
170	0x3e6e8123	0.23291449
171	0x3e31cb08	0.17362607
172	0x3dcd9685	0.10038475
173	0x3dee1f46	0.11627059
174	0xbcf29c7d	-0.029615635
175	0xbe2ed00b	-0.1707155
176	0xbe733272	-0.23749712
177	0xbe465809	-0.1936952
178	0xbdc5753d	-0.09641502
179	0x3c070584	0.008241061
180	0xbcc282bd	-0.023743981
181	0xbd2906db	-0.041266304
182	0xbcc588d7	-0.024113102
183	0x3dbf947e	0.093544945
184	0x3e16eca4	0.14738709
185	0x3e1f3bb8	0.15550125
186	0x3d9e81e6	0.0773962
187	0xbd7706ae	-0.060309105
188	0xbe2c9248	-0.16852677
189	0xbde9b842	-0.114120975
190	0x3db1b3f1	0.08676899
191	0x3d6d396e	0.057916097
192	0xbe524c25	-0.2053686
193	0xbde9af44	-0.114103824
194	0xbc45de16	-0.012076875
195	0xbcc87315	-0.024468938
196	0x3dc033bb	0.09384867
197	0x3dedb57c	0.11606881
198	0x3c5bc6c4	0.013414089
199	0x3d35f421	0.044422273
200	0x3e1ea91a	0.15494195
201	0x3dd311f0	0.10306156
202	0x3c72368c	0.014783513
203	0xbdcab468	-0.09897691
204	0x3d298ad7	0.041392174
205	0xbdea3cb6	-0.11437361
206	0x3d642843	0.05570246
207	0x3d732adb	0.059367042
208	0x3cc9f916	0.024654906
209	0x3e1f4ac1	0.1555586
210	0x3e1716f9	0.14754857
211	0x3e3f1214	0.1865924
212	0x3bcdf490	0.0062852576
213	0x3e0ccc18	0.1374973
214	0x3e383d22	0.1799207
215	0xbe84322c	-0.25819528
216	0xbe4220a4	-0.18957764
217	0xbe853573	-0.2601734
218	0xbe2a846a	-0.16652074
219	0xbe733aaa	-0.23752847
220	0xbd6859e2	-0.056726344
221	0x3e976b7e	0.29574198
222	0x3de57b0b	0.11205109
223	0x3c2d8ccc	0.010592651
224	0x3c9210cb	0.017830273
225	0xbd20e30a	-0.03927902
226	0x3de95c87	0.11394601
227	0x3e74a5d7	0.23891388
228	0xbdfa72ea	-0.12228949
229	0xbda61b76	-0.081107065
230	0xbd8f1f6f	-0.06988417
231	0xbc80a8ed	-0.01570555
232	0xbe2c2b40	-0.16813374
233	0xbe14b79f	-0.14523171
234	0xbddefddf	-0.10888266
235	0x3e078bc5	0.13236912
236	0x3d67c36b	0.05658285
237	0x3e01bd6c	0.12669915
238	0x3e1d7610	0.15377069
239	0x3d9885c7	0.07447391
240	0xbcc0be52	-0.023528252
241	0x3e9fc8d8	0.3120792
242	0x3d6ec55b	0.05829368
243	0x3dce3599	0.10068817
244	0x3e82aea3	0.25523862
245	0xbe072545	-0.13197811
246	0xbe604a0f	-0.21903251
247	0xbdbbe8f4	-0.09175292
248	0xbd117427	-0.035511162
249	0x3d16a674	0.036779836
250	0xbdcc7567	-0.0998333
251	0x3e7a8797	0.24465786
252	0x3e281041	0.1641245
253	0x3df81450	0.12113249
254	0x3e086c30	0.1332252
255	0x3e13f38d	0.14448376

conv1.0.bias f4 [5]
0	0xbb132e4e	-0.002245802
1	0xbb40e7f6	-0.0029435134
2	0xbd39d7e4	-0.045371905
3	0x3c98c7b1	0.018649908
4	0xbb65aac1	-0.0035044404

conv1.2.weight f4 [5]
0	0x3f8bb427	1.0914353
1	0x3f7645cb	0.96200246
2	0x3f7a2cef	0.97724813
3	0x3f83a50f	1.0284747
4	0x3f79851e	0.97468746

conv1.2.bias f4 [5]
0	0x3e4db00e	0.20086691
1	0xbd8be25c	-0.06830284
2	0x3dfbf37b	0.123022996
3	0xbcb433de	-0.021997388
4	0x3dcf84c9	0.10132749

conv1.2.running_mean f4 [5]
0	0x3d95f8a5	0.07322816
1	0x3d0b09fd	0.033945072
2	0x3d4c7649	0.049917493
3	0x3daae5f1	0.08344639
4	0x3d5cf931	0.053948585

conv1.2.running_var f4 [5]
0	0x3d44dc7d	0.048061837
1	0x3bcf80f2	0.00633251
2	0x3cc7aefc	0.024375431
3	0x3cfbf36a	0.030755717
4	0x3ceb30bc	0.028709762

conv2.0.weight f4 [5, 5, 16]
0	0x3d8f6027	0.070007615
1	0x3d0f878c	0.035041377
2	0x3dde27ba	0.10847421
3	0x3df5de04	0.12005237
4	0x3cce90f3	0.025215602
5	0x3dfb6fd9	0.122771926
6	0x3dd3efec	0.10348496
7	0x3d276be6	0.040874384
8	0x3de2f46b	0.11081775
9	0x3cd0c807	0.025486005
10	0x3dff5ea3	0.124692224
11	0xbc036870	-0.008020505
12	0x3d3f38f5	0.046685178
13	0x3df05bed	0.117362835
14	0xbda8e859	-0.08247442
15	0x3deaa51b	0.114572726
16	0xbd2c4d17	-0.042065706
17	0xbdbdc9e3	-0.092670225
18	0x3ce2f9f3	0.027707076
19	0xbded7e29	-0.11596329
20	0xbe07fd0b	-0.13280122
21	0xbc29bf89	-0.010360607
22	0xbe2b70ae	-0.16742203
23	0xbdb9289c	-0.09040949
24	0xbd1294c1	-0.035786394
25	0xbe32b56b	-0.17452018
26	0xbd275029	-0.04084793
27	0xbe06919b	-0.13141482
28	0xbd8c0873	-0.06837549
29	0xbde2c339	-0.11072392
30	0xbe3b1c89	-0.18272604
31	0x3bf2cacd	0.0074094296
32	0x3bb7e56b	0.0056120655
33	0x3da51dd1	0.08062328
34	0x3c5cab53	0.013468581
35	0x3d5ad6b9	0.05342743
36	0x3da42e2d	0.0801662
37	0x3c024f0e	0.007953418
38	0x3d0af76b	0.033927362
39	0xbb5d0339	-0.0033723845
40	0x3d1f3159	0.03886542
41	0x3de5b8b9	0.11216874
42	0x3deeba72	0.11656655
43	0x3cb8d034	0.022560216
44	0x3db9acce	0.09066163
45	0x3dc30270	0.09521949
46	0x3deea43f	0.11652421
47	0x3c9643bf	0.01834285
48	0xbcefc817	-0.029270215
49	0xbcdbbf54	-0.02682463
50	0xbe7bc8cb	-0.24588315
51	0xbc838a5a	-0.016057182
52	0xbdfe3a38	-0.12413448
53	0xbe337fa1	-0.17529155
54	0x3bd9a58f	0.0066420506
55	0xbe1290bf	-0.14313029
56	0xbd913824	-0.07090786
57	0xbe522a78	-0.20524013
58	0xbdb16f72	-0.08663835
59	0xbdef3dd9	-0.116817184
60	0xbe661e13	-0.2247241
61	0x3c24245f	0.010018437
62	0xbe4232a1	-0.18964626
63	0xbd382427	-0.044956353
64	0x3d939b5b	0.07207366
65	0x3d2c9cce	0.042141728
66	0x3deafd3c	0.11474082
67	0x3dd8434b	0.1055971
68	0x3dcdb124	0.100435525
69	0x3dad238f	0.08454048
70	0x3e012dcf	0.12615131
71	0x3dbe718a	0.092989996
72	0x3d281d63	0.04104365
73	0x3db3b102	0.08773996
74	0x3db462b1	0.088078864
75	0x3bee3198	0.0072690956
76	0x3dccbf94	0.09997478
77	0x3d695969	0.056970034
78	0x3cf12bce	0.029439833
79	0x3d868131	0.0656761
80	0x3d3c66a9	0.04599634
81	0x39aa3cd3	0.00032470244
82	0x3dda2df9	0.106533
83	0x3dc837ed	0.09776292
84	0x3dc0bc88	0.094109595
85	0xbc916d5a	-0.017752338
86	0x3d955fe9	0.07293684
87	0x3dc6e93b	0.09712454
88	0xbc56fa00	-0.013121128
89	0xbd654bb8	-0.055980414
90	0xbd9d56ff	-0.07682609
91	0x3bf98156	0.007614295
92	0x3e259e55	0.1617368
93	0xbe313159	-0.17303981
94	0xbd612cdf	-0.054974433
95	0x3d324edc	0.043532237
96	0x3d7f860f	0.062383708
97	0xbd0627d2	-0.03275282
98	0x3ce91192	0.028450761
99	0xbe7b23a0	-0.24525309
100	0x3d91f6a2	0.071271196
101	0x3d9e49ba	0.07728906
102	0x3e2999b4	0.1656254
103	0xbdeec2c5	-0.11658243
104	0xbe0011f0	-0.12506843
105	0x3e00b7ec	0.1257016
106	0xbc7f3774	-0.015577186
107	0x3d2f8316	0.042849623
108	0xbdf26224	-0.11835125
109	0x3b2a21cc	0.0025960086
110	0xbd092127	-0.033478882
111	0x3cab53b1	0.02091393
112	0xbdb229ae	-0.08699356
113	0x3df183af	0.11792695
114	0x3d095556	0.03352865
115	0xbd931765	-0.071821965
116	0x3d6dc2e6	0.058047198
117	0xbda1e565	-0.07905082
118	0xbbbcecca	-0.005765532
119	0xbca73377	-0.020410283
120	0x3d44d795	0.048057158
121	0xbe17ba0c	-0.14817065
122	0x3cc297c1	0.023754003
123	0xbdddea97	-0.1083576
124	0xbe13a0db	-0.1441683
125	0xbe6477fd	-0.22311397
126	0xbe15edb5	-0.1464146
127	0xbd9e3e22	-0.07726695
128	0x3cf9ec88	0.030508295
129	0x3de31848	0.11088616
130	0x3c78e8bd	0.015192208
131	0x3db79f24	0.089659005
132	0x3ca15dec	0.019698106
133	0x3e187ae7	0.14890634
134	0x3dbb6e22	0.091518655
135	0xbcf1a71c	-0.02949863
136	0x3d84e9c7	0.06489902
137	0x3cf04e39	0.029334174
138	0xbb0825ab	-0.0020774405
139	0x3d30f111	0.04319865
140	0xbe025435	-0.12727435
141	0x3c3bd8d6	0.011465272
142	0xbd2dbfce	-0.042419247
143	0x3d0fe566	0.03513088
144	0x3deb9cb1	0.11504496
145	0x3d955a45	0.07292608
146	0xbe16b2e7	-0.14716683
147	0x3d5e1d31	0.054227058
148	0xbe0e9122	-0.13922551
149	0xbd91f2ed	-0.071264125
150	0x3dbfb922	0.09361483
151	0xbe26a3b7	-0.1627339
152	0x3d3d614c	0.046235368
153	0xbe1bd7ad	-0.15218993
154	0xbe500cd7	-0.20317398
155	0x3e314963	0.17313151
156	0x3d92c5e4	0.07166651
157	0x3ae149c2	0.0017188119
158	0xbcc7899d	-0.024357611
159	0x3dd98c53	0.10622468
160	0x3ce4e359	0.027940439
161	0x3def7a52	0.116932526
162	0x3de2d3d5	0.1107556
163	0x3c35dee3	0.011100504
164	0xbce01954	-0.027355827
165	0xbe2b4311	-0.16724803
166	0xbc446355	-0.011986573
167	0xbca1195e	-0.019665416
168	0x3d366263	0.044527423
169	0x3d4c877c	0.049933895
170	0x3e636f03	0.22210316
171	0xbc662d55	-0.014048894
172	0x3b9e4fca	0.004831289
173	0x3e00031b	0.12501185
174	0x3db9a8a9	0.090653725
175	0x3d2ba266	0.041902922
176	0x3cd4030b	0.025880357
177	0xbccb0e08	-0.024786964
178	0xbe336202	-0.17517856
179	0xbddc562f	-0.10758626
180	0x3dad99b2	0.08476581
181	0x3e076121	0.13220645
182	0xbd6ed696	-0.058310114
183	0x3d86a7ad	0.0657495
184	0xbdee5987	-0.1163817
185	0xbd12edfc	-0.03587149
186	0xbdbbead2	-0.09175648
187	0x3c8f7556	0.017512005
188	0x3d570ff8	0.052505463
189	0x3dc09c5b	0.094048224
190	0xbd05c9f6	-0.032663308
191	0xbe5b940f	-0.21443199
192	0x3da82525	0.0821021
193	0xbcc81fa0	-0.024429142
194	0xbd28b267	-0.041185763
195	0x3e0a35c9	0.1349708
196	0x3de6b163	0.112643026
197	0x3d9ec570	0.07752502
198	0x3d81a0ca	0.06329496
199	0x3dacb8c1	0.084336765
200	0x3d5c1a5c	0.053736076
201	0x3d690f88	0.056899577
202	0x3dc3da18	0.095630825
203	0x3ce898f1	0.02839324
204	0x3df51147	0.11966186
205	0x3d6820ef	0.056672033
206	0x3d28cec5	0.041212816
207	0x3cb3750d	0.0219064
208	0xbd9c8e88	-0.07644373
209	0xbdbcf3c8	-0.09226185
210	0x3d7e7379	0.062121842
211	0xbc1ebb22	-0.009688171
212	0xbe5ce2bd	-0.21570869
213	0xbc5ddaa4	-0.0135408975
214	0x3dee26e0	0.116285086
215	0xbd2e92a2	-0.04262031
216	0xbdbf04a0	-0.09327054
217	0xbca23035	-0.019798378
218	0x3d286cc9	0.04111937
219	0x3c0ce652	0.0085998345
220	0x3dad9d1f	0.08477234
221	0xbd61d110	-0.05513102
222	0x3d6dd837	0.058067527
223	0x3d2c476c	0.0420603
224	0x3c87534a	0.016519208
225	0x3db6df27	0.08929282
226	0x3dacdca0	0.084405184
227	0x3e2fa99f	0.17154549
228	0x3e084bbb	0.13310139
229	0x3aef7a75	0.0018270748
230	0xbcd5b5ea	-0.02608772
231	0xbd158f11	-0.036513392
232	0x3e3f5639	0.18685235
233	0x3cd2649c	0.02568274
234	0x3cb8b3f6	0.02254675
235	0x3dbb27e8	0.09138471
236	0x3ce73de3	0.028227752
237	0x3bd57bce	0.006515003
238	0xbd8b4602	-0.06800462
239	0x3d9cc0df	0.07653975
240	0x3d291ec1	0.041289095
241	0x3cfffc49	0.031248229
242	0x3e09f59a	0.13472596
243	0xbd675f4c	-0.056487367
244	0x3d543ca2	0.051815636
245	0x3dcd61ba	0.100284055
246	0xbd8a68f8	-0.067583025
247	0x3dbbb6a9	0.09165699
248	0x3e6b64b1	0.2298763
249	0x3ded9dc6	0.116023585
250	0xbd414e57	-0.04719385
251	0xbd027de8	-0.031858355
252	0xbd56b0e5	-0.052414794
253	0x3d8b1d14	0.067926556
254	0x3d965d13	0.07341971
255	0xbbcd5a36	-0.0062668575

conv2.0.bias f4 [5]
0	0xbc0b870e	-0.008516086
1	0xbdf1c7f3	-0.118057154
2	0xbdf9bfe0	-0.121948004
3	0xbd973981	-0.07384015
4	0xbe5260d7	-0.20544754

conv2.2.weight f4 [5]
0	0x3f97a487	1.1847085
1	0x3f81135a	1.0084031
2	0x3f7999ca	0.9750029
3	0x3f70c50e	0.9405068
4	0x3fb24e28	1.3930101

conv2.2.bias f4 [5]
0	0xbca1693a	-0.019703496
1	0x3ad994b5	0.0016600104
2	0xbce7b5ec	-0.02828499
3	0xbc81bc49	-0.015836852
4	0x3daeaf89	0.085295744

conv2.2.running_mean f4 [5]
0	0x3ee3945b	0.44449124
1	0x3de7652c	0.11298594
2	0x3e912f01	0.28356174
3	0x3ea2012f	0.31641528
4	0x3ccf054c	0.02527108

conv2.2.running_var f4 [5]
0	0x3d76244a	0.0600932
1	0x3e38e274	0.18055135
2	0x3ee23c76	0.44186753
3	0x3e512c13	0.20426969
4	0x3ba0f3c7	0.004911873

fc1.1.weight f4 [2, 130]
0	0xbe0b4fec	-0.13604707
1	0xbe4aaaaa	-0.19791666
2	0xbde95e8e	-0.11394988
3	0xbe52be9e	-0.20580527
4	0xbd82eed4	-0.06393209
5	0xbd82ea29	-0.06392319
6	0xbe11b493	-0.1422904
7	0xbe1f4063	-0.15551905
8	0xbe4e4174	-0.20142156
9	0xbde502e0	-0.11182189
10	0xbe0f3c3d	-0.13987823
11	0xbddde986	-0.10835557
12	0xbe3c368d	-0.18380184
13	0xbe440a1b	-0.1914448
14	0xbdb17ae7	-0.0866602
15	0xbd9c0109	-0.07617385
16	0xbe001671	-0.1250856
17	0xbe05bebb	-0.13061039
18	0xbe0c3b18	-0.13694417
19	0xbe4b9808	-0.19882214
20	0xbe04b7f4	-0.12960798
21	0xbe018b77	-0.12650858
22	0xbe3c6bd0	-0.18400502
23	0xbde6c3ea	-0.112678364
24	0xbe0c0a79	-0.1367587
25	0xbdbb4892	-0.09144701
26	0xbc403005	-0.011730199
27	0x3dfd7e9d	0.12377665
28	0xbcfef946	-0.031124722
29	0x3db8983b	0.09013411
30	0xbde4d653	-0.111736916
31	0xbc6bb7e1	-0.014387102
32	0x3d7a4abe	0.061106436
33	0xbd9e36f8	-0.07725328
34	0x3d997168	0.07492334
35	0xbdab4fcd	-0.0836483
36	0x3db3bb94	0.08776012
37	0x3d899c3b	0.06719252
38	0xbc2675d7	-0.010159931
39	0xbda9cb41	-0.08290721
40	0x3cc0a905	0.023518095
41	0xbbecb6c2	-0.007223935
42	0x3dae6613	0.08515563
43	0xbdc3da04	-0.095630676
44	0x3d41946d	0.04726069
45	0xbd920695	-0.07130162
46	0x3d4757e5	0.048667807
47	0x3d749479	0.059711907
48	0xbdc8cbf4	-0.09804526
49	0x3db767c1	0.08955336
50	0xbe0a628d	-0.13514157
51	0x3c7b2a29	0.015329876
52	0xbdfaf8bc	-0.122544736
53	0xbdb6991a	-0.089159206
54	0xbdee79af	-0.11644303
55	0xbb88faeb	-0.0041803024
56	0xbd94b02e	-0.07260166
57	0xbd4961e0	-0.049165606
58	0xbe28bab0	-0.16477466
59	0x3b20724a	0.0024482184
60	0xbddd0652	-0.10792221
61	0x3d105b44	0.035243288
62	0xbd0dd11e	-0.034623258
63	0xbd54fc8e	-0.051998667
64	0xbdae0c20	-0.084984064
65	0xba60632b	-0.0008559699
66	0x3c9ddbf0	0.019269913
67	0xbd0c59c7	-0.034265306
68	0xbd8bb011	-0.068206914
69	0xbd176822	-0.036964543
70	0xbd4d8528	-0.050175816
71	0xbdfd99d4	-0.12382856
72	0xbcbf7825	-0.023372719
73	0xbccdc61d	-0.025118882
74	0xbd361f95	-0.044463713
75	0xbe1d6ba7	-0.15373097
76	0xbc750edb	-0.014957155
77	0x3ccd5642	0.025065545
78	0xbd6d698b	-0.05796198
79	0xbdaf5eb1	-0.08562983
80	0xbd6e71ef	-0.058214124
81	0x3d6a7a90	0.05724579
82	0xbd493906	-0.049126647
83	0xbe054d24	-0.13017708
84	0xbda29b16	-0.079397365
85	0xbbffa070	-0.007801108
86	0xbd6e4f1c	-0.058180913
87	0xbd964898	-0.07338065
88	0xbc0701da	-0.008240188
89	0xbd78776b	-0.06066076
90	0xbd38f31d	-0.045153726
91	0x3b4cd720	0.0031256154
92	0xbd8bb95e	-0.06822465
93	0xbdc978d9	-0.09837503
94	0xbc606cde	-0.013697831
95	0xbde4a9c2	-0.11165191
96	0x3c9565d9	0.018237041
97	0xbdfd727a	-0.1237535
98	0xbdbbb53e	-0.091654286
99	0xbb60fae6	-0.0034329235
100	0xbc54211f	-0.01294735
101	0xbda09b3e	-0.0784211
102	0xbdb6416f	-0.08899199
103	0xbbae41c6	-0.0053178994
104	0x3dc70a7f	0.09718799
105	0x3df054bb	0.11734911
106	0x3e1ce1bf	0.1532049
107	0x3ddbaa17	0.107258014
108	0x3e29e3c2	0.16590789
109	0x3dd85998	0.10563964
110	0x3e5431c9	0.20722117
111	0x3e00d037	0.12579428
112	0x3e5eb9c4	0.21750551
113	0x3e1c7280	0.15278053
114	0x3d88cef2	0.06680097
115	0x3e02843a	0.12745753
116	0x3dff84aa	0.124764755
117	0x3e0e6fca	0.13909832
118	0x3e091d4d	0.13390084
119	0x3d595f9a	0.05306969
120	0x3e19f11d	0.15033384
121	0x3df1df7c	0.118102044
122	0x3e3fbc39	0.18724145
123	0x3dd4182c	0.10356173
124	0x3deaf3d3	0.11472287
125	0x3e00daa9	0.12583412
126	0x3e294120	0.1652875
127	0x3e6d8dcb	0.23198621
128	0x3df6bbe8	0.12047559
129	0x3db4ceb6	0.088284895
130	0x3d97a5ca	0.07404669
131	0x3e2ce7ab	0.1688525
132	0x3e11827c	0.14209932
133	0x3d8b4ffb	0.068023644
134	0x3e393b51	0.18089034
135	0x3e4f3f30	0.20238948
136	0x3e08a9dd	0.13346048
137	0x3dbb0dfd	0.091335274
138	0x3e01237a	0.1261119
139	0x3dff3144	0.124605685
140	0x3dc889fa	0.09791942
141	0x3e2cea96	0.16886362
142	0x3db9d278	0.09073347
143	0x3e14615b	0.14490263
144	0x3e047d48	0.12938416
145	0x3e3c1387	0.18366824
146	0x3e49e26f	0.19715284
147	0x3e1701b3	0.14746742
148	0x3e2487d6	0.16067442
149	0x3daf9039	0.0857243
150	0x3e321dc6	0.1739417
151	0x3de4beac	0.1116918
152	0x3d530b11	0.051524226
153	0x3e3889b5	0.18021281
154	0x3e3805a9	0.17970909
155	0x3e09e7f6	0.13467392
156	0xbc28108d	-0.010257852
157	0xbda2a2ca	-0.07941206
158	0x3d783dc6	0.060605787
159	0x3d613a0c	0.054987
160	0x3debd1a8	0.11514598
161	0x3c65de30	0.014030024
162	0xbd3c012b	-0.04589955
163	0xbc7a7b40	-0.015288174
164	0xbd7bab81	-0.061442856
165	0x3d56c263	0.052431475
166	0xbcfe677a	-0.0310552
167	0xbd5f5928	-0.054528385
168	0xbc832da4	-0.016012974
169	0xbd6272ee	-0.055285387
170	0x3d1b60f6	0.037934266
171	0xbd70399c	-0.05864869
172	0xbe037141	-0.12836172
173	0x3d3449dd	0.044015754
174	0xbd25a9d7	-0.040445175
175	0x3e2304e8	0.1591984
176	0x3d607a61	0.05480421
177	0xbc34e847	-0.011041707
178	0xbc999268	-0.01874657
179	0xbd819e18	-0.06328982
180	0x3bc36529	0.005962987
181	0xbd23ecd1	-0.040020768
182	0x3dd0a0bf	0.1018691
183	0x3da1f104	0.07907298
184	0x3d566b07	0.052348163
185	0x3dedac3f	0.11605119
186	0x3db22083	0.08697607
187	0xbbf503e2	-0.0074772695
188	0x3d8cb4c9	0.068704195
189	0x3e082aa5	0.13297518
190	0x3d1193df	0.03554141
191	0x3d804f4f	0.06265127
192	0x3d9d1da9	0.07671673
193	0x3d9b5768	0.07585031
194	0x3dad9541	0.084757335
195	0x3d659105	0.056046505
196	0x3dae9043	0.085236095
197	0x3dd7f517	0.10544794
198	0x3d9cb92f	0.076525085
199	0x3db4d991	0.0883056
200	0x3df2af01	0.118497856
201	0x3d5e299f	0.05423891
202	0x3ce1b501	0.02755213
203	0x3e2f6eb8	0.1713208
204	0x3dd43dca	0.10363348
205	0x3d91eddc	0.07125446
206	0xbca53314	-0.020165958
207	0x3d45d06c	0.04829447
208	0x3e2b0c43	0.16703896
209	0x3e106400	0.14100647
210	0x3defb697	0.11704748
211	0x3ce1962e	0.027537432
212	0x3d0cc226	0.034364842
213	0x3d06279a	0.03275261
214	0x3c9f9cd1	0.019483956
215	0x3db3a830	0.087723136
216	0xbbcf6210	-0.0063288286
217	0x3d965ec0	0.07342291
218	0x3d898911	0.067155965
219	0x3c9a4376	0.018830996
220	0x3d614e36	0.05500623
221	0x3aca1106	0.001541645
222	0x3d837205	0.06418232
223	0x3d0398f6	0.032128297
224	0x3dea67d8	0.11445588
225	0x3c5c234e	0.013436152
226	0xbcb298b3	-0.021801328
227	0x3d1f8acf	0.038950738
228	0x3cc6ed99	0.024283217
229	0x3d3f44ff	0.04669666
230	0x3d19dd25	0.037564415
231	0x3be2257d	0.0069014416
232	0x3dba6100	0.091005325
233	0x3cdb0ccc	0.0267395
234	0xbdd28d42	-0.10280849
235	0xbdc0e921	-0.09419466
236	0xbd2a4698	-0.04157123
237	0xbe29ff64	-0.1660133
238	0xbd8960b6	-0.06707899
239	0xbe39f902	-0.18161395
240	0xbd1fc331	-0.03900451
241	0xbe026860	-0.12735128
242	0xbdc7d57a	-0.09757514
243	0xbdbe95a8	-0.093058884
244	0xbe3d8a69	-0.1850983
245	0xbe0d8b0d	-0.13822575
246	0xbe0df453	-0.13862734
247	0xbe37c9db	-0.17948096
248	0xbde7c522	-0.11316897
249	0xbe485d28	-0.19566786
250	0xbe04096c	-0.12894219
251	0xbdf5d135	-0.12002794
252	0xbdf29bb8	-0.11846107
253	0xbe231ebc	-0.15929693
254	0xbe1a1751	-0.15047957
255	0xbe0e8db2	-0.1392124

fc1.1.bias f4 [2]
0	0x3b066761	0.0020508396
1	0x3c983621	0.018580498
