saved_models/model_5.onnx (onnx, 29453 bytes, 14 tensors)

conv1.0.weight f4 [5, 1, 64]
-0.028755493 0.12572172 0.055132993 0.0743235 -0.033343427 0.015922396 -0.046414215 0.0703987
-0.10851832 0.100586444 -0.055643197 -0.011274659 0.06252961 0.14219777 0.22869393 0.13997084
0.0069003776 -0.009308861 -0.052935176 -0.12065445 0.11603861 -0.08391937 0.06047493 -0.08540725
0.09680018 0.049753606 -0.06693937 0.021108115 0.007435542 -0.060209893 0.022137959 -0.084949814
0.0020518377 0.00022460199 -0.08181537 0.011920983 0.078074984 0.027741883 0.043873265 0.027993029
0.19258063 0.045491174 -0.014571429 0.018648973 -0.0021668407 -0.12619469 -0.20571734 -0.07204238
-0.012543223 -0.0068955948 -0.01783475 0.15242279 0.1371043 0.13307412 0.23148297 0.14688219
0.08391114 -0.026430482 -0.14361747 0.015674347 -0.1296796 0.07410615 0.0072411345 0.032744136
0.16264945 0.10044018 0.07786516 0.055414386 -0.02980263 -0.073257156 -0.07002072 0.019828977
-0.07549544 0.007123437 -0.089935005 -0.10546247 -0.039910175 -0.024352318 -0.061018337 -0.010090062
0.045017477 0.046282064 0.14336452 0.18160494 0.2239321 0.06974553 0.08133019 -0.009548367
-0.12385606 -0.1952666 -0.29921216 -0.19764666 -0.102575555 -0.032180388 0.065086186 0.14525375
0.17544958 0.25286207 0.2060737 0.11604239 -0.011743906 -0.1543701 -0.17939636 -0.1691183
-0.11284694 -0.10305498 -0.027316337 0.05168699 0.14119786 0.1666333 0.08313908 0.002900014
-0.0656473 -0.041860137 0.08953106 0.15401237 0.09019177 -0.16251089 -0.15990932 -0.074490234
0.0966706 0.12835297 0.16647834 0.08523834 -0.10348914 -0.11320367 -0.1378718 -0.053766057
-0.11649958 -0.0019472978 -0.023274714 0.035701346 0.025879016 -0.067664 -0.0465779 0.12722489
-0.0048357644 0.010602423 0.011257663 -0.011972185 -0.07434044 -0.005357444 -0.026623873 0.036859136
-0.029318525 0.040738575 -0.14370054 -0.15734239 0.0485942 -0.07165127 -0.016553547 0.073764406
-0.031552605 0.12956288 0.20525537 0.027718654 0.15254213 -0.090598315 -0.15947428 -0.04877192
-0.000750836 -0.13708349 0.11916433 0.20579322 0.013140742 -0.01580158 0.108412705 0.10512088
-0.03897835 -0.07583251 -0.0027233008 0.04850163 0.08777744 0.09743316 0.07477411 0.14421256
0.10564493 0.0014923557 -0.04852664 0.06061907 -0.115388386 -0.038550712 -0.0501731 -0.027117407
0.13704388 0.016125876 -0.071959436 0.020888448 -0.025890721 0.028512102 0.026893647 0.10153124
0.02693827 -0.060318798 0.07999523 0.13496597 0.14167061 -0.093265966 0.04859517 -0.16535473
0.08694726 0.13397367 0.026960885 -0.014759757 0.096032135 -0.07696091 0.114920065 -0.004271978
0.14013731 0.017571 -0.0947599 -0.17653616 0.052267257 -0.00057445094 0.11221816 0.0974119
0.044396747 0.09640693 -0.01723039 0.080006756 0.12209406 -0.0054041715 -0.017679919 -0.10466661
-0.14783855 -0.081636995 -0.016568787 -0.042052966 -0.01276473 -0.0068746665 0.1092618 -0.0028971573
-0.084294096 0.092201 0.07123365 0.03793536 -0.047249265 0.014213672 -0.07307313 -0.01370066
0.011954512 0.018690722 0.07689905 0.07460497 0.001216551 0.118645795 0.15293247 0.056537505
0.14690068 -0.09871657 -0.014182386 -0.0068649263 0.019225152 -0.103291556 -0.11153732 0.07309163
00000000: a490 ebbc 32bd 003e 22d3 613d eb36 983d
00000010: 1e93 08bd af6f 823c d51c 3ebd 322d 903d
00000020: da3e debd 4400 ce3d 1fea 63bd 59b9 38bc
00000030: 860f 803d 4b9c 113e be2e 6a3e 8454 0f3e
00000040: 901c e23b 3184 18bc 8ed2 58bd ae19 f7bd
00000050: a7a5 ed3d ebdd abbd 8fb4 773d ffe9 aebd
00000060: 2c3f c63d 70ca 4b3d 8217 89bd edea ac3c
00000070: d9a5 f33b a69e 76bd aa5a b53c 2bfa adbd
00000080: 2078 063b 2383 6b39 d18e a7bd 3a50 433c
00000090: c7e5 9f3d f242 e33c 74b4 333d a351 e53c
000000a0: db33 453e f454 3a3d 01bd 6ebc bbc5 983c
000000b0: 8e01 0ebb 2e39 01be 91a7 52be f58a 93bd
000000c0: 1782 4dbc 71f4 e1bb 2e1a 92bc b814 1c3e
000000d0: 1265 0c3e 9544 083e df09 6d3e 4968 163e
000000e0: 9bd9 ab3d bd84 d8bc 7510 13be 7d67 803c
000000f0: bbca 04be f7c4 973d 0a47 ed3b b71e 063d
00000100: 948d 263e 95b3 cd3d c577 9f3d 32fa 623d
00000110: a524 f4bc d907 96bd 0667 8fbd 6170 a23c
00000120: 5a9d 9abd b86b e93b d82f b8bd b5fc d7bd
00000130: da78 23bd 837e c7bc 5dee 79bd ca50 25bc
00000140: 3f64 383d 4392 3d3d 26ce 123e a5f6 393e
00000150: 754e 653e bfd6 8e3d 7190 a63d c170 1cbc
00000160: 3fa8 fdbd f8f3 47be 5632 99be e363 4abe
00000170: 2213 d2bd 95cf 03bd e84b 853d 66bd 143e
00000180: 0ea9 333e 2377 813e fc04 533e a2a7 ed3d
00000190: 8369 40bc 3213 1ebe aeb3 37be 592d 2dbe
000001a0: 4c1c e7bd 7d0e d3bd 83c6 dfbc bdb5 533d
000001b0: 2c96 103e eba1 2a3e d244 aa3d 290e 3e3b
000001c0: 1772 86bd 8975 2bbd 0f5c b73d 6bb5 1d3e
000001d0: 76b6 b83d 4169 26be 45bf 23be 568e 98bd
000001e0: 3cfb c53d f66e 033e 4c79 2a3e 7091 ae3d
000001f0: 1df2 d3bd 53d7 e7bd 442e 0dbe cc39 5cbd
00000200: 5597 eebd 793c ffba 9daa bebc 933b 123d
00000210: 3b00 d43c 6c93 8abd 78c8 3ebd 3e47 023e
00000220: 5575 9ebb c9b5 2d3c 1072 383c fc26 44bc
00000230: cd3f 98bd 7f8d afbb 4f1a dabc 9bf9 163d
00000240: 672d f0bc 7edd 263d 3c26 13be 5d1e 21be
00000250: b60a 473d e7bd 92bd 4e9b 87bc cb11 973d
00000260: 4e3d 01bd 22ac 043e 772e 523e 3b12 e33c
00000270: 0134 1c3e 9c8b b9bd 3a4d 23be 11c5 47bd
00000280: c0d3 44ba 9d5f 0cbe 6e0c f43d 75bb 523e
00000290: 444c 573c 5172 81bc 7b07 de3d 9e49 d73d
000002a0: c3a7 1fbd 134e 9bbd 6879 32bb a5a9 463d
000002b0: a9c4 b33d 098b c73d 2b23 993d 75ac 133e
000002c0: 5e5c d83d 269b c33a dfc3 46bd b44b 783d
000002d0: bf50 ecbd 5ae7 1dbd 4f82 4dbd 5325 debc
000002e0: 3b55 0c3e 6a1a 843c 785f 93bd 401e ab3c
000002f0: c718 d4bc 3692 e93c 1150 dc3c 9cef cf3d
00000300: a6ad dc3c d810 77bd 8ad4 a33d 8534 0a3e
00000310: 1a12 113e 3a02 bfbd bb0b 473d c052 29be
00000320: 6811 b23d 6530 093e 13dd dc3c e8d2 71bc
00000330: 7fac c43d ae9d 9dbd 365b eb3d f3fb 8bbb
00000340: 2880 0f3e 0ff1 8f3c 7a11 c2bd e5c5 34be
00000350: 3116 563d c096 16ba a2d2 e53d e47f c73d
00000360: 5dd9 353d ff70 c53d bf26 8dbc 95da a33d
00000370: 730c fa3d 7a15 b1bb 7ad5 90bc 735b d6bd
00000380: fd62 17be 4c31 a7bd 44bb 87bc bb3f 2cbd
00000390: 2823 51bc e244 e1bb a7c4 df3d 3cde 3dbb
000003a0: 62a2 acbd e1d3 bc3d f3e2 913d 1c62 1b3d
000003b0: 7288 41bd 76e0 683c 5da7 95bd bc78 60bc
000003c0: dcdc 433c 491d 993c 407d 9d3d 7eca 983d
000003d0: ae74 9f3a 91fc f23d 549a 1c3e df93 673d
000003e0: 226d 163e ea2b cabd 3d5d 68bc 2df3 e0bb
000003f0: 117e 9d3c 868a d3bd ae6d e4bd 11b1 953d

conv1.0.bias f4 [5]
0.12662321 -0.002968055 0.10633758 -0.15957871 0.16606289
00000000: 84a9 013e b383 42bb 84c7 d93d 9a68 23be
00000010: 640c 2a3e

conv1.2.weight f4 [5]
0.9408681 1.1217356 0.8673715 0.92833287 0.9792313
00000000: bbdc 703f 0895 8f3f 0f0c 5e3f 39a7 6d3f
00000010: e7ae 7a3f

conv1.2.bias f4 [5]
0.07262124 0.12147676 0.08394098 0.09469785 0.045511436
00000000: 72ba 943d cfc8 f83d 40e9 ab3d f2f0 c13d
00000010: 336a 3a3d

conv1.2.running_mean f4 [5]
0.13639668 0.1047872 0.12058174 0.011686735 0.17771925
00000000: 92ab 0b3e ac9a d63d 8ff3 f63d b879 3f3c
00000010: 09fc 353e

conv1.2.running_var f4 [5]
0.027842533 0.05804561 0.01756753 0.0029009995 0.038889516
00000000: 0616 e43c 3cc1 6d3d c8e9 8f3c b21e 3e3b
00000010: 9d4a 1f3d

conv2.0.weight f4 [5, 5, 16]
-0.03808543 -0.0717096 0.0441571 0.007306821 0.041999705 -0.05391446 -0.08092435 -0.07407251
-0.029466517 -0.06749768 0.031877566 -0.036261305 0.03591043 -0.12026518 -0.124131806 0.007311469
0.09614328 0.15639755 0.026893066 0.025128538 0.04370711 0.02646725 0.13546236 -0.0047990894
0.07452606 0.099011555 0.1305836 0.13085915 0.030344235 0.06137656 0.067825496 0.005169194
0.10997329 0.017449666 0.17893015 -0.07060899 -0.09425487 0.075705335 -0.06030389 -0.069421165
0.020166438 -0.004602348 0.012633716 -0.10168604 -0.056355808 -0.04165787 -0.08813403 0.01917065
0.040057253 0.03251429 0.052835226 0.03631514 -0.031193577 0.022701496 -0.029864958 -0.013898795
-0.039661497 0.05594557 -0.052819833 -0.047868326 0.018201763 0.11235302 0.12161771 7.0643815e-05
-0.0865167 -0.11139462 -0.087617554 -0.08883598 0.06141196 -0.054308597 0.05021144 -0.05204261
0.0011359659 0.043766093 -0.0597228 0.024129275 0.004134376 0.033436768 -0.057501733 -0.02713218
0.022525195 0.09885891 0.046575516 0.08810138 -0.025981545 0.018670453 0.030139245 -0.021604354
0.0097227 -0.024746913 -0.10754515 -0.120589145 -0.0026751217 -0.031490937 -0.010043765 0.049956415
-0.16169655 -0.13275748 -0.1717824 -0.2386153 -0.19616744 -0.13046102 -0.124694854 -0.06839132
0.061753165 0.04787357 0.06418906 0.056088675 0.11123778 0.07736449 0.030464085 0.10688198
-0.028071607 0.020095775 0.008016692 0.0668479 -0.06391062 -0.07739012 -0.0035101222 0.008668118
0.14738408 0.01429971 -0.047965173 0.0030566424 -0.05427892 -0.032226447 0.048468266 -0.06473328
-0.02159616 0.011573972 0.02342961 0.058423992 0.049957078 -0.0208125 0.02589704 -0.10100042
-0.07621447 -0.05646715 -0.06637235 -0.062237713 0.039620094 -0.03354716 0.06159148 0.056241162
0.11765975 0.0798783 0.08991489 0.012091574 -0.054132976 -0.013506922 -0.02708787 -0.019473683
0.060118053 -0.06041185 -0.06930236 -0.043160032 0.01623868 0.023835996 -0.07614837 -0.0018962193
0.038398862 -0.02205621 0.029330594 -0.058570653 -0.01845501 -0.03432571 -0.04253256 -0.04316868
0.07729286 -0.110959545 -0.008417081 -0.077550605 0.074622765 -0.004069386 0.056512114 -0.046940908
0.07577122 0.056475654 -0.050272267 0.0006851676 0.01822188 0.06484778 0.11516512 0.092520125
0.046246137 0.08317075 -0.02076146 0.083183825 0.1013362 0.0866199 0.093223415 0.05525237
0.011778888 0.013200568 -0.046541307 0.114093386 0.12354579 -0.083882794 -0.011525485 0.12378498
0.08115511 0.07982341 0.0076374225 0.04405863 -0.016480489 0.14707859 -0.013406718 -0.007917923
0.053957783 0.16342649 0.11709307 0.19770534 0.10552031 0.15806197 0.19699168 0.106821746
0.16583458 0.053645957 0.14300236 0.117264 0.030232567 0.104021706 0.16521564 0.019314492
0.08696904 -0.07679255 0.13231927 0.03990093 -0.07189383 0.00045919657 -0.05941108 0.004287184
0.050919015 0.08499162 0.036760435 0.06461002 -0.02678804 -0.027281707 0.14323907 0.015097512
-0.10543178 -0.062408585 0.06863978 -0.07043327 -0.046287354 0.046286874 -0.036112428 0.08523086
0.018296167 0.04664352 -0.023870563 -0.009497119 0.12153469 0.01996961 0.086504966 0.002622822
00000000: 78ff 1bbd 7cdc 92bd 13de 343d 0f6e ef3b
00000010: e207 2c3d 69d5 5cbd aabb a5bd 54b3 97bd
00000020: c463 f1bc 393c 8abd 0d92 023d bc86 14bd
00000030: d116 133d 974d f6bd d138 febd 0c95 ef3b
00000040: c5e6 c43d ae26 203e d94e dc3c 5dda cd3c
00000050: 3a06 333d d9d1 d83c a5b6 0a3e ae41 9dbb
00000060: 1ea1 983d 92c6 ca3d b5b7 053e f1ff 053e
00000070: 7994 f83c fd65 7b3d 18e8 8a3d 5862 a93b
00000080: ad39 e13d 9af2 8e3c 7739 373e 729b 90bd
00000090: b308 c1bd 660b 9b3d 3601 77bd af2c 8ebd
000000a0: 1634 a53c 4bcf 96bb a5fd 4e3c c540 d0bd
000000b0: 59d5 66bd 71a1 2abd 9d7f b4bd c40b 9d3c
000000c0: 1313 243d b42d 053d c069 583d 2fbf 143d
000000d0: ac89 ffbc 7df8 b93c 5ba7 f4bc c5b7 63bc
000000e0: 1874 22bd 2f27 653d 9c59 58bd 9411 44bd
000000f0: dd1b 953c 5719 e63d b512 f93d 9c26 9438
00000100: ab2f b1bd dd22 e4bd d570 b3bd a3ef b5bd
00000110: 1b8b 7b3d b172 5ebd 83aa 4d3d a22a 55bd
00000120: b1e4 943a 1344 333d e59f 74bd c2aa c53c
00000130: a979 873b fef4 083d f086 6bbd 4e44 debc
00000140: c286 b83c 8a76 ca3d f8c5 3e3d 7f6e b43d
00000150: 40d7 d4bc c7f2 983c 94e6 f63c 9dfb b0bc
00000160: f64b 1f3c 0aba cabc a240 dcbd 71f7 f6bd
00000170: 1851 2fbb a4fc 00bd 9b8e 24bc 199f 4c3d
00000180: c893 25be 94f1 07be bae7 2fbe 9257 74be
00000190: 1ee0 48be 9397 05be 0460 ffbd c010 8cbd
000001a0: e3f0 7c3d 1417 443d 8e75 833d 3dbd 653d
000001b0: a2d0 e33d 4671 9e3d d18f f93c f1e4 da3d
000001c0: 6df6 e5bc e59f a43c 7158 033c 8de7 883d
000001d0: 92e3 82bd b67e 9ebd 140a 66bb b904 0e3c
000001e0: daeb 163e 5549 6a3c 2177 44bd f351 483b
000001f0: 9353 5ebd e1ff 03bd a986 463d e292 84bd
00000200: 6eea b0bc c2a0 3d3c 74ef bf3c ff4d 6f3d
00000210: cb9f 4c3d fa7e aabc 0726 d43c 4fd9 cebd
00000220: 5516 9cbd 194a 67bd 3aee 87bd f9ec 7ebd
00000230: ae48 223d bf68 09bd 5947 7c3d 225d 663d
00000240: 98f7 f03d 3c97 a33d 4c25 b83d bd1b 463c
00000250: 8aba 5dbd 234c 5dbc 61e7 ddbc 4687 9fbc
00000260: 593e 763d 6b72 77bd 65ee 8dbd 93c8 30bd
00000270: fb06 853c b543 c33c adf3 9bbd 908a f8ba
00000280: 2048 1d3d 3aaf b4bc b746 f03c c8e7 6fbd
00000290: f62e 97bc 1e99 0cbd 9f36 2ebd a4d1 30bd
000002a0: b84b 9e3d c23e e3bd cce7 09bc dad2 9ebd
000002b0: d2d3 983d 7c58 85bb 3f79 673d 1c45 40bd
000002c0: f12d 9b3d 0453 673d 4bea 4dbd d29c 333a
000002d0: 0d46 953c eace 843d b1db eb3d 317b bd3d
000002e0: 976c 3d3d 6d55 aa3d f013 aabc 485c aa3d
000002f0: 5b89 cf3d c665 b13d ebeb be3d 4f50 623d
00000300: 3dfc 403c 3247 583c 19a2 3ebd cba9 e93d
00000310: 9305 fd3d beca abbd 63d5 3cbc fb82 fd3d
00000320: a634 a63d 757a a33d 5843 fa3b d276 343d
00000330: 1702 87bc c59b 163e daa7 5bbc 2dba 01bc
00000340: d602 5d3d 4659 273e 7ece ef3d 4573 4a3e
00000350: 081b d83d ffda 213e 30b8 493e 5cc5 da3d
00000360: 8ad0 293e ddbb 5b3d 366f 123e 1c28 f03d
00000370: 4aaa f73c 5509 d53d 4a2e 293e 6d39 9e3c
00000380: d31c b23d 6a45 9dbd b47e 073e 286f 233d
00000390: 133d 93bd 52c0 f039 0859 73bd 827b 8c3b
000003a0: 7590 503d 1610 ae3d 1c92 163d 4252 843d
000003b0: 9772 dbbc e37d dfbc 43ad 123e 8e5b 773c
000003c0: 9eec d7bd 25a0 7fbd 0393 8c3d 513f 90bd
000003d0: cf97 3dbd 4e97 3d3d a0ea 13bd 848d ae3d
000003e0: d8e1 953c 470d 3f3d 338c c3bc ce99 1bbc
000003f0: 2ee7 f83d 4f97 a33c 8429 b13d a7e3 2b3b

conv2.0.bias f4 [5]
0.017028993 -0.2083211 -0.29582345 -0.08690299 -0.020841755
00000000: 6380 8b3c 2052 55be 2c76 97be 32fa b1bd
00000010: 54bc aabc

conv2.2.weight f4 [5]
0.86481875 1.2915136 0.9298111 0.8395441 0.8145774
00000000: c364 5d3f 5150 a53f 1a08 6e3f 5dec 563f
00000010: 2588 503f

conv2.2.bias f4 [5]
0.010960659 0.05770044 0.02599329 0.030235201 0.044933457
00000000: 5694 333c 4c57 6c3d e1ef d43c d0af f73c
00000010: 250c 383d

conv2.2.running_mean f4 [5]
0.19294511 0.026546255 0.22975872 0.1717897 0.23495676
00000000: 6793 453e 8877 d93c df45 6b3e a4e9 2f3e
00000010: 8198 703e

conv2.2.running_var f4 [5]
0.20321925 0.0031022895 0.365 0.19782105 0.31677416
00000000: b518 503e c84f 4b3b 48e1 ba3e 9a91 4a3e
00000010: 3930 a23e

fc1.1.weight f4 [2, 520]
0.007412162 -0.035618212 -0.009161326 -0.009775254 -0.009214223 0.010170702 0.018390313 -0.019700328
0.027063506 -0.004854208 -0.035122313 -0.0011381938 0.019830143 0.029023746 -0.009761645 -0.002946097
0.0064510936 0.015628332 -0.003748937 -0.034277894 0.0021224748 0.031225432 0.0027848072 -0.035501573
0.006325184 0.015234835 -0.004491941 0.03218253 0.032480877 0.023439482 -0.03755263 0.006018628
0.026422435 0.0030771017 -0.009448253 0.005719759 0.02672096 0.03258259 0.020605389 -0.014306819
-0.00900587 -0.022192935 0.01320274 0.037246425 0.014575677 0.009808662 -0.038799945 0.025619531
-0.002355183 0.007109393 -0.03935986 0.0252694 0.0014388482 -0.019642584 -0.024522722 -0.018697038
-0.01712479 0.0127364 0.017372407 0.0065464927 -0.054715037 -0.036539994 -0.018682767 -6.1251725e-05
-0.0051184837 0.012181946 0.046227634 -0.036603402 -0.02776807 0.012563812 0.022466557 -0.049792007
0.04772205 -0.0052427812 0.0040739384 -0.06301403 -0.03399815 -0.017649306 0.03921366 -0.016590413
0.021080399 0.01742192 -0.026177723 0.0025679749 -0.052616354 -0.028132483 -0.021108052 0.010011984
0.032423206 0.0033068534 -0.050854117 -0.008529336 0.011458775 -0.013761647 -0.011174633 0.02812629
0.018392885 -0.031979725 -0.0038928895 -0.054411963 -0.037100222 0.0052089784 -0.0381484 -0.002621105
0.047633898 0.085594475 0.061019417 0.07207088 0.067138515 0.051833905 0.092372 0.07253074
0.07632927 0.039611895 0.05477653 0.11558295 0.07121582 0.07172876 0.061834093 0.10834226
0.067249246 0.04196482 0.07339533 0.059027378 0.09235592 0.087497324 0.051425047 0.103111155
0.036338188 0.052107017 0.06572058 0.03404205 0.078485444 0.08548062 0.084329195 0.05042301
0.06857422 0.053863306 0.065245084 0.054853495 0.07808024 0.0548457 0.090900816 0.040428635
0.07351744 0.074074544 0.06967764 0.0750869 0.116971515 0.09660335 0.09825237 0.10717256
0.067477405 0.10252362 0.053489096 0.07363094 0.061863307 0.08554564 0.04423325 0.041047346
0.09555938 0.07984608 0.07615709 0.08983102 0.053942814 0.05564475 0.0770133 0.08773103
0.08642117 0.0785995 0.06610841 0.08591535 0.046784528 0.037996087 0.05543197 0.059785917
0.0625312 0.07471806 0.07169418 0.06542013 0.038182884 0.050603118 0.084451824 0.11508116
0.07557221 0.07571322 0.07997286 0.09302469 0.08055171 0.06982774 0.038950343 0.0657818
0.07071914 0.095353246 0.047993463 0.045159675 0.051735952 0.07809466 0.079370975 0.068001695
0.06654763 0.034731217 0.023724012 0.052846253 0.06996805 0.06562953 0.04879915 0.12941834
0.036046557 -0.023560684 -0.02512131 -0.05258269 0.029627044 0.009879777 -0.031032631 0.011358267
-0.011877668 -0.022683293 0.011107131 0.020677676 -0.06949974 -0.054800767 0.0024585945 -0.013378777
-0.019502982 -0.034823105 -0.036696576 -0.02117119 -0.044783942 -0.025992025 -0.00043915506 0.005660395
-0.025861446 -0.031443972 -0.014968246 0.0064897845 -0.001378378 0.016130427 0.016661726 -0.017569102
-0.021939093 -0.0075567705 -0.044082787 -0.02222807 -0.0537251 0.036018636 -0.0012303289 -0.014750345
-0.0480015 -0.016006816 -0.018906062 -0.03330767 -0.04650412 -0.015179707 -0.01730438 -0.025319366
00000000: b9e1 f23b 67e4 11bd 6319 16bc 6328 20bc
00000010: 41f7 16bc 04a3 263c 48a7 963c 9562 a1bc
00000020: 49b4 dd3c 0c10 9fbb 6adc 0fbd 722f 95ba
00000030: d372 a23c 35c3 ed3c 4fef 1fbc 4e13 41bb
00000040: b263 d33b fd06 803c bab0 75bb fa66 0cbd
00000050: 3819 0b3b 7acc ff3c 5081 363b 196a 11bd
00000060: 7d43 cf3b 889b 793c 2231 93bb d4d1 033d
00000070: ab0a 053d 2804 c03c c9d0 19bd e937 c53b
00000080: dd73 d83c 33a9 493b d8cc 1abc d16c bb3b
00000090: eae5 da3c 5275 053d a2cc a83c 2667 6abc
000000a0: 5b8d 13bc f5cd b5bc 4e50 583c b58f 183d
000000b0: d2ce 6e3c 83b4 203c b1ec 1ebd 0de0 d13c
000000c0: 6a59 1abb e9f5 e83b ce37 21bd c601 cf3c
000000d0: bc97 bc3a 7ce9 a0bc e0e3 c8bc 882a 99bc
000000e0: 4a49 8cbc 55ac 503c 9450 8e3c f683 d63b
000000f0: e01c 60bd f6aa 15bd 9a0c 99bc 4574 80b8
00000100: f4b8 a7bb c996 473c 3059 3d3d 73ed 15bd
00000110: dd79 e3bc 72d8 4d3c c90b b83c b4f2 4bbd
00000120: 3278 433d a3cb abbb ac7e 853b 800d 81bd
00000130: a541 0bbd 4795 90bc 819e 203d 9ee8 87bc
00000140: cdb0 ac3c 6ab8 8e3c aa72 d6bc 784b 283b
00000150: 3f84 57bd 1876 e6bc cbea acbc 4e09 243c
00000160: 32ce 043d cbb7 583b 684c 50bd a1be 0bbc
00000170: 96bd 3b3c 8878 61bc cf15 37bc 1b69 e63c
00000180: adac 963c 2cfd 02bd d91f 7fbb 14df 5ebd
00000190: 67f6 17bd 14b0 aa3b 7f41 1cbd d8c6 2bbb
000001a0: c31b 433d 284c af3d 7fef 793d e699 933d
000001b0: eb7f 893d ca4f 543d 882d bd3d ff8a 943d
000001c0: 8552 9c3d 1540 223d 5b5d 603d c1b6 ec3d
000001d0: 9ad9 913d 87e6 923d bf45 7d3d 8ce2 dd3d
000001e0: f9b9 893d 4ee3 2b3d 4a50 963d b1c6 713d
000001f0: 1a25 bd3d cc31 b33d 12a3 523d f12b d33d
00000200: 5ad7 143d 2b6e 553d 8398 863d ad6f 0b3d
00000210: fabc a03d 7710 af3d c9b4 ac3d 5c88 4e3d
00000220: a470 8c3d c59f 5c3d 379f 853d 0fae 603d
00000230: 88e8 9f3d e2a5 603d 352a ba3d 7f98 253d
00000240: 5090 963d 65b4 973d 27b3 8e3d 29c7 993d
00000250: c38e ef3d fad7 c53d 8a38 c93d 4a7d db3d
00000260: 9831 8a3d e7f7 d13d 6217 5b3d d1cb 963d
00000270: 6164 7d3d 8d32 af3d ed2d 353d 4321 283d
00000280: a3b4 c33d 5786 a33d 40f8 9b3d 53f9 b73d
00000290: 24f3 5c3d c0eb 633d 26b9 9d3d 54ac b33d
000002a0: 95fd b03d c6f8 a03d d963 873d 63f4 af3d
000002b0: 22a1 3f3d c9a1 1b3d a20c 633d 14e2 743d
000002c0: 5c10 803d c805 993d 66d4 923d fdfa 853d
000002d0: a865 1c3d 3745 4f3d 14f5 ac3d acaf eb3d
000002e0: 9ac5 9a3d 880f 9b3d d0c8 a33d bb83 be3d
000002f0: 4cf8 a43d d901 8f3d 658a 1f3d 9cb8 863d
00000300: 32d5 903d 9048 c33d cb94 443d 5af9 383d
00000310: 14e9 533d 18f0 9f3d 408d a23d 7944 8b3d
00000320: 204a 883d 5242 0e3d dc58 c23c 5075 583d
00000330: 694b 8f3d c668 863d 9ee1 473d 3e86 043e
00000340: 8ea5 133d 5602 c1bc 35cb cdbc f260 57bd
00000350: 6ab4 f23c cade 213c 2538 febc 0618 3a3c
00000360: 8d9a 42bc 50d2 b9bc affa 353c 3b64 a93c
00000370: e155 8ebd c576 60bd 5f20 213b a832 5bbc
00000380: b8c4 9fbc aca2 0ebd 264f 16bd 346f adbc
00000390: 5e6f 37bd 3aed d4bc 653e e6b9 d67a b93b
000003a0: 62db d3bc 65cb 00bd 603d 75bc 42a8 d43b
000003b0: b1aa b4ba f523 843c 2c7e 883c 14ed 8fbc
000003c0: 9db9 b3bc c99e f7bb 2790 34bd a417 b6bc
000003d0: da0e 5cbd 4788 133d fd42 a1ba 6eab 71bc
000003e0: 399d 44bd ba20 83bc e3e0 9abc a06d 08bd
000003f0: 1b7b 3ebd 4eb4 78bc eac1 8dbc 8f6a cfbc

fc1.1.bias f4 [2]
0.020700596 0.016139634
00000000: 4c94 a93c 4437 843c
