saved_models/model_1.onnx (onnx, 29210 bytes, 14 tensors)

conv1.0.weight f4 [3, 1, 15, 1]
00000000: 5a90 473e 40eb 473e 074f 073d 5b0d a5bd
00000010: 2bec 98bd e103 fc3a 33f6 44be fdb9 a9bd
00000020: bfe3 a53c 6338 5abe 4da5 46be 41f5 3e3e
00000030: d2e5 4c3e dfda f43c 28c3 393e 4b5e 85be
00000040: db19 3fbc ef92 84ba 3663 2d3e 9b71 833e
00000050: 639b a23e 609f b8bd e77f 893d f81c 5dbe
00000060: 7fa2 69be 4033 87be b992 173c 512e 8e3e
00000070: c3fe b83e e872 783e df84 4fbd e6a5 63bc
00000080: 4ba3 c83d 9159 413e 7300 20bd b654 683e
00000090: f018 c0bd 18df 993d a825 633e 9499 2d3e
000000a0: 10b2 fbbd bfaa 813e 9edd 5e3d 44ca 193b
000000b0: f6ed 5b3d
0.1948866 0.19523335 0.03303435 -0.08059188 -0.074669205 0.001922723 -0.19234543 -0.082874276
0.0202502 -0.21310572 -0.19398995 0.18648244 0.20009544 0.029889522 0.18140852 -0.26048502
-0.011663879 -0.001011459 0.16932377 0.25672612 0.31759176 -0.09014773 0.067138486 -0.21593082
-0.22815894 -0.26406288 0.00925129 0.27769712 0.36131868 0.24262583 -0.050663825 -0.013894534
0.09796771 0.18881823 -0.03906293 0.22688565 -0.093797565 0.07513255 0.22182333 0.16953117
-0.12289822 0.2532558 0.05441057 0.0023466507 0.053693734

conv1.0.bias f4 [3]
00000000: 3e9c b73c 3650 fbbc 9159 0abc
0.02241337 -0.030677896 -0.008444206

conv1.2.weight f4 [3]
00000000: 0e99 763f 0ce7 843f 9708 743f
0.9632729 1.038301 0.9532561

conv1.2.bias f4 [3]
00000000: a8b6 63bb ac74 193c 747c 15bd
-0.0034746323 0.009366196 -0.03649564

conv1.2.running_mean f4 [3]
00000000: 67ec 273d 29f2 923c 0eca 443b
0.040996935 0.017937737 0.003002766

conv1.2.running_var f4 [3]
00000000: ac65 c73b a9ee e53b 36bb ac39
0.0060851183 0.007016976 0.0003294588

conv2.0.weight f4 [3, 3, 7, 1]
00000000: 5655 0a3c be57 d9bd fb60 3dbd 606a e6bd
00000010: 69a2 07be f3f7 103e cd45 4f3b bae1 ddbd
00000020: ac4b bdbd 3b73 a73d 0770 2e3e 24d4 843b
00000030: ee75 d6bd 376f 3bbe 27db fabd 84a0 1a3e
00000040: f3b9 363e f973 413e f8f1 48be 73d0 843d
00000050: 7e4d 48be 448d 513e 2d86 c1bd f6eb cebd
00000060: 9104 223e b1e6 16be c05a ddbc ff49 24be
00000070: aaf7 50be 5712 47be 2c76 84bd afcc 2dbe
00000080: e218 58be 4d99 ea3c eb0c 89bd 1cf5 a93d
00000090: 6cbc 013e 03c1 99bd 0419 b33d 6a28 8cbd
000000a0: fb1e 243e ab6b 993c 9f6e 593d e85a 32be
000000b0: a7ed 35be e0a4 723d 36b6 283d 013b aabc
000000c0: 4061 b5bd 41b4 04be 73e8 453d 8c6f e4bc
000000d0: 5b84 50be 2e64 2bbe 6a82 81be 51a3 acbd
000000e0: 414b c1bd 4175 7fbb 665f ae3b 04c7 80bc
000000f0: 6ce3 853c 9f82 5a3d 2507 173e
0.008443197 -0.106124386 -0.046235066 -0.11250758 -0.13245548 0.14157085 0.0031627298 -0.108340696
-0.09242949 0.08176275 0.17034923 0.0040536094 -0.10471712 -0.18304144 -0.12248831 0.15100294
0.17844371 0.18891896 -0.19623554 0.06485071 -0.19560811 0.20464045 -0.0944942 -0.101036
0.15822054 -0.1473644 -0.027020812 -0.16043852 -0.20406976 -0.1944059 -0.06467852 -0.16972612
-0.21103242 0.028637553 -0.06691917 0.08298704 0.12669533 -0.07507517 0.08745006 -0.06843646
0.16027443 0.018728098 0.053084012 -0.1741749 -0.17766438 0.05923927 0.041189395 -0.020780088
-0.088564396 -0.12959386 0.048317384 -0.027885221 -0.2036299 -0.16737434 -0.2529481 -0.08429588
-0.09438182 -0.00389798 0.005321431 -0.015719898 0.016343795 0.053347226 0.14748819

conv2.0.bias f4 [3]
00000000: c71e 5c3e 2796 a33c 1871 403e
0.21496116 0.01996906 0.18793142

conv2.2.weight f4 [3]
00000000: 6ffb 6c3f 527c 803f 4074 7c3f
0.9257116 1.003794 0.98614883

conv2.2.bias f4 [3]
00000000: 8be4 873c a31b 62bc 5c58 8ebc
0.01658847 -0.013800534 -0.017376117

conv2.2.running_mean f4 [3]
00000000: f69c 9c3e dc4b 113e 8e2a b83e
0.30588502 0.14189094 0.35969967

conv2.2.running_var f4 [3]
00000000: 82d2 0f3e 1e0f f13c 1098 213d
0.14045146 0.029426154 0.03945166

fc1.2.weight f4 [2, 918]
00000000: afa4 433c 2957 edbc 0fb6 92bc bd92 8f3b
00000010: 70ce a23c 8f5d ad3c da70 473c 624e 4fbc
00000020: f135 5cbc cb47 89bc 11f4 10bd 25e0 883c
00000030: fe07 4ebc 4f49 163b face 1dbc 702c 5bbb
00000040: 7361 58bc 6ae8 03bc 352b 1b3c 0fc3 913b
00000050: f50a 42b9 1aa5 83bc a32d 7d3c f7f5 b33b
00000060: 2815 fb3c 71ce 80bc 1b4f 2cbd 11db 69bb
00000070: a480 3fbc 2bdc 28bc fcdc e9bb 94fb d13c
00000080: be2c a6bc 0a09 7b3c 2149 6ebc 3b03 f0bc
00000090: 50d1 203b a5eb cf3b 3fda 213c a95a 8ebc
000000a0: 7ee3 4bbc da01 e43c 3ce4 3abc 3139 bf3a
000000b0: e2ba b03b 5526 c03c 6073 a5bc ba42 f13a
000000c0: 0654 2abb b5d6 61bc 8107 053c acf0 9abb
000000d0: a4be 543c 7581 f1bc abd1 fc3b 57e2 a3bc
000000e0: 2765 123c 9547 17bd 3bcd 133c fcac cd3c
000000f0: b0c6 d73b b820 08bc 20e2 a1bc 6a48 c53b
00000100: 9728 9dbc 499a 0e3b 2a44 52bb 2dfb 69bc
00000110: 25a7 48bc caeb a83a 4564 4c3c 83b0 6ebc
00000120: 2f89 50bc acd5 c43a 737d d53c 6a06 c1bc
00000130: fed7 b1bc 8f0d e1bc 33d9 f0bc 5b4f f13b
00000140: 99fb 8a3c d877 25ba 2004 163c e11c 413c
00000150: ae56 a5bc fe28 88bb 2fd7 843c ffbf 77bb
00000160: 4d2a 21bc 0f79 40bc 88d7 2e3c 14c9 83bc
00000170: d4c5 aebb dcfd f9bc af68 34bc fe59 3e3c
00000180: 2ef6 85bb 131c ed3c 216f a93a f436 b33c
00000190: e453 c1bb d13b 3fbc 7b91 a43c 6e5b 14bd
000001a0: fa15 32bb f7bd 2fbc 79b6 123c 3ba5 95bc
000001b0: d5d0 a63b 9dba 6b3c c4a8 87bc 6ac2 a43c
000001c0: 019e c3bc 5e21 72ba 0934 f73a a897 803b
000001d0: 9434 543c 058d b8bc 4157 c6bb 41d5 f8bc
000001e0: e95a 26bc 9a0b 833b 4b68 18bb a898 f6bc
000001f0: ec22 16ba 5710 3e3c 6b51 d53b 5e1d 8cbc
00000200: 9d33 873a 8156 8d3c 83ad a73b d476 d639
00000210: 57e2 b1bc 02a0 f03b ab43 c93c 904f e23b
00000220: f9b5 b3bb f9aa 113c 99ed dbbb 4213 49bb
00000230: 85bc d1bc 0d12 f23b 32b9 e1ba 1b70 88bc
00000240: 2155 f2bb ad6a 28bb 5d8c 92bb 27d8 c7bb
00000250: 77af 2abc 0396 46bc 7376 bd3c 3330 adbb
00000260: d36d 91bc 8b0c ed3a 56cc 0a3d 5e62 b53c
00000270: 0fcf 633c 5e08 ab3b c734 933c 07e4 09bc
00000280: a518 003b 06c6 2e3c dba4 d0bb 2f66 2a3c
00000290: 097f aabc e48f 20bd a5ba 263b ae98 8dbb
000002a0: 4fe5 44bc f26a 85bb 83f2 50bc 8917 23ba
000002b0: ff66 ae3c b2e3 483b 387b c43c 5007 903c
000002c0: 9db6 0dbd eaff 4aba d104 3fbb 22df 8dbc
000002d0: 583b adbc 3912 27bc 3298 a5bc 778e 91bc
000002e0: bc8b e4bb 8df1 03bd b536 57bc a46f 00bc
000002f0: fea7 563c 78b2 c73b 9039 fabc e863 a8bc
00000300: e0a1 dabb dae6 8a3c 3ee4 49bb bb0e 123c
00000310: d25a 95bb edb7 0b3c bb47 51bc 2d80 f7bc
00000320: cd04 a8bb a3d4 bcbc 7e18 bcbc f6d0 a5bc
00000330: 9a0a 8a3a cf2a 47bc 2d88 81bc 23d5 97bc
00000340: 0426 06bc 0d02 b73c 30f9 6abb c9fb 22bc
00000350: b4a3 bd3c 8a8f 503c bd48 3d3c c8b7 abbc
00000360: 3b7a a93b c81b 8239 2668 4fbc 202f 4a3b
00000370: bc90 d3bc 1000 9d3c f71a 4cbc 1480 e9bc
00000380: 7079 c2bc b4a8 80bc e00c 8ebb 615e 51bc
00000390: 5abe eabb 3c1b 03bc 806d 07bc d790 2fbc
000003a0: ad61 903c 543b 083b 5bf3 a33b ed45 d7bc
000003b0: 3f68 f93c 592c 5bbc 7e29 a1bb db1c 30bc
000003c0: 3dd6 b13b 5b97 483c 3061 9a3a 1c23 8ebb
000003d0: c17c 8dbc d369 eb3c 4fd5 d43c 2386 a03c
000003e0: a064 e93b 4bd3 e33c d442 14bc c9b3 30bc
000003f0: 41aa 5ebc 632d b3bc 095f bf3c 252b 103c
0.011941119 -0.028972225 -0.017909078 0.0043815062 0.019873828 0.021162776 0.012172902 -0.012652965
-0.013440595 -0.016757866 -0.03538901 0.016708443 -0.012575148 0.002293188 -0.009631867 -0.0033443235
-0.013206827 -0.008051017 0.009470751 0.0044483016 -0.00018505364 -0.016069937 0.015452775 0.005491968
0.030649737 -0.015723439 -0.04206763 -0.0035683552 -0.011688385 -0.010306398 -0.007136939 0.025632657
-0.020285007 0.015321979 -0.0145438025 -0.029298415 0.0024538822 0.0063452297 0.009878694 -0.017377215
-0.012444375 0.027832914 -0.011406954 0.0014589188 0.005393372 0.023455778 -0.020196617 0.0018406727
-0.0025990023 -0.0137841 0.008119465 -0.0047283974 0.012984905 -0.029480675 0.007715424 -0.020005388
0.008935249 -0.0369335 0.009021099 0.0251069 0.0065849647 -0.008308582 -0.019761145 0.0060205953
-0.019184394 0.0021759442 -0.0032084086 -0.014281076 -0.012246882 0.0012887653 0.012475078 -0.014568451
-0.01272802 0.0015017292 0.026060795 -0.023562629 -0.021709438 -0.027472286 -0.029400444 0.0073641962
0.016965674 -0.00063121086 0.009156257 0.01178667 -0.020182934 -0.0041552773 0.016215889 -0.0037803648
-0.009836745 -0.011747613 0.010671504 -0.016087092 -0.0053336415 -0.030516557 -0.011011287 0.0116181355
-0.004088185 0.02894405 0.0012926796 0.02187679 -0.005899893 -0.011671976 0.020088902 -0.036220007
-0.0027173744 -0.0107264435 0.008954638 -0.018267265 0.0050908127 0.014387754 -0.016559966 0.020112235
-0.023879053 -0.00092365395 0.0018860112 0.003924329 0.012951989 -0.02252818 -0.006052882 -0.030375125
-0.010153511 0.0039991857 -0.0023255523 -0.030102089 -0.00057272497 0.011600575 0.00650995 -0.017103847
0.0010315065 0.017253162 0.0051171198 0.00040905795 -0.021714373 0.007343293 0.0245684 0.0069064572
-0.0054843393 0.008890861 -0.0067116735 -0.0030681645 -0.025602588 0.0073874057 -0.001722133 -0.016655019
-0.007395402 -0.002569835 -0.004472299 -0.0060987654 -0.010417811 -0.0121207265 0.02312777 -0.005285287
-0.017752564 0.0018085403 0.033886276 0.022141632 0.013904347 0.0052195033 0.017969502 -0.008416182
0.001954594 0.01066733 -0.0063673086 0.010400339 -0.020812528 -0.039199725 0.0025440839 -0.0043211794
-0.012017562 -0.0040715868 -0.012753132 -0.00062214636 0.021289347 0.0030653295 0.023984537 0.017581612
-0.03459798 -0.00077438226 -0.0029147158 -0.017318312 -0.021146461 -0.010197216 -0.020214174 -0.017768128
-0.0069746654 -0.032212783 -0.013135602 -0.007839117 0.013101576 0.006094273 -0.030545026 -0.020555452
-0.006672129 0.016955782 -0.003080621 0.008914645 -0.0045579458 0.008527738 -0.0127734495 -0.030212486
-0.0051275254 -0.023050612 -0.022960898 -0.020241242 0.0010531724 -0.012156202 -0.015812004 -0.018534249
-0.008187775 0.022339845 -0.0035854094 -0.009947726 0.023149349 0.012729535 0.011552987 -0.020961657
0.0051720417 0.0002481623 -0.012659108 0.0030850843 -0.02582585 0.019165069 -0.012457601 -0.028503455
-0.023739547 -0.015705444 -0.004335031 -0.012778849 -0.007163805 -0.008002099 -0.008265853 -0.010715685
0.0176247 0.0020787315 0.0050033755 -0.02627846 0.030445216 -0.0133772725 -0.0049182763 -0.010749067
0.0054271505 0.012243117 0.0011778232 -0.0043376815 -0.017271401 0.028736984 0.02598062 0.019595211
0.007122591 0.027810713 -0.009049136 -0.010785052 -0.013590396 -0.021872228 0.023360746 0.008799349

fc1.2.bias f4 [2]
00000000: c227 f9bc 5fb3 abbb
-0.030414466 -0.0052398886
