saved_models/model_2.onnx (onnx, 29453 bytes, 14 tensors)

conv1.0.weight f4 [5, 1, 64]
0.07883634 0.06595157 -0.0030291223 -0.02408205 -0.096288405 -0.10588043 -0.054773677 0.008014441
0.061120674 0.0152228335 0.014586926 -0.06403271 0.005536525 0.081056364 0.100381725 0.009809671
-0.008475861 -0.016708778 -0.030859808 -0.034672763 0.01966436 0.03252206 -0.061552633 -0.08708212
-0.12504637 -0.13210514 0.05992811 0.055868424 0.04573785 -0.023089683 0.057432704 0.027255934
0.07421857 0.026708726 -0.082414426 0.005553266 -0.03278913 -0.13141863 -0.070517585 -0.19587009
-0.111548394 -0.029165251 0.102088735 0.17254806 0.15377417 0.08858618 0.07050515 0.0012635388
-0.023674378 -0.13900904 -0.11421178 -0.12316108 -0.12882237 -0.09558559 -0.020190082 -0.020344924
0.11523388 0.16116434 0.1770937 0.16173281 0.020145219 -0.028759837 -0.21261644 -0.16839707
0.1541663 -0.028947735 -0.17127861 -0.26789635 -0.31105885 -0.1378348 -0.04387534 0.00418972
0.10031875 -0.011575185 -0.06690318 0.021778477 0.24857311 0.2529311 0.0822705 -0.035756312
-0.20588408 -0.22824456 -0.16758992 0.015766008 -0.07022071 0.0069494005 -0.0055366936 -0.0060651223
-0.04098459 0.048191432 0.032075096 0.14605051 0.15266588 0.13048926 0.083472446 -0.042584345
-0.10655328 -0.033864312 0.028877024 -0.0012805484 -0.14198673 -0.20523322 -0.16497125 -0.030172653
0.15880263 0.2481006 0.2118396 0.14527637 0.07169794 -0.051740944 -0.14988397 -0.14347097
-0.074624024 -0.07405239 0.02276368 0.047064934 0.037595473 0.023191864 0.054739736 -0.018145863
-0.07822191 0.03971086 -0.056744557 0.057054307 0.10360074 -0.01674519 -0.0006571275 -0.055676375
0.09304637 0.073873244 -0.056183197 -0.12852812 -0.083893925 0.049989473 -0.02866143 0.040763766
0.18632643 -0.05168335 0.052428555 0.09112695 -0.01395121 -0.09436363 0.00035743645 0.06694843
-0.0076683396 -0.06672371 -0.069729276 0.051997 -0.03243539 0.0898207 -0.22247905 0.02539899
-0.06254333 -0.14338627 0.14165676 0.08031724 0.11363795 0.03782364 0.14088967 -0.13155943
0.18158062 -0.08786262 -0.094645835 0.05845319 -0.051105082 -0.12990212 0.05485641 -0.024741165
-0.063873336 0.021798948 0.14023386 -0.059381664 -0.0100416 -0.069388784 0.14166011 -0.114545085
-0.06546659 -0.10615158 -0.043893337 -0.17040952 -0.012217173 -0.15654023 -0.15492804 -0.06946867
0.11991562 -0.017243817 0.10307966 0.020876514 0.08967284 0.10349727 -0.055915445 0.27985403
-0.07882696 -0.006908557 0.028673043 0.030561151 0.07837571 0.09494134 0.014917109 -0.14584336
-0.1556362 -0.079183295 0.07449266 -0.15903267 0.16808692 0.05682373 -0.04422661 -0.004075619
0.052772716 -0.16134228 -0.10595237 0.076532885 -0.05710976 -0.037549753 0.0065054214 0.0077444715
-0.069710806 -0.10621581 -0.07053467 0.050431423 -0.052722327 -0.0059079407 0.035409495 -0.19842793
-0.04889099 0.102190696 0.10457243 0.056221813 0.06512443 0.09099266 0.0288379 0.0060985824
0.08990666 0.060350135 0.09959221 -0.024932243 -0.048776526 -0.03262362 0.08081766 0.117032826
0.19215482 0.17070407 -0.022593055 -0.15768124 -0.19713774 -0.1384309 -0.054244418 0.09343666
0.0038497455 0.057063647 -0.09964566 0.08759892 0.069250025 -0.070527725 -0.113063164 -0.058544315
00000000: f274 a13d 9e11 873d 3d84 46bb b847 c5bc
00000010: db32 c5bd d7d7 d8bd 5d5a 60bd 004f 033c
00000020: ac59 7a3d 3169 793c 01fe 6e3c 9523 83bd
00000030: bd6b b53b e100 a63d ef94 cd3d beb8 203c
00000040: 56de 0abc d9e0 88bc b5cd fcbc 0705 0ebd
00000050: 2717 a13c da35 053d 9d1e 7cbd 1c58 b2bd
00000060: 280c 00be 9246 07be 2e77 753d 4ad6 643d
00000070: 9d57 3b3d 9326 bdbc 8e3e 6b3d d647 df3c
00000080: e8ff 973d 42cc da3c e5c8 a8bd 2cf8 b53b
00000090: e54d 06bd 9b92 06be 866b 90bd 2b92 48be
000000a0: 7c73 e4bd f7eb eebc e613 d13d 70b0 303e
000000b0: fa76 1d3e ac6c b53d 0165 903d 549d a53a
000000c0: c5f0 c1bc 6358 0ebe dee7 e9bd e03b fcbd
000000d0: 03ea 03be 61c2 c3bd ac65 a5bc 66aa a6bc
000000e0: beff eb3d 4408 253e 0d58 353e 499d 253e
000000f0: 9607 a53c c099 ebbc 20b8 59be 4870 2cbe
00000100: c5dd 1d3e cd23 edbc a963 2fbe b629 89be
00000110: 1b43 9fbe 9124 0dbe a1b6 33bd eb49 893b
00000120: eb73 cd3d d8a5 3dbc 8904 89bd c768 b23c
00000130: f389 7e3e 2f80 813e 707d a83d 3675 12bd
00000140: 47d3 52be f1b8 69be b19c 2bbe b727 813c
00000150: e0cf 8fbd ccb7 e33b 276d b5bb efbd c6bb
00000160: 75df 27bd 6164 453d 2d61 033d 448e 153e
00000170: 7254 1c3e fa9e 053e 9af3 aa3d ec6c 2ebd
00000180: 9b38 dabd 4eb5 0abd 828f ec3c 13d8 a7ba
00000190: f864 11be a828 52be 39ee 28be a42c f7bc
000001a0: 289d 223e 150e 7e3e 7bec 583e 54c3 143e
000001b0: 5fd6 923d 50ee 53bd 2f7b 19be 0eea 12be
000001c0: 7bd4 98bd c8a8 97bd e67a ba3c 29c7 403d
000001d0: b6fd 193d ddfc bd3c c636 603d a2a6 94bc
000001e0: cf32 a0bd dba7 223d fb6c 68bd c7b1 693d
000001f0: a02c d43d 352d 89bc 1443 2cba e90c 64bd
00000200: 188f be3d db4a 973d 5a20 66bd e09c 03be
00000210: 94d0 abbd c3c1 4c3d 60cb eabc e8f7 263d
00000220: 5bcc 3e3e ecb1 53bd 53bf 563d c4a0 ba3d
00000230: 9e93 64bc b841 c1bd 4f66 bb39 421c 893d
00000240: b246 fbbb 71a6 88bd 39ce 8ebd cefa 543d
00000250: f9da 04bd eaf3 b73d 8cd1 63be 8b11 d03c
00000260: b816 80bd dad3 12be 780e 113e 5d7d a43d
00000270: 03bb e83d f6ec 1a3d 6245 103e 84b7 06be
00000280: 45f0 393e 51f1 b3bd add5 c1bd 9d6c 6f3d
00000290: 9053 51bd 1005 05be 1db1 603d fcad cabc
000002a0: 06d0 82bd b593 b23c 7799 0f3e 303a 73bd
000002b0: 8685 24bc b51b 8ebd 590f 113e 9d96 eabd
000002c0: 5913 86bd 0066 d9bd 80c9 33bd d57f 2ebe
000002d0: 8a2a 48bc 154c 20be 75a5 1ebe 9745 8ebd
000002e0: 5296 f53d e842 8dbc 6e1b d33d 3905 ab3c
000002f0: 65a6 b73d 60f6 d33d 9807 65bd 0749 8f3e
00000300: 0770 a1bd 2d61 e2bb bbe3 ea3c 615b fa3c
00000310: 7283 a03d 9b70 c23d e466 743c f657 15be
00000320: 195f 1fbe da2a a2bd 9c8f 983d 76d9 22be
00000330: fa1e 2c3e 00c0 683d f626 35bd c58c 85bb
00000340: 3428 583d e936 25be 8efd d8bd 46bd 9c3d
00000350: eceb 69bd c5cd 19bd 6e2b d53b 56c5 fd3b
00000360: 8ac4 8ebd ad87 d9bd 7b74 90bd 2e91 4e3d
00000370: 5ef3 57bd 6697 c1bb 8c09 113d b130 4bbe
00000380: eb41 48bd 5b49 d13d 122a d63d d848 663d
00000390: f55f 853d 5c5a ba3d 763d ec3c 9ed6 c73b
000003a0: fc20 b83d b431 773d 00f7 cb3d b43e ccbc
000003b0: e5c9 47bd 58a0 05bd bb83 a53d e8ae ef3d
000003c0: 3cc4 443e 0ccd 2e3e 1215 b9bc 3177 21be
000003d0: 7ade 49be d4c0 0dbe 652f 5ebd b85b bf3d
000003e0: 034c 7c3b 92bb 693d 0613 ccbd 1067 b33d
000003f0: f5d2 8d3d d770 90bd a98d e7bd 2acc 6fbd

conv1.0.bias f4 [5]
-0.0025386848 -0.0011319575 0.020392219 0.18441665 -0.0041967733
00000000: 1060 26bb 315e 94ba 950d a73c b8d7 3c3e
00000010: 1685 89bb

conv1.2.weight f4 [5]
1.1076993 1.0868516 1.0417358 1.0826005 1.1231443
00000000: 17c9 8d3f f41d 8b3f 9957 853f a792 8a3f
00000010: 31c3 8f3f

conv1.2.bias f4 [5]
0.0097096795 0.041683216 0.00568455 0.071127385 -0.002720471
00000000: 5915 1f3c 05bc 2a3d 7645 ba3b 3cab 913d
00000010: ee49 32bb

conv1.2.running_mean f4 [5]
0.039011613 0.05356282 0.05625551 0.12192558 0.03690501
00000000: a4ca 1f3d b064 5b3d 2d6c 663d 1eb4 f93d
00000010: b529 173d

conv1.2.running_var f4 [5]
0.007401839 0.007583944 0.00425292 0.007564957 0.0045755226
00000000: 208b f23b bc82 f83b 145c 8b3b 75e3 f73b
00000010: 44ee 953b

conv2.0.weight f4 [5, 5, 16]
0.049831767 -0.019276997 0.04596062 0.09944034 0.026668333 0.044947017 0.12630063 0.02740773
-0.07598723 -0.048729315 -0.036718417 0.054619864 0.07985678 0.068058476 0.09959688 0.076068416
-0.025800135 0.11723163 0.054535523 0.024897477 0.024170667 0.018313404 -0.055771723 -0.13057941
-0.092329584 -0.05707404 -0.03451739 0.0715708 -0.10629769 0.0646 0.00084965245 -0.041263618
-0.008260969 0.08537766 0.07161842 0.021461552 -0.03439379 0.0018173711 0.09604168 0.06287696
0.017717436 0.0029700836 0.021840278 0.109518215 -0.029922165 -0.0063636974 -0.0028970987 0.004062821
-0.06421635 -0.046960827 0.07789509 0.048054636 -0.070250094 -0.024613984 0.017647471 0.04589205
-0.11486658 0.09766652 -0.12564275 0.0057253097 0.045968138 0.011781532 -0.024908144 -0.11836363
-0.051026545 -0.0011764145 0.03626876 -0.018858915 0.031555876 -0.027847588 -0.016325144 0.099175
-0.047410086 -0.012392948 -0.031319268 0.09164359 -0.07081776 0.0358733 0.044879217 -0.008691635
0.012327653 0.025815457 0.06385683 0.028087206 -0.12260303 -0.029017502 -0.09822089 -0.067388825
-0.11325239 -0.21372513 -0.074427925 0.10241786 -0.042854324 -0.10101813 0.04812103 0.03681052
0.10905294 0.06477574 0.077425405 0.08030756 -0.021067977 -0.13939999 -0.03494616 -0.123057246
-0.09456037 -0.13427246 -0.062075734 -0.14616881 -0.12359012 -0.09594214 -0.07044263 0.098465145
-0.076594144 0.0546125 0.1024663 -0.0328848 0.024061413 0.12680402 0.060593337 -0.036944866
-0.049137548 0.14256953 0.06612928 -0.010188187 0.0048154793 -0.027300697 -0.017770505 0.0036683597
-0.0015600346 0.08888077 0.06799501 0.04126483 -0.054545816 -0.0023437387 -0.09289714 -0.07044702
-0.026204448 -0.061858203 -0.04043447 -0.11751303 0.045957394 -0.086880654 -0.057159636 -0.009119337
0.13163877 0.065278895 0.081993625 -0.085141145 -0.0083513735 -0.06805536 -0.11145145 -0.06235735
-0.011672672 0.09302825 -0.22878511 -0.12516017 -0.0032980815 -0.011731608 0.04166025 0.11827293
0.07240932 -0.01244822 0.04899224 -0.038341433 -0.01304276 0.039268762 -0.1779898 -0.008935891
0.026594762 -0.028110072 0.04609911 0.057295606 0.08974905 0.068479 -0.0009942645 0.10939715
-0.00865378 0.07507995 2.0559646e-05 -0.07561862 -0.07900249 0.0034303947 -0.025708089 -0.06047875
-0.17189507 0.030775 0.093690865 0.048456006 0.10090265 0.045398235 -0.12474 -0.003435561
0.11705515 -0.000997317 -0.094364874 0.06794775 -0.10319615 0.08970707 -0.0107891895 -0.08930321
-0.0012115171 -0.1732754 0.07315807 -0.11357431 -0.034712505 -0.01914985 -0.018410185 0.10800341
-0.07459202 -0.057000637 -0.019565208 -0.11903423 -0.0051850327 -0.10564868 0.024394767 -0.07630872
-0.036587086 -0.042694125 -0.048054975 -0.02199083 0.044210296 -0.08137142 0.10468017 -0.0052809753
0.020916838 0.08183764 0.097282685 -0.015550919 0.006199043 -0.01666039 0.027290637 0.027183563
-0.007143214 0.04920619 -0.1304237 -0.042410586 0.058539975 0.10593872 0.04168104 -0.032751903
0.11381929 -0.053592995 0.08246417 -0.064052574 -0.10706564 0.09916342 0.04911458 0.06712637
-0.014660959 -0.1354992 0.060133558 -0.15524492 0.013340561 0.09322976 0.048209872 -0.028870204
00000000: 651c 4c3d cbea 9dbc 3441 3c3d 61a7 cb3d
00000010: 8c77 da3c 5d1a 383d f454 013e 2d86 e03c
00000020: 319f 9bbd 6498 47bd 0d66 16bd 14b9 5f3d
00000030: f48b a33d 3e62 8b3d 73f9 cb3d c2c9 9b3d
00000040: ce5a d3bc 2317 f03d a460 5f3d cbf5 cb3c
00000050: 9001 c63c fe05 963c e470 64bd 9cb6 05be
00000060: 4b17 bdbd 78c6 69bd 1b62 0dbd b693 923d
00000070: 9ab2 d9bd 014d 843d 36bb 5e3a 0a04 29bd
00000080: 0459 07bc 7cda ae3d aeac 923d 23d0 af3c
00000090: 81e0 0cbd db34 ee3a 80b1 c43d a3c5 803d
000000a0: 2824 913c bca5 423b 62ea b23c 164b e03d
000000b0: 541f f5bc 9086 d0bb 40dd 3dbb 6a21 853b
000000c0: dd83 83bd ff59 40bd 7687 9f3d f0d4 443d
000000d0: 48df 8fbd 44a3 c9bc 6e91 903c 4df9 3b3d
000000e0: 2b3f ebbd 6205 c83d 7ea8 00be 619b bb3b
000000f0: 1649 3c3d 5407 413c 2a0c ccbc a168 f2bd
00000100: 3601 51bd ec31 9aba 8d8e 143d 037e 9abc
00000110: bc40 013d a020 e4bc 4fbc 85bc 431c cb3d
00000120: 1431 42bd cb0b 4bbc a248 00bd a2af bb3d
00000130: e708 91bd e2ef 123d 45d3 373d 5c67 0ebc
00000140: edf9 493c f07a d33c 5fc7 823d 2417 e63c
00000150: 4c17 fbbd 1db6 edbc 0928 c9bd 2703 8abd
00000160: def0 e7bd c3da 5abe ab6d 98bd 74c0 d13d
00000170: 0488 2fbd 98e2 cebd 8f1a 453d a1c6 163d
00000180: 2657 df3d 25a9 843d 3691 9e3d 4a78 a43d
00000190: c096 acbc dfbe 0ebe b423 0fbd 7005 fcbd
000001a0: dea8 c1bd b87e 09be 2043 7ebd 47ad 15be
000001b0: d11c fdbd 507d c4bd 3a44 90bd 18a8 c93d
000001c0: 64dd 9cbd 5bb1 5f3d dad9 d13d 36b2 06bd
000001d0: 711c c53c ead8 013e b830 783d 8053 17bd
000001e0: 7444 49bd bffd 113e ca6e 873d 5aec 26bc
000001f0: 2bcb 9d3b b6a5 dfbc 7393 91bc dd68 703b
00000200: 137a ccba 1f07 b63d f840 8b3d 4f05 293d
00000210: 6f6b 5fbd 6999 19bb db40 bebd 8746 90bd
00000220: b6aa d6bc 075f 7dbd 9d9e 25bd acaa f0bd
00000230: d23d 3c3d 7cee b1bd 3920 6abd 4669 15bc
00000240: 50cc 063e f1b0 853d 46ec a73d 7b5e aebd
00000250: 33d4 08bc 9c60 8bbd a840 e4bd 6c6a 7fbd
00000260: bc3e 3fbc 9885 be3d a546 6abe fd29 00be
00000270: a024 58bb ee35 40bc f0a3 2a3d 1439 f23d
00000280: 564b 943d 9ef3 4bbc 16ac 483d e80b 1dbd
00000290: 4db1 55bc 48d8 203d f542 36be d867 12bc
000002a0: 42dd d93c 1847 e6bc 6cd2 3c3d ccae 6a3d
000002b0: 5ace b73d b83e 8c3d fb51 82ba 9d0b e03d
000002c0: 96c8 0dbc 84c3 993d 8177 ac37 efdd 9abd
000002d0: 0fcc a1bd 79d0 603b c599 d2bc 91b8 77bd
000002e0: 4305 30be da1b fc3c ffe0 bf3d ce79 463d
000002f0: 0ca6 ce3d 80f3 393d af77 ffbd 2627 61bb
00000300: 9cba ef3d 68b8 82ba 5f42 c1bd 3128 8b3d
00000310: 8158 d3bd 57b8 b73d 24c5 30bc 9ae4 b6bd
00000320: c5cb 9eba 1b6f 31be e6d3 953d a699 e8bd
00000330: b32e 0ebd 25e0 9cbc f5d0 96bc e430 dd3d
00000340: b3c3 98bd 8079 69bd 3747 a0bc 38c8 f3bd
00000350: 35e7 a9bb 565e d8bd 89d7 c73c bf47 9cbd
00000360: 57dc 15bd 09e0 2ebd 4bd5 44bd 1d26 b4bc
00000370: db15 353d 0fa6 a6bd 8f62 d63d 080c adbb
00000380: ca59 ab3c 7e9a a73d 253c c73d 48c9 7ebc
00000390: 5721 cb3b 5f7b 88bc 9d90 df3c 10b0 de3c
000003a0: 9f11 eabb 6e8c 493d ca8d 05be b9b6 2dbd
000003b0: 9dc7 6f3d 66f6 d83d bdb9 2a3d dc26 06bd
000003c0: 171a e93d 5484 5bbd fae2 a83d ff2d 83bd
000003d0: 3b45 dbbd 3116 cb3d 5f2c 493d 8d79 893d
000003e0: 8534 70bc 4dc0 0abe 9b4e 763d 86f8 1ebe
000003f0: 5e92 5a3c 3fef be3d b777 453d 3581 ecbc

conv2.0.bias f4 [5]
0.06289017 0.0047535677 0.05473115 -0.040972237 -0.08220701
00000000: 90cc 803d d1c3 9b3b c52d 603d 81d2 27bd
00000010: 265c a8bd

conv2.2.weight f4 [5]
0.96546537 1.196846 1.0192475 1.0115408 1.0693874
00000000: bd28 773f 4032 993f b476 823f 2b7a 813f
00000010: b0e1 883f

conv2.2.bias f4 [5]
0.0075295647 -0.0027275253 0.00820463 0.008796865 0.020220805
00000000: 91ba f63b 48c0 32bb b66c 063c ba20 103c
00000010: 1aa6 a53c

conv2.2.running_mean f4 [5]
0.22399831 0.17605925 0.21696629 0.18360242 0.14843874
00000000: d05f 653e e048 343e 692c 5e3e 4602 3c3e
00000010: 5300 183e

conv2.2.running_var f4 [5]
0.15440018 0.054246042 0.14288166 0.14184512 0.09775852
00000000: 151b 1e3e 1931 5e3d 924f 123e d93f 113e
00000010: 9e35 c83d

fc1.1.weight f4 [2, 520]
-0.03637934 -0.04059403 -0.038419772 0.050515935 -0.0058306013 -0.004844787 -0.026280003 -0.031092461
-0.0037871627 0.0032790743 -0.042407822 -0.0057213614 0.022373974 -0.02410204 0.018701084 -0.04089912
-0.020269332 -0.03948503 -0.016620541 -0.012556631 -0.0119544575 -0.003735973 -0.008356385 -0.019869661
-0.014239662 -0.04133055 0.01500711 -0.034590755 -0.025744336 -0.029594874 -0.018039256 0.011137953
-0.05355943 -0.024384411 -0.023673328 0.0105253905 0.006677599 -0.045558233 -0.0009789707 -0.013468869
-0.036927905 -0.01292536 -0.01347825 -0.033779312 -0.012047717 0.034476224 -0.02206297 -0.029097442
-0.047486108 -0.042147484 -0.02087852 0.013077658 -0.018516224 -0.009362975 -0.020845676 -0.018252436
-0.0226385 -0.016915293 -0.016602086 0.0054639033 -0.01109194 0.01600356 -0.017567592 0.0022097356
-0.040091548 0.0042551234 -0.022955693 -0.03432003 0.021809375 0.0032855868 -0.018879144 0.013117229
-0.02022881 0.0067007546 0.011031291 -0.028242908 -0.03512022 0.013539086 -0.018666204 -0.024678348
-0.04546813 -0.07037322 -0.0025371348 0.013628629 -0.0066810595 -0.016836943 -0.051857382 -0.036265254
-0.0050531626 -0.031889237 0.013607307 0.005478525 -0.0340542 0.02596194 -0.059764788 -0.047920853
-0.05069331 -0.058811493 0.021660026 -0.012694345 -0.030644853 0.011106867 -0.043973204 -0.033353698
0.05738128 0.059809476 0.044522483 -0.0066040996 0.03502418 0.043439038 0.06358584 0.041201223
0.05914267 0.06254497 0.036330987 0.041222323 0.10233822 0.057892077 0.022513153 0.078703165
0.02913176 0.05402978 0.03099235 0.066272624 0.057273284 0.08925993 0.0360692 0.07789345
0.05090465 0.05575809 0.072974995 0.0717853 -0.0026556468 0.051179897 0.056345664 0.08742153
0.068477646 0.04693307 0.04737964 0.07952898 0.08467587 0.07585526 0.06246614 0.068379685
0.08385746 0.092097886 0.025338762 0.042302962 0.03935489 0.03833351 0.069769554 0.033653904
0.036528684 0.031031305 0.051398143 0.09311442 0.04765765 0.05541095 0.041763198 0.053207934
0.08255099 0.109929845 0.030946415 0.017699996 0.08631963 0.06318228 0.07410719 0.008184765
0.06332269 0.04382041 0.09919843 0.04658845 0.0025964624 0.06416118 0.044794872 0.06625715
0.09600614 0.0262433 0.039296437 0.053759623 0.06679858 0.09450823 0.035494674 0.078367226
0.037099995 0.06389092 0.08316194 0.053069532 0.08708866 0.08316778 0.07605923 0.07879292
0.04184386 0.053218212 0.052799657 0.06907373 0.07393017 0.0535165 0.07090884 0.027343974
0.04179056 0.047603436 0.022809567 0.04475669 0.054155868 0.0404458 0.07978744 0.006955381
0.002664459 0.0033738087 -0.044898603 0.0041106422 -0.07868481 -0.0067022704 0.009309741 -0.045015715
-0.0007902106 -0.018615123 -0.008959967 -0.063189566 -0.014400669 -0.033807296 0.0017269307 -0.017749656
0.0113033345 -0.02202249 -0.035812408 -0.06934987 -0.027155738 -0.01940341 0.008993403 -0.0041439137
-0.024803856 -2.450983e-05 -0.08097472 -0.01668864 -0.037490014 -0.03988413 -0.022090154 -0.027668962
-0.005083907 -0.027020074 -0.056785535 -0.0033077502 -0.03722253 0.017280009 -0.013078879 -0.004090269
-0.033866525 -0.08175816 -0.008282309 -0.005029786 -0.060860593 -0.040137194 -0.0385668 -0.040667947
00000000: 8102 15bd ed45 26bd 0d5e 1dbd cce9 4e3d
00000010: a10e bfbb 05c1 9ebb 2949 d7bc 9eb5 febc
00000020: 0c32 78bb bde5 563b d3b3 2dbd 427a bbbb
00000030: a049 b73c a471 c5bc 0433 993c d685 27bd
00000040: df0b a6bc 0ebb 21bd cd27 88bc 54ba 4dbc
00000050: a1dc 43bc 3ad7 74bb 38e9 08bc b3c5 a2bc
00000060: 794d 69bc 394a 29bd 62e0 753c 09af 0dbd
00000070: c9e5 d2bc f370 f2bc 10c7 93bc f67b 363c
00000080: 2261 5bbd d1c1 c7bc 91ee c1bc b072 2c3c
00000090: c3cf da3b 459b 3abd ce50 80ba 88ac 5cbc
000000a0: b741 17bd e4c4 53bc e1d3 5cbc 2d5c 0abd
000000b0: ca63 45bc f136 0d3d 67bd b4bc c25d eebc
000000c0: cb80 42bd d7a2 2cbd 6e09 abbc ac43 563c
000000d0: 56af 97bc 2a67 19bc 8dc4 aabc 2286 95bc
000000e0: 6074 b9bc f191 8abc 1901 88bc 8b0a b33b
000000f0: f8ba 35bc e619 833c e9e9 8fbc 36d1 103b
00000100: 0937 24bd 906e 8b3b 940d bcbc 2993 0cbd
00000110: 93a9 b23c 0053 573b 6fa8 9abc a5e9 563c
00000120: e4b6 a5bc 0192 db3b 97bc 343c ac5d e7bc
00000130: 38da 0fbd 0bd3 5d3c dee9 98bc 3f2a cabc
00000140: ca3c 3abd d61f 90bd 0f46 26bb 9d4a 5f3c
00000150: caec dabb a1ed 89bc 6868 54bd e08a 14bd
00000160: 0095 a5bb 4a9e 02bd 2ff1 5e3c 3385 b33b
00000170: 6b7c 0bbd 22ae d43c eccb 74bd a848 44bd
00000180: caa3 4fbd 52e4 70bd 5e70 b13c f1fb 4fbc
00000190: ea0a fbbc 94f9 353c 3f1d 34bd e39d 08bd
000001a0: a208 6b3d c8fa 743d 355d 363d 3467 d8bb
000001b0: 8475 0f3d 22ed 313d 4b39 823d 9dc2 283d
000001c0: 963f 723d 9417 803d cdcf 143d bdd8 283d
000001d0: b396 d13d 3e20 6d3d 816d b83c 202f a13d
000001e0: bba5 ee3c 554e 5d3d abe3 fd3c f1b9 873d
000001f0: 6497 6a3d e9cd b63d 4cbd 133d 9a86 9f3d
00000200: 6581 503d 9862 643d ea73 953d 2c04 933d
00000210: 5c0a 2ebb 03a2 513d b6ca 663d 0f0a b33d
00000220: 023e 8c3d e43c 403d 2711 423d 17e0 a23d
00000230: 8b6a ad3d 015a 9b3d 7fdc 7f3d a60a 8c3d
00000240: 76bd ab3d d19d bc3d 3c93 cf3c df45 2d3d
00000250: 9832 213d 9903 1d3d 57e3 8e3d add8 093d
00000260: 1a9f 153d 5d35 fe3c dc86 523d c6b2 be3d
00000270: ab34 433d 98f6 623d e30f 2b3d 90f0 593d
00000280: 7e10 a93d e622 e13d 5683 fd3c 95ff 903c
00000290: 59c8 b03d b665 813d 83c5 973d 6519 063c
000002a0: 54af 813d 087d 333d 8c28 cb3d 88d3 3e3d
000002b0: 6929 2a3b f066 833d d47a 373d d4b1 873d
000002c0: de9e c43d 30fc d63c 4df5 203d 0d33 5c3d
000002d0: b2cd 883d 888d c13d dd62 113d ff7e a03d
000002e0: 2af6 173d 3ed9 823d cf50 aa3d 705f 593d
000002f0: 8a5b b23d de53 aa3d f1c4 9b3d 2f5e a13d
00000300: 7864 2b3d 57fb 593d 7444 583d 8776 8d3d
00000310: b368 973d 1e34 5b3d a738 913d 7800 e03c
00000320: 942c 2b3d d2fb 423d 21db ba3c ca52 373d
00000330: 8bd2 5d3d 7faa 253d 9967 a33d f7e9 e33b
00000340: 349e 2e3b 1e1b 5d3b 99e7 37bd 91b2 863b
00000350: 8025 a1bd b89e dbbb e287 183c 6662 38bd
00000360: 2326 4fba be7e 98bc d3cc 12bc 8869 81bd
00000370: c9f0 6bbc 8579 0abd 2e5a e23a ba67 91bc
00000380: 9f31 393c 8268 b4bc 08b0 12bd 4e07 8ebd
00000390: b675 debc e6f3 9ebc 1159 133c abc9 87bb
000003a0: 7531 cbbc 769a cdb7 13d6 a5bd 9db6 88bc
000003b0: 218f 19bd 8b5d 23bd 69f6 b4bc 05aa e2bc
000003c0: e796 a6bb 3459 ddbc f397 68bd d7c6 58bb
000003d0: a776 18bd ce8e 8d3c cb48 56bc aa07 86bb
000003e0: a0b7 0abd d270 a7bd 86b2 07bc e7d0 a4bb
000003f0: f548 79bd e666 24bd 39f8 1dbd 6f93 26bd

fc1.1.bias f4 [2]
-0.00073916826 -0.017760575
00000000: bec4 41ba a07e 91bc
