saved_models/quant_IEGM_net.pkl (torch, 10939 bytes, 11 tensors)

cpu f4 [5]
00000000: 1060 26bb 315e 94ba 950d a73c b8d7 3c3e
00000010: 1685 89bb
-0.0025386848 -0.0011319575 0.020392219 0.18441665 -0.0041967733

weight f4 [5]
00000000: 17c9 8d3f f41d 8b3f 9957 853f a792 8a3f
00000010: 31c3 8f3f
1.1076993 1.0868516 1.0417358 1.0826005 1.1231443

bias f4 [5]
00000000: 5915 1f3c 05bc 2a3d 7645 ba3b 3cab 913d
00000010: ee49 32bb
0.0097096795 0.041683216 0.00568455 0.071127385 -0.002720471

running_mean f4 [5]
00000000: a4ca 1f3d b064 5b3d 2d6c 663d 1eb4 f93d
00000010: b529 173d
0.039011613 0.05356282 0.05625551 0.12192558 0.03690501

running_var f4 [5]
00000000: 208b f23b bc82 f83b 145c 8b3b 75e3 f73b
00000010: 44ee 953b
0.007401839 0.007583944 0.00425292 0.007564957 0.0045755226

cpu f4 [5]
00000000: 90cc 803d d1c3 9b3b c52d 603d 81d2 27bd
00000010: 265c a8bd
0.06289017 0.0047535677 0.05473115 -0.040972237 -0.08220701

weight f4 [5]
00000000: bd28 773f 4032 993f b476 823f 2b7a 813f
00000010: b0e1 883f
0.96546537 1.196846 1.0192475 1.0115408 1.0693874

bias f4 [5]
00000000: 91ba f63b 48c0 32bb b66c 063c ba20 103c
00000010: 1aa6 a53c
0.0075295647 -0.0027275253 0.00820463 0.008796865 0.020220805

running_mean f4 [5]
00000000: d05f 653e e048 343e 692c 5e3e 4602 3c3e
00000010: 5300 183e
0.22399831 0.17605925 0.21696629 0.18360242 0.14843874

running_var f4 [5]
00000000: 151b 1e3e 1931 5e3d 924f 123e d93f 113e
00000010: 9e35 c83d
0.15440018 0.054246042 0.14288166 0.14184512 0.09775852

cpu f4 [2]
00000000: bec4 41ba a07e 91bc
-0.00073916826 -0.017760575
