saved_models/submission.onnx (onnx, 29453 bytes, 14 tensors)

conv1.0.weight f4 [5, 1, 64]
000000 82 b0 9f 3c 12 cb 13 be 18 d1 de 3d 40 a0 03 3e
       0.019493345 -0.14432934 0.10879725 0.128541
000010 bb 13 2f 3e 46 f3 5b 3e e9 9f 87 bd 34 c0 47 3d
       0.1709737 0.2147952 -0.06622297 0.048767284
000020 71 7c 07 3e c8 ea 06 3e 46 79 8e 3d 67 5f f6 3d
       0.13231064 0.131755 0.06956725 0.12029915
000030 f3 93 c9 3d 66 86 d4 3d ec d0 e1 3c bb 23 03 be
       0.09842672 0.10377197 0.027565442 -0.12806599
000040 82 85 cb bd 60 03 17 be 75 91 8f bc 20 c8 7f bc
       -0.09937574 -0.14747381 -0.017525414 -0.015611678
000050 8e 49 7a 3c cf fb e8 3d 22 b0 f8 bd a2 27 3d 3e
       0.015276326 0.11376154 -0.1214297 0.1847215
000060 dc 8f 30 3d f4 f8 16 bd aa 07 d5 bd 2f 1d 4c bd
       0.043105945 -0.036858514 -0.104018524 -0.04983252
000070 60 f7 ca bd 63 ef c1 bd 69 d2 7b 3d cd aa 53 bd
       -0.09910464 -0.094694875 0.06147996 -0.05167656
000080 e7 3d 57 bc 11 fb b6 bd 28 c7 2c bd cb c1 bd 3c
       -0.013137317 -0.08934606 -0.042182118 0.023163697
000090 5f 44 2d bd 30 3d fd 3d 22 ea 99 3c 92 77 4c bd
       -0.042301532 0.12365186 0.018788401 -0.04991872
0000a0 19 2b 8d bd a6 06 91 be d6 41 99 bc e5 d1 5f bc
       -0.06892986 -0.28325385 -0.01870815 -0.013660883
0000b0 69 dd 3a 3d d7 4b ab 3d 5c bf ba bd a8 49 9a 3d
       0.04562131 0.08364075 -0.0911853 0.0753358
0000c0 30 74 a2 bd dc 76 be bd 8a 5f 9f bd 3d 92 f8 3d
       -0.07932317 -0.093000144 -0.077818945 0.12137268
0000d0 ea d9 0b bc 25 38 86 3d c9 31 8b 3c 5c 26 cf bd
       -0.0085358415 0.065536775 0.016991513 -0.10114738
0000e0 f7 cb 38 be 95 d9 ab bc 49 0f aa bd 50 79 b2 3b
       -0.18046556 -0.020977775 -0.08303697 0.0054465905
0000f0 32 15 08 3e ba 81 43 3d 4d 42 4b 3d dd 57 a8 3d
       0.13289335 0.04773114 0.049623776 0.082198836
000100 5f 8a da bd 86 71 03 be 36 89 78 be 79 83 47 be
       -0.106709234 -0.12836275 -0.24271092 -0.19483747
000110 c0 34 7c bc f8 40 74 3c ce 5a 39 3c 14 d1 1d 3e
       -0.015393436 0.014908068 0.011313153 0.15411788
000120 ec 03 3a 3d 7e 7f d6 3d 31 74 b6 bd 5f e3 f3 bc
       0.045413896 0.10473536 -0.089088805 -0.029771505
000130 ae 41 92 bd e8 fd af bd e0 5c 9c 3c 79 2c 47 3d
       -0.07141434 -0.08593351 0.019087255 0.048626397
000140 2e d4 ab 3d 6b 6b 3f bd fc 29 d5 3d 94 a8 04 be
       0.083900794 -0.0467333 0.104083985 -0.12954932
000150 f4 e3 33 be 36 c4 aa bd f6 23 11 3e e0 e5 c9 3d
       -0.17567426 -0.083382055 0.14173874 0.09858298
000160 bb 9e 0f 3c c3 73 99 bc 2b ed 0b 3e 24 ef 01 be
       0.008765872 -0.018731957 0.13664691 -0.12688881
000170 b6 4f 68 bd ad 30 43 be f1 a5 5f bc a4 bd fd bb
       -0.056716643 -0.19061537 -0.013650403 -0.007743554
000180 7b 72 8c bd 14 d2 ba 3d ed b7 6e bc 58 52 8e 3c
       -0.06857773 0.091221005 -0.0145702185 0.017373249
000190 e0 86 4e bd d3 97 d6 3c f1 ad 50 3e ff b0 c6 bc
       -0.050421596 0.026195442 0.20378853 -0.02425432
0001a0 f9 43 2d bd 69 e0 85 bd 5e de 53 bd e9 1a 2b 3e
       -0.042301152 -0.065369435 -0.051725738 0.16709484
0001b0 c3 26 05 bd 9d 9a d7 3d b3 fe 05 3e 26 19 a1 3d
       -0.03250767 0.10527537 0.13085441 0.07866125
0001c0 e3 7e ab bd 9f e8 52 bd 58 aa b2 bc f2 ae 9b 3b
       -0.08373811 -0.051491376 -0.021809742 0.0047510797
0001d0 ee e7 36 3e a2 3d 14 3e 7a 26 2e bd 60 d7 ce bc
       0.17861912 0.14476636 -0.042517163 -0.025249183
0001e0 42 30 41 be 7d af 9f bd 09 2c 2e be a6 75 71 3c
       -0.18866065 -0.077971436 -0.17008986 0.014737522
0001f0 30 52 94 3d f2 73 e1 3d 0c 01 45 3d 1f c3 0d bd
       0.072422385 0.11008443 0.0480967 -0.03460991
000200 06 bc 08 bd d4 6a b8 3c d6 11 c2 3b cd 06 a3 3c
       -0.033382438 0.022511877 0.0059225364 0.019900704
000210 6a 42 08 bc 11 fa 0d bd 46 67 e2 bd c4 d5 28 3b
       -0.008316616 -0.03466231 -0.11054854 0.002576218
000220 15 8b 05 3d d9 d5 08 3e 3d 90 9a 3d 56 89 0f bd
       0.032603342 0.13362826 0.075470425 -0.035043083
000230 85 34 80 bd cf 6f 8f bd cf 48 5f bd ce cb 8f 3b
       -0.06260017 -0.07003748 -0.054512795 0.004388309
000240 72 f6 d2 3d 32 37 b9 3d 75 31 02 3d 1d db 88 bd
       0.10300912 0.09043731 0.031785447 -0.066824175
000250 f4 75 7a bd 36 d5 95 bd 85 c6 bf bc 27 16 aa 3d
       -0.061147645 -0.073160574 -0.023410091 0.083050065
000260 58 53 12 bd 6d 5b fc bd 1e ea ab bd 7f de 04 be
       -0.035724014 -0.123221256 -0.08394264 -0.129755
000270 bf cc d4 bd 96 bc b5 bc 67 aa 2f 3e 62 ef 32 3e
       -0.10390615 -0.022184651 0.17154847 0.1747413
000280 a9 23 13 3e 0a c2 9c 3d 56 4b fa 3c db 3a 0d bd
       0.14369072 0.076541975 0.030553501 -0.034479957
000290 d4 9f 30 be 02 f6 41 be 00 18 0d be ce 37 44 be
       -0.1724847 -0.18941501 -0.13778687 -0.19161913
0002a0 d3 e3 e5 bc b9 2c d2 3d e7 74 1c 3e a9 b7 f9 3d
       -0.028062737 0.102624364 0.1527897 0.121932335
0002b0 d7 0f 9a 3d b9 a9 37 3d ae 53 d7 bc 87 50 08 3d
       0.075225525 0.044839595 -0.026285019 0.03327992
0002c0 2e ee 5c 3d 85 eb f7 bc 61 2e 43 bd 8d 90 29 be
       0.053938083 -0.030263672 -0.047651652 -0.16559048
0002d0 45 1c 3d be 70 27 a0 bd a1 33 02 3a ae ec b0 3d
       -0.18467815 -0.07820022 0.00049668 0.08638893
0002e0 91 5a 01 3e 3f 01 15 3e b7 e9 87 3d 4d 85 ac bc
       0.12632205 0.14551257 0.066363744 -0.021059657
0002f0 23 7b 03 be 28 97 05 be 91 5f 6b bd d7 b0 ad 3d
       -0.12839942 -0.13045943 -0.057464186 0.08480995
000300 25 ad 4c 3d 93 b3 bb 3d ae 7a 60 3d 1b e6 0f bc
       0.04996981 0.091651104 0.054804496 -0.008782889
000310 d8 4e e9 ba 7e 46 6e bd e2 1c 4b bd c7 87 95 bc
       -0.0017799987 -0.058172695 -0.04958809 -0.01825322
000320 6d ae d4 3c 27 7e 14 3e 03 6e 65 3c c0 b0 0c be
       0.025962079 0.14501248 0.01400328 -0.137393
000330 1c e2 04 be d7 2a 5a be c4 3f c0 bd 6c 72 56 3d
       -0.12976879 -0.21305405 -0.09387162 0.052355215
000340 ec b8 12 3d 3e e3 48 3e 7f 08 0a 3e 60 c2 0d 3e
       0.035820886 0.19617936 0.13479804 0.1384368
000350 65 7c b2 bc 32 f5 4e 3d 63 ce 8a 3d 9d b8 00 be
       -0.021787832 0.050526805 0.067776464 -0.12570424
000360 32 ea 1b be 25 ed 15 be 8b 29 00 be 59 56 36 be
       -0.15226057 -0.14641245 -0.12515847 -0.17806377
000370 ff cf e0 bc c9 50 bf 3d 3c 77 4f 3d 3a ab 49 3a
       -0.02744293 0.093415804 0.05065082 0.0007693056
000380 e0 d2 41 bb 40 c2 cd bc 42 0b eb 3c 1f 05 1d 3e
       -0.0029575154 -0.02511704 0.028691892 0.15333985
000390 75 24 9e 3c 76 18 37 3d df 7a 27 3b 61 e6 6d bd
       0.019304493 0.044701062 0.0025555415 -0.058081035
0003a0 fa bd 68 be 26 20 17 be 9a eb bf bc 1b 64 a3 3d
       -0.2272872 -0.14758357 -0.023427773 0.07978078
0003b0 42 49 2c 3c 33 e4 ef 3d 92 b3 db 3c d4 e6 21 3d
       0.010515513 0.117134474 0.026819024 0.039526775
0003c0 2b 97 5e bd cc b4 2e 3e 65 9a ca 3d a9 22 c6 3d
       -0.054343384 0.17061156 0.0989273 0.0967458
0003d0 a2 fe a5 3a ae 81 37 be b3 74 51 be 00 0c 91 bd
       0.0012664387 -0.17920563 -0.20454673 -0.07082367
0003e0 04 ab 66 3c d1 4f fc 3d ba 46 81 3d 6b c4 1e 3e
       0.014078859 0.12319911 0.06312318 0.15504615
0003f0 45 41 f1 3d 28 6b ba 3d 53 fd c0 3d 9a bc c5 3d
       0.11780027 0.0910247 0.09423318 0.096551135

conv1.0.bias f4 [5]
000000 c8 c2 2f bd f1 26 a6 3c f1 25 6e bb 42 f6 34 bc
       -0.042910367 0.02028224 -0.0036338533 -0.011045041
000010 ee c1 93 3c
       0.018036809

conv1.2.weight f4 [5]
000000 68 48 73 3f 3c 06 75 3f 2c 2b 85 3f 3c a2 8c 3f
       0.9503236 0.9571264 1.04038 1.098701
000010 d9 bd 64 3f
       0.89352185

conv1.2.bias f4 [5]
000000 df 40 16 3c d3 70 a2 3d 2e ee d0 3d 03 b5 cd 3d
       0.00917074 0.07931676 0.10201679 0.10044291
000010 11 72 21 be
       -0.15766169

conv1.2.running_mean f4 [5]
000000 e7 cb b1 3c 1f 78 2b 3d cf c7 2a 3d a7 4e 17 3d
       0.021703674 0.041862603 0.04169446 0.036940243
000010 21 e1 42 3d
       0.04757798

conv1.2.running_var f4 [5]
000000 a9 b0 4f 3b be 33 96 3b 96 2b fa 3b 74 52 9d 3b
       0.003169099 0.004583805 0.0076345904 0.004801089
000010 8c b2 9f 3b
       0.0048735794

conv2.0.weight f4 [5, 5, 16]
000000 8e 1f 64 3b 37 a3 78 bd f3 c4 7e 3d 0d 60 4f 3c
       0.0034808847 -0.06070253 0.062199544 0.012657178
000010 b2 3a fa bb d9 84 2d bd 29 65 20 bd 0f fa bc bc
       -0.0076363916 -0.04236302 -0.039158974 -0.023068456
000020 78 76 89 bd 5f 5a 52 3d 6f 03 bf 3c 3f 75 7e bd
       -0.06712049 0.051355716 0.023317067 -0.062123533
000030 bf 23 8d bd d0 77 bd bc 5e 31 1a be b9 1f 0d 3d
       -0.06891584 -0.02312842 -0.15057895 0.03445408
000040 b2 84 58 3c a6 09 80 bd 15 68 06 3d 75 2b d1 bd
       0.013215231 -0.0625184 0.032814104 -0.10213367
000050 ff c5 94 bd cb c4 db 3c 1b 36 52 be dd d9 c8 bd
       -0.07264327 0.026827237 -0.20528452 -0.09807179
000060 f0 d3 93 bc 6a d9 d7 bd f4 e8 04 be 65 97 31 bd
       -0.018045396 -0.10539515 -0.1297949 -0.04335727
000070 e6 70 5d bd 40 f2 d9 bd 22 57 8e bd 98 4c 9f 3c
       -0.054062746 -0.10641909 -0.06950213 0.019445702
000080 4d 9d aa bc 44 92 89 3b 24 39 a9 3c 20 93 9a bc
       -0.02082696 0.0041983444 0.02065713 -0.018868983
000090 44 d2 fc 3c f3 c4 3a bb ac bc 9c bb 02 87 de bc
       0.030861981 -0.0028498739 -0.0047832336 -0.027163986
0000a0 1e 65 74 3d e6 de 5e bc be 61 e4 3d c3 2b c0 3b
       0.059666745 -0.013602948 0.11151455 0.005864592
0000b0 ca e9 74 3d 30 5f 91 3d 13 20 b2 3d a2 95 24 3c
       0.05979327 0.07098234 0.08697524 0.010045441
0000c0 6f 68 1e 3d 07 39 b6 bc 2d 69 e3 bd 98 72 86 3d
       0.038673814 -0.02224399 -0.11104045 0.06564826
0000d0 78 93 1b be 1d 60 7b be b0 ea c7 3d 7b 13 a4 bd
       -0.15192974 -0.24548383 0.0976156 -0.08011528
0000e0 99 dd d0 3c fa 04 eb bd d8 25 09 3c ad 43 17 3d
       0.025496291 -0.114755586 0.008370839 0.036929775
0000f0 e7 21 b8 bd da 46 df 3d be b6 d0 bc 5c 12 21 3d
       -0.08990841 0.10902186 -0.025477763 0.03932415
000100 8c 93 49 3e c9 bb e4 3c 51 59 17 3e b7 a6 f2 3c
       0.19685191 0.027921574 0.14780165 0.029620511
000110 64 03 e9 3d 91 1e 2d 3d 09 25 b6 bd 73 80 ed 3d
       0.113776 0.04226548 -0.08893783 0.11596765
000120 8a 79 6a 3d cb c4 91 3d 07 7e 23 3e 7c 4f 8b 3c
       0.057244815 0.071176134 0.15966044 0.017005675
000130 54 a5 22 3d 69 df 20 3d 5b f5 6f 3d a6 5d e6 3d
       0.03970845 0.03927556 0.0585836 0.11248331
000140 1f 81 47 3d 08 7f 7b 3c 63 9c 7a 3d 28 be 9d 3d
       0.048707124 0.015350111 0.0611843 0.07702285
000150 1a 37 0c 3d 65 dd 54 3d 4a 5f be bc 89 07 98 3d
       0.034232236 0.05196895 -0.023238797 0.07423312
000160 ca 3b 59 bd 9a 72 67 bd fd 3f b4 bc a1 6f 89 3c
       -0.053035535 -0.056505777 -0.022003168 0.016776862
000170 8c af 39 3d 36 63 c0 bd 8c 2f 00 be 43 ac bb bc
       0.04533343 -0.09393923 -0.12518138 -0.02290929
000180 d3 58 a7 3d 99 df 71 bc 76 b6 b1 bc da 90 32 ba
       0.08171239 -0.0147627825 -0.02169345 -0.00068117457
000190 4e 4b f3 3d 6d 86 9c 3d 61 71 c9 3c 25 8c 53 bc
       0.118795976 0.07642827 0.024590196 -0.012911831
0001a0 d1 e9 86 bd 0a 3f f5 3c e9 83 1a bc 51 1c c4 bd
       -0.06587566 0.029937286 -0.009430864 -0.095757134
0001b0 95 d0 dd bd 10 55 99 bd 74 57 cb bd 41 c3 4d bd
       -0.108307995 -0.074869275 -0.0992879 -0.050235037
0001c0 ed db 71 bc 57 d2 a4 3d c7 74 a9 3d 44 91 0e 3d
       -0.014761907 0.08047932 0.08274227 0.034806505
0001d0 e6 88 14 3d 54 27 e0 3c b4 1a 06 bd d0 9f 4d 3d
       0.03626337 0.027362503 -0.03274031 0.050201237
0001e0 7b ee f8 3c f1 b8 d1 bd 12 59 55 bd 53 ed 56 be
       0.030387154 -0.10240353 -0.052086897 -0.2098897
0001f0 2c c0 64 be b7 41 4d be a3 bb 47 be 1b da 6e be
       -0.22338933 -0.200446 -0.19505171 -0.23325388
000200 02 79 90 3c fc 45 89 3d fc 7e 54 bc 41 03 66 3d
       0.017635826 0.067028016 -0.012969729 0.056155447
000210 2c 6d 0e 3d 81 e4 7d 3d ea dc 45 3d f6 91 82 3d
       0.034772083 0.061985496 0.048306383 0.06375496
000220 16 9f 71 3d ca eb cd 3c 88 a9 90 bd 91 35 d5 bd
       0.058989607 0.025136847 -0.070635855 -0.104106076
000230 0f f7 64 be 5b 08 26 be 3e ba 18 be 75 42 02 be
       -0.2235987 -0.16214125 -0.14914796 -0.12720664
000240 62 6f c7 3d 5e 21 ef 3d 26 21 30 3d 7a c0 86 3d
       0.097380415 0.11676286 0.043000363 0.06579681
000250 30 8e b8 bb ed ed f0 bb 39 36 c6 bc fe 9f d6 bd
       -0.0056321844 -0.0073525817 -0.024195777 -0.10479735
000260 35 30 91 3d ce a0 fb bc 90 aa 02 be b4 2a fe 3c
       0.07089273 -0.030716326 -0.12760377 0.031026222
000270 bb 71 b6 bc 91 4d 86 bb 44 a3 6c 3d 8b 59 33 3d
       -0.022271028 -0.004098602 0.05777289 0.043786567
000280 8f 7c a9 bd f9 ee a9 bc f6 a5 32 bd 30 c7 53 bd
       -0.08275711 -0.020743834 -0.043615304 -0.051703632
000290 e1 53 b3 bd 4d dc b2 bd 23 02 91 bd ba fd 17 be
       -0.08756233 -0.08733425 -0.07080486 -0.14842883
0002a0 3b 36 a5 bd 47 84 9d bd 12 93 f7 3c aa 4d 89 bd
       -0.08066984 -0.076912455 0.030221496 -0.06704266
0002b0 03 74 dc bd 52 fb 28 3b 78 cd fc bd 72 cf ea bd
       -0.10764315 0.0025784564 -0.123438776 -0.11465348
0002c0 b4 6c 92 3d bf 92 19 3d 04 c0 e1 bd 9f 75 73 bd
       0.0714964 0.037493464 -0.11022952 -0.059438344
0002d0 46 c7 01 3b 6b 45 39 3d 3f 36 9c bd 80 c2 78 bd
       0.0019802614 0.045232218 -0.07627534 -0.060732365
0002e0 04 df 9b bd 8e 72 f6 3c 79 a5 22 be 0a 0b 35 bd
       -0.07610896 0.03008392 -0.15883435 -0.04419998
0002f0 3d 87 c8 bc 1e 39 c0 bc 34 1d 85 3b ef 20 6d bd
       -0.02447855 -0.023464736 0.004062319 -0.057892736
000300 a9 b1 85 3d bb 7e 44 3d 36 dc 58 3d 51 bc 04 3e
       0.065280266 0.047972422 0.052944385 0.12962462
000310 5a d7 fa 3d 39 5a 29 bb f8 c9 0d 3e dc fb a6 3d
       0.12248106 -0.002584113 0.13846576 0.08153507
000320 b4 a9 3b 3d 57 34 98 3c 58 87 c5 3d 62 33 f7 3c
       0.04581614 0.018579645 0.096449554 0.030175868
000330 77 c9 af 3d 36 a9 ca 3c b2 cd a5 3c 01 95 f1 3d
       0.08583348 0.02473889 0.020239685 0.11795998
000340 ea 61 5c 3d 09 84 ff bd 1f 6c d5 3d 49 c2 03 bd
       0.053804316 -0.124763556 0.10421013 -0.032167707
000350 84 e7 9b bd 03 70 c5 3b 57 0a b3 3c 3a ba e5 bc
       -0.076125175 0.0060253157 0.021855516 -0.028042901
000360 39 30 54 3b 84 31 a4 bd a2 81 4f bd b2 e2 24 bd
       0.0032377376 -0.08017257 -0.050660737 -0.040255256
000370 70 aa 56 3b 88 da dc bd 8d ad 8a 3d 2e 0f 2a bd
       0.0032755397 -0.10783869 0.067713834 -0.041518383
000380 b3 93 a2 3c 30 6b bd 3d 4d 03 cf bc cb 41 83 3d
       0.01984582 0.0924896 -0.025270129 0.064090334
000390 1e ef 21 3d 22 69 32 bd de f0 c0 3c 65 99 83 bd
       0.03953468 -0.043557294 0.023552354 -0.06425742
0003a0 76 40 a1 3d 7f 5c 55 bc 93 0b f1 3b 44 b1 13 bc
       0.07873623 -0.013022541 0.007356116 -0.009014431
0003b0 8e 64 a6 bd 81 fd a2 bd 9e b7 a7 bd cd 49 64 3c
       -0.08124648 -0.07958508 -0.08189319 0.013933611
0003c0 71 8c 37 3d 20 ba 45 3d 65 a2 e2 bb 70 46 27 bd
       0.04481167 0.048273206 -0.0069163316 -0.04083866
0003d0 a6 4e 65 bc f0 ab 3b 3d 8e 48 0f be 1f 9c cc 3d
       -0.013995802 0.04581827 -0.13992521 0.09990715
0003e0 18 0f be 3d e3 25 96 bc cf b9 b6 bd 89 d1 b3 bd
       0.09280223 -0.018328613 -0.08922159 -0.087802
0003f0 59 0d c3 bd 42 0d af 3d c8 96 63 3d ee 43 12 bd
       -0.0952403 0.085474506 0.055563718 -0.035709314

conv2.0.bias f4 [5]
000000 1b 81 4c be ba 14 69 be 99 24 0d 3d 9d a7 e2 bc
       -0.19971125 -0.22761813 0.03445873 -0.027667815
000010 62 7f da bd
       -0.106688276

conv2.2.weight f4 [5]
000000 cc ba 78 3f 1d 54 92 3f fa 4d 66 3f 36 34 4d 3f
       0.9716003 1.1431919 0.8996273 0.8015779
000010 7a 72 5a 3f
       0.8533093

conv2.2.bias f4 [5]
000000 5c da 03 bc 48 6d 79 3d c6 ca 49 bc 57 1a 5d 3c
       -0.008047666 0.060895234 -0.012316411 0.013495049
000010 ac b5 07 39
       0.00012942281

conv2.2.running_mean f4 [5]
000000 b5 25 83 3d eb 7b 05 3e 76 e5 2a 3e 75 1e 2a 3e
       0.064036764 0.13035552 0.16689095 0.16613181
000010 32 a7 20 3e
       0.1568878

conv2.2.running_var f4 [5]
000000 3e cf b5 3c 60 2a 68 3d 75 48 27 3d 07 e8 b5 3d
       0.022193547 0.056681037 0.040840585 0.08882146
000010 33 a5 a7 3d
       0.08185806

fc1.1.weight f4 [2, 520]
000000 35 f3 34 bd c3 12 88 bd b8 f9 39 bc 28 63 15 bd
       -0.044177253 -0.066442035 -0.0113510415 -0.036471516
000010 18 ca 7b bc fb 93 18 bd 3a 12 18 bc 9c 96 54 bd
       -0.015368007 -0.0372505 -0.009281689 -0.051901445
000020 6b 51 7c bd a3 5d e0 bc fe ba 8b bd 64 a7 43 bd
       -0.061601084 -0.0273884 -0.06822775 -0.047767058
000030 db a2 97 bd 95 e1 0f bd 10 68 08 bc ad 68 7e bd
       -0.07404109 -0.03512724 -0.008325592 -0.062111545
000040 96 4f 69 bd 23 ee 44 bd ed 73 71 bd d3 51 43 bd
       -0.056960665 -0.048078667 -0.058948446 -0.047685456
000050 50 5c 9c bd 39 04 ce bc 85 05 87 bd 6d 13 37 bd
       -0.07634795 -0.025148498 -0.0659285 -0.04469626
000060 55 6d 35 3b 52 6e 1e bd db 15 1c bd 18 aa 00 bd
       0.0027683575 -0.03867943 -0.03810678 -0.031412214
000070 be 5a 36 3d 55 39 90 3c 3a 71 b4 3b 11 ff 4a bd
       0.044520132 0.017605463 0.0055066617 -0.049559657
000080 f4 a2 31 bd 9b 9a 08 bd f0 60 20 bd 91 a0 27 bd
       -0.043368295 -0.03335057 -0.039154947 -0.040924612
000090 33 b5 d1 3b b2 54 40 bc 39 61 61 bc 47 28 33 bd
       0.0063997745 -0.011738943 -0.01375609 -0.043739583
0000a0 fe 94 f2 bc 00 14 05 bd 85 86 10 bd 3d ef 1b bc
       -0.02961206 -0.032489777 -0.035284538 -0.009517488
0000b0 f9 4a 82 bc 99 6f 34 bd 80 e4 24 bd 4d 05 15 bd
       -0.01590489 -0.04405174 -0.040256977 -0.03638201
0000c0 98 77 b7 bc 59 b8 81 bd 9c 0b 9a bd 56 4d 08 bd
       -0.022395894 -0.0633399 -0.075217456 -0.03327688
0000d0 62 ab fa bc 77 e7 83 bd 4a cb 08 bd 72 d8 68 bc
       -0.0305993 -0.06440633 -0.033396997 -0.014211761
0000e0 40 5d c6 bc 22 0c ba bc 32 19 d8 bc 50 88 87 3c
       -0.024214387 -0.022710864 -0.026379202 0.016544491
0000f0 d0 2e 12 bd 06 62 22 bd 73 86 26 bd f6 06 02 bd
       -0.035689175 -0.039644264 -0.040655565 -0.03174492
000100 76 86 81 bc b1 65 6c bd 68 41 81 bb 18 90 20 bd
       -0.015811186 -0.057714168 -0.0039445646 -0.03919992
000110 12 81 99 bc 25 dd 1a bc 69 b9 91 bc c2 54 30 bd
       -0.018738303 -0.009452139 -0.017788606 -0.04304958
000120 30 15 da bc 94 90 52 3c f3 8d 43 bd aa 32 87 bd
       -0.026621431 0.012851853 -0.047742795 -0.0660146
000130 0c 7a c7 bc 55 91 c9 bc b8 14 fa bb 96 34 24 bd
       -0.024350189 -0.024605433 -0.0076318644 -0.040089212
000140 e2 d4 0d bd 81 cd 38 bd 7b 18 3d bd 0b 0d 22 bd
       -0.03462685 -0.04511786 -0.046165925 -0.03956322
000150 a4 3e 3f 3b 78 08 db bb 05 7b 36 bd dd 07 9d bd
       0.0029181624 -0.006684359 -0.044550914 -0.076675154
000160 2d 17 51 3c 9a 49 ba bc f7 63 5c bd b8 87 54 bd
       0.012761873 -0.022740174 -0.05380627 -0.051887244
000170 e8 cf c6 bc 66 13 c2 bc 55 c8 31 bd 88 af 41 bd
       -0.02426906 -0.02369089 -0.043403942 -0.04728654
000180 0e 91 2b bc cf 83 fd bc 5b 91 19 bd dc a4 06 3c
       -0.010471595 -0.03094664 -0.037492137 0.0082180165
000190 4f d1 a2 bd 7a ff fe bc 25 25 94 bd 09 66 53 bc
       -0.07950079 -0.03112768 -0.07233647 -0.012902745
0001a0 42 52 ab 3d ae fd 60 3d 43 ba a5 3d 9b 45 51 3d
       0.08365299 0.054929428 0.08092167 0.05109177
0001b0 36 d6 3e 3d 99 82 f8 3c b0 07 9a 3d da 22 62 3d
       0.046591006 0.030335711 0.075209975 0.05520902
0001c0 e6 b5 94 3d ae 07 4c 3d 8f 92 f7 3c a0 46 69 3d
       0.07261257 0.04981201 0.030221252 0.05695212
0001d0 5d e3 47 3d 61 0a 02 3d cd 42 81 3d 84 31 51 3d
       0.048800815 0.03174818 0.06311569 0.051072612
0001e0 c5 9b 79 3d 04 c2 79 3d b2 0c 48 3d 8b 71 a8 3c
       0.06093957 0.060976043 0.048840232 0.020561954
0001f0 e2 2a 86 3d 61 04 4b 3d 94 87 73 3d 29 8f a9 3d
       0.06551148 0.049564723 0.05945547 0.08279259
000200 ce b2 ae 3d b5 a1 4f 3d 48 ac 13 3d 06 58 22 3d
       0.08530198 0.050691325 0.036052972 0.039634727
000210 f0 9c 1a 3d 07 b5 5f 3d 1c 60 8e 3d 7d a5 9e 3d
       0.037747324 0.054616 0.06951925 0.07746408
000220 7c 9a f3 3c 0f de 03 3d 72 96 e2 3c 35 a8 9e 3d
       0.02973675 0.032194193 0.027659629 0.07746927
000230 f0 60 3a 3d 8d 06 a5 3d 7d 10 8c 3d 72 eb 86 3d
       0.045502603 0.0805789 0.068390824 0.065878764
000240 38 0f 9e 3d 7a 24 a3 3d b7 1d 9a 3d a9 86 59 3d
       0.077177465 0.07965942 0.07525199 0.053106938
000250 2a 75 71 3d 0c c1 ac 3c 1c 75 d4 3d ed 1a 86 3d
       0.058949627 0.021088146 0.10373899 0.065481044
000260 41 5a 29 3d e8 df a5 3d c3 a6 c6 3d d5 e5 83 3d
       0.04134584 0.08099347 0.09699776 0.06440321
000270 d5 ca 91 3d 7f da 89 3d 2c a3 5c 3d de 7d 8a 3d
       0.07118765 0.06731128 0.05386655 0.067622885
000280 78 84 27 3d 06 c3 e3 3c a3 94 de 3c 83 06 1c 3d
       0.040897816 0.027802955 0.027170485 0.038092148
000290 00 6a 98 3d d0 5c 94 3d db af 8b 3d e2 90 16 3d
       0.07442093 0.07244265 0.06820651 0.036759265
0002a0 9a 37 9b 3d a8 e8 73 3d d4 ab 71 3d cd 5d 31 3d
       0.075789645 0.05954805 0.05900176 0.043302346
0002b0 01 27 c8 3c a7 ca 6d 3d 96 05 80 3d b9 f9 d4 3d
       0.024432661 0.058054592 0.062510654 0.10399193
0002c0 af ed 56 3d 24 2b 75 3d 64 ce 79 3c 00 65 ce 3d
       0.052472766 0.059855595 0.015246961 0.10077858
0002d0 dd 99 29 3d b4 df a3 3d be 91 22 3d d0 75 96 3d
       0.0414065 0.08001652 0.03968977 0.0734669
0002e0 60 2c 94 3d 9f 0e 93 3d 38 61 9d 3c 21 31 32 3d
       0.07235026 0.07180523 0.019211397 0.043503884
0002f0 b6 3d 0e 3d 1c 3d bb 3d f6 76 06 3d 85 20 a9 3d
       0.03472682 0.09142515 0.032828294 0.08258156
000300 70 5f 84 3d 22 b5 9a 3d 0e 41 7c 3d 09 29 78 3d
       0.06463516 0.075540796 0.06158548 0.06058601
000310 98 0d cc 3d 1d 80 1e 3d a1 c1 a9 3c 1d 4a d8 3d
       0.0996353 0.038696397 0.020722212 0.10561011
000320 b6 71 30 3d 76 2e 88 3d c9 d5 33 3d 42 1d b6 3d
       0.043077193 0.06649487 0.043905053 0.08892299
000330 10 a9 8e 3d 26 0e bb 3c 68 aa 60 3d 72 89 9f 3d
       0.0696584 0.022833895 0.054850012 0.077898875
000340 14 e3 43 bc fe 20 11 bd 07 b0 c9 bc af 11 a4 3c
       -0.011955995 -0.035431854 -0.02462007 0.020027963
000350 49 f7 bd bc 01 9d ca bc 9f fb 4b bd 0c f3 f0 bc
       -0.023189204 -0.024733068 -0.04980051 -0.029412769
000360 b6 61 f3 bc 86 7e 15 3d cc 72 ec bb b6 da 44 bd
       -0.029709678 0.036497615 -0.0072158333 -0.04806014
000370 eb cf 9d bc a5 14 2d bd c6 bd c9 bc a3 b2 df bc
       -0.019264182 -0.042256016 -0.024626624 -0.02730686
000380 37 91 5b bb b5 f4 13 bd 8a cb 91 bd 0a d6 29 bd
       -0.0033503303 -0.036122043 -0.071189 -0.04146389
000390 5a 7b 35 bd 9a 51 17 bd 3f 30 98 39 b0 dc 08 bc
       -0.04430709 -0.036943056 0.00029027645 -0.008353397
0003a0 a9 c8 6d bb 7f ac d0 bb 79 a9 20 bd 60 fc dd bc
       -0.0036282933 -0.0063682194 -0.03922412 -0.02709788
0003b0 39 76 28 bc 6d 81 39 bd 30 56 07 bd d2 9a 63 bd
       -0.010282093 -0.045289446 -0.03304118 -0.05556757
0003c0 62 5b 4e bc 59 1d 60 bd ee 85 b9 3b e8 74 8c bc
       -0.01259503 -0.054715488 0.0056617176 -0.017145589
0003d0 b3 55 de bc 1e 9b 38 bc 5e a2 66 bc db c0 5f 3c
       -0.027140474 -0.011267452 -0.014076797 0.01365682
0003e0 6c 8d a5 bc 8f 6d 41 bd ab ce b8 3a 6f da ec bc
       -0.020209037 -0.047223624 0.0014099678 -0.028912751
0003f0 46 1d 9e bb 7a 1e 26 bd bb bf 44 bc 1c 47 5a bd
       -0.004825267 -0.04055641 -0.012008603 -0.05329047

fc1.1.bias f4 [2]
000000 ec 77 ab bc f4 6a 3f bd
       -0.020931207 -0.046732858
