saved_models/SunNet.pkl (torch, 46735 bytes, 20 tensors)

_initializer_conv1_0_weight f4 [2, 1, 10, 1]
00000000: a306 0fbe 793d 823e 656c 2cbf 8759 1dbf
00000010: 1d54 e33f 5ac3 d53f dd9e bfbf 2414 10c0
00000020: 4690 a23e 33cb 0740 2221 3240 13b9 58be
00000030: 36d3 02c0 738c 8dbf a47b 87bf f966 debf
00000040: 9d7a 8dbf bf61 f33f 1c32 0e40 c8d1 25bf
-0.13967375 0.25437525 -0.67352897 -0.6146473 1.7760044 1.6700242 -1.4970356 -2.2512293
0.31750697 2.1217773 2.7832723 -0.2116435 -2.0441413 -1.1058487 -1.0584607 -1.7375175
-1.1053044 1.9014205 2.2218084 -0.64773226

_initializer_conv1_0_bias f4 [2]
00000000: ebc3 5cbc e53b 23bc
-0.013474445 -0.00996301

_initializer_conv2_0_weight f4 [4, 2, 9, 1]
00000000: a38a 873f 1ff6 6d3f 242b 4abf d451 86bf
00000010: faa8 8abf 3f65 08bf b322 aebe c2e5 35bc
00000020: 95fd 873d a617 533f 19a1 8d3f 2812 b43e
00000030: ea92 81bf bbe8 d0bf af54 5cbf 5a31 e6be
00000040: c4c1 e5bd c27f 35bd 1cb5 593f 96a7 183c
00000050: cc0e f73d a036 5bc0 e570 c6bf 6da1 26c0
00000060: 9b22 793e 1613 84bf 013b aabe a05a 773f
00000070: aa3d 74bf df03 0fbf 346e 5ac0 4491 81bf
00000080: a158 51bf b9f9 94bf ca41 593e f54d 10bf
00000090: ee37 1dbf 7230 edbe 38e7 1b3d 6aa6 ed3e
000000a0: 78dd 353f 78a2 5a3f 1016 183f 2a0b f13e
000000b0: d661 253e c8e1 b4be 3116 36bf ca0b 6bbd
000000c0: d84b bb3e ab6c 4c3f 2c2e 873f da24 113f
000000d0: aa84 2f3f 28a9 f33e 2f8a 963e 0ef0 103f
000000e0: a5dd 793f a602 363f f598 2a3f e179 92bf
000000f0: 7e42 aebf e128 41bf 91ec f7be 0313 fb3c
00000100: f27a 1a3f 0832 4d3f 53ca 743f ca07 223f
00000110: 8ea1 72be a9b0 80bf ddbc 97bf 03a5 14bf
1.0589184 0.92953676 -0.7897208 -1.0493722 -1.0832818 -0.5327949 -0.34010848 -0.011102142
0.06640164 0.8245796 1.1064788 0.35170102 -1.012296 -1.6321024 -0.86066717 -0.44959527
-0.112185985 -0.044311292 0.85041976 0.009317299 0.12063369 -3.425209 -1.5503203 -2.6036026
0.24329607 -1.0318325 -0.3324814 0.9662266 -0.9540659 -0.5586528 -3.4129763 -1.0122457
-0.8177586 -1.1638709 0.21216503 -0.56368953 -0.61413467 -0.46326023 0.038062304 0.46416026
0.7104106 0.8540416 0.59408665 0.4707883 0.16150603 -0.35328507 -0.7112761 -0.05738429
0.36581302 0.79853314 1.0560966 0.56696856 0.68561804 0.47589993 0.294023 0.56616294
0.9760383 0.7109779 0.66639644 -1.1443444 -1.3614042 -0.75453 -0.48422673 0.030648714
0.6034385 0.80154467 0.9562122 0.63293135 -0.2369444 -1.0053912 -1.1854511 -0.5806429

_initializer_conv2_0_bias f4 [4]
00000000: 1cc4 57b9 442e 04bf 6e07 033e 66ba d93b
-0.00020577054 -0.51633096 0.12795803 0.006644535

_initializer_conv3_0_weight f4 [8, 4, 8, 1]
00000000: e134 8a3e 3e1a 33be 8162 933a 9721 e03e
00000010: 8d51 dabd 0905 49c0 cea9 f7bf 413c 903e
00000020: 719f 7abf 0a2e 033e cc5a 5dbf e5f4 fd3d
00000030: 69df b6be 76aa 87bf 5c24 05bf 47ee 88bf
00000040: e8b3 2ebe 693c 2c3d 7f72 e73c 1915 603f
00000050: ebc3 4fbf f03a f2bf 8d7a 253f fa43 103e
00000060: 1687 2f3d a318 0c3e 57ec 3fbe 225c 0d3f
00000070: ab77 f93e 7e16 3cc0 9fba c23d 31d4 053f
00000080: 4747 5cbc 97f3 303e 553c e8bd a636 1bbe
00000090: 87c7 54bd 401e 58be 24cc 16be de7c 543b
000000a0: 39d8 6b3d bcad fb3d 7ca6 303e 4c5f 21bd
000000b0: 98b4 a7bd 12fa 03be a3f8 3dbd 3f40 233e
000000c0: c1d3 6fbe 0665 58bd 237f 76be 405f 4cbe
000000d0: 9fa7 333d ab4f 63be 0572 97bd aa15 0cbd
000000e0: e7dc 81bd 4646 6abe 55e7 75be b4df b5bc
000000f0: 7d53 f23c cf6a 433c cba7 b43a 2977 07be
00000100: 79b9 be3e bdef 2f3e 32ee 5ebd c67e d7be
00000110: 9eaa a0bf aa90 bbbd a54d 2cc0 71f4 2e3e
00000120: 6357 d63e d754 2dbf e3fa 7fbd 5062 02bf
00000130: 9237 6abf c976 87bf db90 dbbe 6552 12be
00000140: c124 113e 51aa a63c 7a73 1abe e8d0 5bbf
00000150: 5976 8c3f e070 8ebf c6c7 95bf c9f3 3a3f
00000160: 798a a33e 079f 373d 172e f73e 53f6 adbf
00000170: c9f8 c23e fc4e e33e 1c2b 21c0 274b b73e
00000180: 0bc2 bbbe a80f 083e 03b7 de3e dd44 0c3e
00000190: 691b 1fc0 ffdc c6bf 9568 203e d694 c3bf
000001a0: b2a9 983e 6d4f dabf 5354 41bd e300 cdbe
000001b0: 0859 ecbf d3ae d53f eb8d 96bf 84dc c63f
000001c0: e932 d63d 6a13 023e f26d 593f cb0c d7be
000001d0: d1ef b7bf d136 603f b197 9dbe 98ad 15bf
000001e0: 097c 043d d635 2e3d 7faf 1a3f d413 d83e
000001f0: cfe1 37c0 d5b4 f43e 275e c03e 209c ebbe
00000200: f430 d53d b82b e93e 2ea2 373e c345 873d
00000210: 1b22 ee3e 0272 da3c 0d9a a83d 5880 5dbd
00000220: f4c6 07bf 885c 363e 374d 46bf 0e2e b2be
00000230: a821 16bf c06a a8bf 5a5c 9abe cc56 8dbf
00000240: e9c8 6bbe 1c4f 3e3e 5e7d 993e 5ac4 0a3d
00000250: 3ba7 523e 7884 e2bd 72f7 a53e 75b7 7c3d
00000260: 2f0c 323e df09 9f3e 9e85 d43e 6427 273f
00000270: 2487 dc3e b4d3 083d 342c 3bbb 4b6e 393e
00000280: 9a3c ffbd c140 abbd fff8 29be f424 28bd
00000290: 98bf 60be 98a5 adbe 53d1 dbbd 9fa1 d6bd
000002a0: 8f4b 07bf c917 72bf 844c abbf 3966 e5be
000002b0: b166 c7bf 1a0b 9bbf 15ab 1ebf 85d5 acbf
000002c0: c331 133d ce38 333e 936a 613e b936 653e
000002d0: 7842 753e c4dd 5a3d 08b6 203e be33 073e
000002e0: cc41 9b3d 0482 b1be 011d 56be 5658 a3be
000002f0: d38e 07bf 3a09 abbe bc26 d3be 7fce 6fbe
00000300: 55d3 523d 7f08 07bf 2e36 c73d ef2f 01bb
00000310: 0aeb 3ebd 75a6 ad3d 99f2 24be 46a3 0dbe
00000320: 1ed3 78bd 292b 1ebe 6fa7 f33d a14d 263e
00000330: 1262 023d 1f99 a8bd 34c7 2dbd c8be f9ba
00000340: b98d 94be cc64 32be 8502 92be ab04 95bd
00000350: e367 54be 61b2 c2bc 3fd0 1abe c488 9fbd
00000360: a5a6 24be 453a f5bd 8eaf f2bd ddd3 493c
00000370: 4ef3 b93d 50c0 98bd 778e 6fbd e0db 543d
00000380: 0453 c7bc dcb1 6ebe ce33 3abe 53cf 5ebd
00000390: 066c 66be bd50 3fbe 0135 5cbd e656 20be
000003a0: 51a6 0cbe 1723 8e3d 5b8e f1bd a692 04be
000003b0: ed95 5fbe e9b6 de3d ee19 103e 6615 30be
000003c0: eee4 0ebe 87e6 bebd 4567 babc a242 41bd
000003d0: 7cd1 7bbe 0620 83be 8fab 10be 40c3 3ebe
000003e0: 012d 3ebc b902 57be 650c ab3a ed71 e2bc
000003f0: 422c 11be ca97 8fbe 9dfa 35be 94a3 66be
0.26993468 -0.1749048 0.0011244566 0.43775627 -0.10660086 -3.1409323 -1.9348695 0.2817097
-0.9789954 0.12810531 -0.8646667 0.124002255 -0.35717323 -1.0598896 -0.52008605 -1.0697716
-0.17060816 0.0420498 0.028252838 0.8753219 -0.8115832 -1.8924236 0.6464012 0.14088431
0.042853437 0.13681273 -0.187425 0.5521871 0.48724112 -2.9388728 0.095082514 0.52276903
-0.013444728 0.17280422 -0.113396324 -0.15157565 -0.051948097 -0.2110529 -0.14726311 0.003242306
0.057579253 0.122889966 0.17251009 -0.039397523 -0.081887424 -0.12888363 -0.046379697 0.15942477
-0.23420621 -0.05283072 -0.24071936 -0.1995821 0.043861028 -0.2219836 -0.073947944 -0.034200348
-0.06340962 -0.2287837 -0.24014027 -0.022201397 0.029580826 0.011927321 0.0013782916 -0.1322905
0.3725088 0.17181297 -0.05442638 -0.42088908 -1.2552068 -0.09158452 -2.692239 0.17085434
0.41863546 -0.6770758 -0.062495124 -0.5093126 -0.91491044 -1.0583125 -0.42883953 -0.14289244
0.14174177 0.020344885 -0.15083113 -0.8586564 1.0973617 -1.1128197 -1.1701591 0.73028237
0.31941584 0.044829395 0.4827735 -1.3590797 0.38080433 0.44396198 -2.5182562 0.35799524
-0.3667148 0.13287222 0.43499002 0.13698144 -2.486048 -1.5536193 0.15664895 -1.5279796
0.29816967 -1.7055489 -0.04719956 -0.4003974 -1.846467 1.6693977 -1.176206 1.5536046
0.10458929 0.12702718 0.8493339 -0.42001948 -1.4370061 0.87583643 -0.30779794 -0.5846801
0.03234485 0.04253181 0.60424036 0.42202628 -2.8731573 0.47794214 0.37571833 -0.4601755
0.10409728 0.45541167 0.1793296 0.06605103 0.46510395 0.026665691 0.08232508 -0.054077476
-0.53037953 0.17808735 -0.7746157 -0.34800762 -0.58645105 -1.3157578 -0.30148584 -1.1042113
-0.2302586 0.18584865 0.2997846 0.03387866 0.20571606 -0.11060423 0.32415348 0.061698396
0.1738746 0.3106222 0.41508192 0.6529448 0.43071854 0.03340502 -0.0028560283 0.1810848
-0.12462731 -0.0836196 -0.1659889 -0.041050866 -0.21948087 -0.339154 -0.10733285 -0.104800455
-0.5284967 -0.94567543 -1.3382726 -0.44804552 -1.5578214 -1.2112763 -0.619798 -1.3502661
0.03593613 0.17502138 0.22013311 0.22384156 0.23951137 0.05343415 0.1569444 0.13203332
0.07580909 -0.34669507 -0.20909502 -0.31903332 -0.5295231 -0.33405477 -0.4124049 -0.23418616
0.051471073 -0.5274734 0.09727131 -0.0019712409 -0.04661087 0.08479015 -0.16108169 -0.13831815
-0.060748212 -0.15446152 0.1189717 0.1624055 0.03183181 -0.082323305 -0.042426303 -0.001905405
-0.29014376 -0.17421263 -0.28517547 -0.07276281 -0.20742755 -0.023766698 -0.15118502 -0.07789758
-0.16079195 -0.11974005 -0.11849891 0.012318579 0.0907961 -0.07458556 -0.058485474 0.0519675
-0.024331577 -0.23310035 -0.18183824 -0.05439694 -0.22502145 -0.18683143 -0.053761486 -0.15658149
-0.1373532 0.069402866 -0.1179473 -0.12946567 -0.21834536 0.10874731 0.14072391 -0.17195663
-0.13954517 -0.09321313 -0.02275432 -0.047182687 -0.2459163 -0.2561037 -0.14127944 -0.1862917
-0.011607409 -0.20997132 0.0013049959 -0.027642215 -0.1417704 -0.28045493 -0.17771383 -0.22523338

_initializer_conv3_0_bias f4 [8]
00000000: 1240 9c3e 5f32 1dbe 548e d63e dc20 cc3e
00000010: c8de 32bf 8f47 913f ef4a e1bd 14c7 053b
0.30517632 -0.15351246 0.41905463 0.3986882 -0.6987119 1.1349963 -0.110006206 0.002041285

_initializer_fc1_0_weight f4 [16, 32]
00000000: 0acd c7be 665a 0f3c 2dda 43bf eb14 debf
00000010: 5ae5 2d3e 1ca7 aa3d 92e3 a1bb 5146 2a3e
00000020: 5975 10bf 17bf 28bf e6a3 bbbf 1972 c5bf
00000030: 7dde 6abf a9aa 93bf cd84 87bf 37d5 c4bf
00000040: 5b22 d2be 354e cebd 1fb7 7abe 8b0f eebd
00000050: d488 083e eab3 303e 69d3 203d 87ce df3e
00000060: 0897 93bd 7145 463c 70af fe3d 464a af3d
00000070: 6d50 0d3d b0ae 083e 6b5a 6d3e a873 453e
00000080: fe9c bbbe c8f1 2ebf 5fc4 ebbe b7e0 9dbf
00000090: cc77 abbd df0c 253e 4485 b3bd 0f55 153d
000000a0: ab7a 9ebf 489a b6be 02b8 b3be 9026 b0be
000000b0: 9d4e 37bf 727c 82bf fab5 38bf 7395 a4be
000000c0: 2a56 c13e dd67 d13e f108 bf3e a687 e13e
000000d0: 4fb6 78bb 186b bd3d 9039 643e b284 273e
000000e0: 2fa1 babd bc3a bf3d db1e e03d 5c54 70be
000000f0: 6fe8 943d d50c 823e 2da9 903d 18b5 c1bc
00000100: 71e2 29bf c22d 4ebf 1a27 28bf af31 2bbf
00000110: 7777 f23c e35e 11be f4ef 93bd 1251 c0bb
00000120: 400e 26bf c15a c4be c477 5cbf 9ad3 25bf
00000130: 0897 f4be 89dd 2ebf 7384 34bf 9726 62bf
00000140: 7b7d 1e3f 1c49 b73e 7471 d83e d04e 183f
00000150: 6702 673e 641b b33d 9354 843d 527d b23d
00000160: 144c 1d3e f1f3 a8bd 76f1 fe3d ba30 e73c
00000170: 4a93 0c3e 4dab cb3d 5bde 733d c84a 87bd
00000180: 359b b6bf 1d1f 9fbf 9619 b0be 1d4a 223f
00000190: b0e6 c7bd f98a 5abd 309f 023d 21df 42bd
000001a0: 80a7 d5bf a7c6 45bf 7006 eb3d 52c9 863e
000001b0: 32b8 c2bf 0240 93be 7fd1 24be 0709 40be
000001c0: 4966 b03e 6dea c2bd 756a 89bf dccb c4be
000001d0: e25e 263e 6c8a 193e bfdc dfbd 66a1 b43e
000001e0: e26c 0a3c 9cc0 91bd 38aa 723e 6bc4 bcbd
000001f0: 8748 f7bb 48fc 8bbd 6857 1dbc db06 cb3d
00000200: 409e 95be 0157 9dbd 431e 683e 1fb4 0dbf
00000210: 0021 c43c 29d1 8f3d 3b90 6b3d d557 243e
00000220: 3ce8 15be 4623 073c 2de0 babe 2af2 b5be
00000230: 354a eebe 84e5 44be c245 87bc 9f55 00bf
00000240: 0cf0 a0bf 8e99 bdbe 265d 3dbc 6ad2 df3d
00000250: 6c27 813d bb31 bfbd 9b4a c5bd acca a7be
00000260: 9f73 8d3d b48e 52bb d1cd 1d3e 3922 373d
00000270: 8065 2b3e 14bd 5e3e 0795 963d c1e2 183e
00000280: eb6e 62bf 15fd 4dbf d33a 48bf 91fd 59be
00000290: d5e9 bbbd b384 eabd 4d78 f6bd e37e c03d
000002a0: 601f bbbe 07f3 28bf 4464 68bf 7d18 3bbf
000002b0: f09a f8be 3eb7 45be 39c9 01bf c4f6 52bf
000002c0: 2fe5 e73e 7dee 293e 3bd5 2e3e b0a6 833e
000002d0: 1ebc ab3e 1923 633e 576c a13d a850 a73d
000002e0: 42d1 8b3d 914f f33d 0da9 b83c c281 1bbc
000002f0: 45e7 693d 92ae ae3d 5440 c1bd 8558 bcbd
00000300: 7e76 40be f771 74be 4c3c c0bd 6c50 7ebe
00000310: 3805 38bc 7f78 f8bd d2eb e3bd bbac 223e
00000320: 39c8 51be e754 5fbe c8ca 6bbe 58c2 85be
00000330: 2af1 27be ace6 82be 781a 93be ddf0 93be
00000340: 1f98 12be 165b c5be 669d 3bbe ea49 0bbe
00000350: 2e78 32be b8eb 39be 2f90 bbbe 79a4 91be
00000360: 9e48 663d 9508 293e 91ec 9cbc 72c0 883d
00000370: 9708 64bd e0c4 2b3e 049b c53d 0bfa 843d
00000380: 4518 a53e b09f 333e 3d29 3c3e d1ad 763e
00000390: 6828 19bd e3fe fd3c 0f5b eabd 65cb 2ebe
000003a0: 86db 903e 1005 133e dd6e 423e 662a 283e
000003b0: a3c7 4f3e b866 4d3e 5643 353e f4bd 7a3e
000003c0: 14e3 18bf cd4e c2be f54e eebe 892d a2ba
000003d0: 2474 2a3e 5a77 a03e d0e2 223e a90c c63e
000003e0: 1a87 babe ebd9 9abe d554 da3d acd0 08be
000003f0: 51c5 ad3e 1ebe 323c 32fb e43d f3dc f23d
-0.3902362 0.00874958 -0.76504785 -1.7350134 0.16982022 0.08332655 -0.0049404586 0.16628386
-0.5642906 -0.6591658 -1.4659393 -1.5425445 -0.9174574 -1.1536456 -1.0587403 -1.5377568
-0.41041836 -0.100735106 -0.24483918 -0.11624058 0.13333446 0.17256132 0.039264116 0.43712255
-0.07206541 0.012101517 0.12435806 0.085590884 0.034500528 0.13347888 0.23179023 0.192824
-0.36643213 -0.6833768 -0.46048257 -1.2334203 -0.08372459 0.16118191 -0.08765653 0.03645807
-1.2381185 -0.35664582 -0.35101324 -0.3440442 -0.7160433 -1.0194228 -0.72152674 -0.3214527
0.3776105 0.40899554 0.3731151 0.44048804 -0.0037950461 0.09248942 0.22287583 0.16359213
-0.091127746 0.093373746 0.10943385 -0.2346968 0.07270896 0.25400415 0.07063518 -0.023645923
-0.6636115 -0.8053857 -0.65684664 -0.66872686 0.02959798 -0.14196353 -0.07223502 -0.0058690393
-0.64865494 -0.3835049 -0.8612025 -0.64776003 -0.47771478 -0.68306786 -0.705146 -0.88340133
0.6191022 0.35797966 0.42274058 0.5949526 0.2255951 0.08745459 0.06461444 0.08715309
0.15361053 -0.08249653 0.12448399 0.028221477 0.13728061 0.099447824 0.059538227 -0.0660606
-1.4266115 -1.243137 -0.3439452 0.6339434 -0.09760797 -0.05335519 0.031890094 -0.047576074
-1.6691742 -0.77256244 0.11475837 0.2632547 -1.5212462 -0.28759772 -0.16095541 -0.18753444
0.34453037 -0.095173694 -1.0735613 -0.38436782 0.16247132 0.1499421 -0.10930776 0.35279387
0.008448811 -0.071168154 0.23697746 -0.09217151 -0.0075464877 -0.06835228 -0.009603359 0.09913417
-0.29222298 -0.0768261 0.22667794 -0.5535297 0.023941517 0.07022316 0.057510596 0.1604913
-0.14639372 0.008248156 -0.36499158 -0.3553632 -0.4654099 -0.19228178 -0.016512755 -0.5013065
-1.2573256 -0.37031215 -0.011557853 0.10928805 0.06306347 -0.09335657 -0.096333705 -0.32771814
0.069068186 -0.0032128515 0.15410544 0.04471037 0.16737938 0.21751815 0.073526435 0.1493025
-0.884505 -0.804643 -0.7821476 -0.21288134 -0.09175459 -0.114510916 -0.12034664 0.09399202
-0.36547375 -0.6599583 -0.90777993 -0.7308424 -0.48555708 -0.19308183 -0.50697666 -0.82407784
0.4529204 0.16594882 0.17073528 0.2571311 0.3354196 0.22181357 0.07881992 0.08169681
0.06827022 0.118804105 0.022541547 -0.009491386 0.05710532 0.085293904 -0.09436098 -0.09196571
-0.18795201 -0.23871599 -0.09386501 -0.24835366 -0.011231713 -0.12132358 -0.111289635 0.15886204
-0.20486535 -0.21809731 -0.23026574 -0.26124835 -0.1640059 -0.25566614 -0.28731132 -0.28894702
-0.14315842 -0.38546056 -0.18321761 -0.13602415 -0.17428657 -0.18156326 -0.3663344 -0.28445795
0.056221597 0.1650718 -0.019155772 0.06677331 -0.055672254 0.1677432 0.096487075 0.064930044
0.3224508 0.17541385 0.18375106 0.24089743 -0.03739205 0.031005329 -0.11443149 -0.17069776
0.28292483 0.143574 0.18987603 0.16422424 0.20290999 0.20058715 0.17701468 0.24486524
-0.59721494 -0.37950745 -0.46544614 -0.001237319 0.16645867 0.31341058 0.15906835 0.38681534
-0.364312 -0.30244383 0.10660712 -0.13360852 0.33939603 0.010909585 0.11180724 0.11858549

_initializer_fc1_0_bias f4 [16]
00000000: 3a95 bf3f 60b7 7d3f 899c 723f be94 e13e
00000010: ed6b 2bbe ab25 373f 95ba 80be 1dbf ae3e
00000020: 0dac 573e 2f05 03bf bd06 ce3f 6066 3abd
00000030: b3c9 083d c161 8dbe 4595 8fbd 0219 1d3f
1.4967415 0.99107933 0.94770104 0.44058794 -0.16740389 0.7154185 -0.2514235 0.34130183
0.21061726 -0.51179785 1.6095806 -0.04550779 0.03339548 -0.27613643 -0.07010893 0.61366284

_initializer_fc2_0_weight f4 [2, 16]
00000000: 1427 6ebe 648c abbe 2157 e7be 831a 44be
00000010: 75b3 ae3b 9cad c0be 4051 f7bb aaf9 243e
00000020: 933b 003f e263 d3bd 4a3d 233f 4005 efbd
00000030: 2c6b a63d f2d5 2abe 3657 e73d 0741 9cbe
00000040: 1c83 023f cbb8 963e 21a0 ab3e be5b ec3d
00000050: b5e0 64bd 5db4 d03d 3756 d03e a222 1f3c
00000060: 060a 27bf fce5 c03d bf8d 43bf 5c98 6fbd
00000070: 90db 91bd f67d 18be 4236 efbb 0076 663e
-0.23257095 -0.33505547 -0.45183662 -0.19150738 0.0053314515 -0.37632453 -0.0075475276 0.16110864
0.50090903 -0.103217855 0.63765395 -0.11670923 0.0812591 -0.16683176 0.11295931 -0.30518362
0.5098131 0.2943786 0.33520606 0.11540936 -0.05587836 0.101906516 0.40690777 0.009712847
-0.6524967 0.09418866 -0.7638816 -0.05849491 -0.07121956 -0.148918 -0.007300169 0.22505951

_initializer_fc2_0_bias f4 [2]
00000000: 6119 aa3d 1b19 f4be
0.08305622 -0.47675404

weight f4 [2, 1, 10, 1]
00000000: a306 0fbe 793d 823e 656c 2cbf 8759 1dbf
00000010: 1d54 e33f 5ac3 d53f dd9e bfbf 2414 10c0
00000020: 4690 a23e 33cb 0740 2221 3240 13b9 58be
00000030: 36d3 02c0 738c 8dbf a47b 87bf f966 debf
00000040: 9d7a 8dbf bf61 f33f 1c32 0e40 c8d1 25bf
-0.13967375 0.25437525 -0.67352897 -0.6146473 1.7760044 1.6700242 -1.4970356 -2.2512293
0.31750697 2.1217773 2.7832723 -0.2116435 -2.0441413 -1.1058487 -1.0584607 -1.7375175
-1.1053044 1.9014205 2.2218084 -0.64773226

bias f4 [2]
00000000: ebc3 5cbc e53b 23bc
-0.013474445 -0.00996301

weight f4 [4, 2, 9, 1]
00000000: a38a 873f 1ff6 6d3f 242b 4abf d451 86bf
00000010: faa8 8abf 3f65 08bf b322 aebe c2e5 35bc
00000020: 95fd 873d a617 533f 19a1 8d3f 2812 b43e
00000030: ea92 81bf bbe8 d0bf af54 5cbf 5a31 e6be
00000040: c4c1 e5bd c27f 35bd 1cb5 593f 96a7 183c
00000050: cc0e f73d a036 5bc0 e570 c6bf 6da1 26c0
00000060: 9b22 793e 1613 84bf 013b aabe a05a 773f
00000070: aa3d 74bf df03 0fbf 346e 5ac0 4491 81bf
00000080: a158 51bf b9f9 94bf ca41 593e f54d 10bf
00000090: ee37 1dbf 7230 edbe 38e7 1b3d 6aa6 ed3e
000000a0: 78dd 353f 78a2 5a3f 1016 183f 2a0b f13e
000000b0: d661 253e c8e1 b4be 3116 36bf ca0b 6bbd
000000c0: d84b bb3e ab6c 4c3f 2c2e 873f da24 113f
000000d0: aa84 2f3f 28a9 f33e 2f8a 963e 0ef0 103f
000000e0: a5dd 793f a602 363f f598 2a3f e179 92bf
000000f0: 7e42 aebf e128 41bf 91ec f7be 0313 fb3c
00000100: f27a 1a3f 0832 4d3f 53ca 743f ca07 223f
00000110: 8ea1 72be a9b0 80bf ddbc 97bf 03a5 14bf
1.0589184 0.92953676 -0.7897208 -1.0493722 -1.0832818 -0.5327949 -0.34010848 -0.011102142
0.06640164 0.8245796 1.1064788 0.35170102 -1.012296 -1.6321024 -0.86066717 -0.44959527
-0.112185985 -0.044311292 0.85041976 0.009317299 0.12063369 -3.425209 -1.5503203 -2.6036026
0.24329607 -1.0318325 -0.3324814 0.9662266 -0.9540659 -0.5586528 -3.4129763 -1.0122457
-0.8177586 -1.1638709 0.21216503 -0.56368953 -0.61413467 -0.46326023 0.038062304 0.46416026
0.7104106 0.8540416 0.59408665 0.4707883 0.16150603 -0.35328507 -0.7112761 -0.05738429
0.36581302 0.79853314 1.0560966 0.56696856 0.68561804 0.47589993 0.294023 0.56616294
0.9760383 0.7109779 0.66639644 -1.1443444 -1.3614042 -0.75453 -0.48422673 0.030648714
0.6034385 0.80154467 0.9562122 0.63293135 -0.2369444 -1.0053912 -1.1854511 -0.5806429

bias f4 [4]
00000000: 1cc4 57b9 442e 04bf 6e07 033e 66ba d93b
-0.00020577054 -0.51633096 0.12795803 0.006644535

weight f4 [8, 4, 8, 1]
00000000: e134 8a3e 3e1a 33be 8162 933a 9721 e03e
00000010: 8d51 dabd 0905 49c0 cea9 f7bf 413c 903e
00000020: 719f 7abf 0a2e 033e cc5a 5dbf e5f4 fd3d
00000030: 69df b6be 76aa 87bf 5c24 05bf 47ee 88bf
00000040: e8b3 2ebe 693c 2c3d 7f72 e73c 1915 603f
00000050: ebc3 4fbf f03a f2bf 8d7a 253f fa43 103e
00000060: 1687 2f3d a318 0c3e 57ec 3fbe 225c 0d3f
00000070: ab77 f93e 7e16 3cc0 9fba c23d 31d4 053f
00000080: 4747 5cbc 97f3 303e 553c e8bd a636 1bbe
00000090: 87c7 54bd 401e 58be 24cc 16be de7c 543b
000000a0: 39d8 6b3d bcad fb3d 7ca6 303e 4c5f 21bd
000000b0: 98b4 a7bd 12fa 03be a3f8 3dbd 3f40 233e
000000c0: c1d3 6fbe 0665 58bd 237f 76be 405f 4cbe
000000d0: 9fa7 333d ab4f 63be 0572 97bd aa15 0cbd
000000e0: e7dc 81bd 4646 6abe 55e7 75be b4df b5bc
000000f0: 7d53 f23c cf6a 433c cba7 b43a 2977 07be
00000100: 79b9 be3e bdef 2f3e 32ee 5ebd c67e d7be
00000110: 9eaa a0bf aa90 bbbd a54d 2cc0 71f4 2e3e
00000120: 6357 d63e d754 2dbf e3fa 7fbd 5062 02bf
00000130: 9237 6abf c976 87bf db90 dbbe 6552 12be
00000140: c124 113e 51aa a63c 7a73 1abe e8d0 5bbf
00000150: 5976 8c3f e070 8ebf c6c7 95bf c9f3 3a3f
00000160: 798a a33e 079f 373d 172e f73e 53f6 adbf
00000170: c9f8 c23e fc4e e33e 1c2b 21c0 274b b73e
00000180: 0bc2 bbbe a80f 083e 03b7 de3e dd44 0c3e
00000190: 691b 1fc0 ffdc c6bf 9568 203e d694 c3bf
000001a0: b2a9 983e 6d4f dabf 5354 41bd e300 cdbe
000001b0: 0859 ecbf d3ae d53f eb8d 96bf 84dc c63f
000001c0: e932 d63d 6a13 023e f26d 593f cb0c d7be
000001d0: d1ef b7bf d136 603f b197 9dbe 98ad 15bf
000001e0: 097c 043d d635 2e3d 7faf 1a3f d413 d83e
000001f0: cfe1 37c0 d5b4 f43e 275e c03e 209c ebbe
00000200: f430 d53d b82b e93e 2ea2 373e c345 873d
00000210: 1b22 ee3e 0272 da3c 0d9a a83d 5880 5dbd
00000220: f4c6 07bf 885c 363e 374d 46bf 0e2e b2be
00000230: a821 16bf c06a a8bf 5a5c 9abe cc56 8dbf
00000240: e9c8 6bbe 1c4f 3e3e 5e7d 993e 5ac4 0a3d
00000250: 3ba7 523e 7884 e2bd 72f7 a53e 75b7 7c3d
00000260: 2f0c 323e df09 9f3e 9e85 d43e 6427 273f
00000270: 2487 dc3e b4d3 083d 342c 3bbb 4b6e 393e
00000280: 9a3c ffbd c140 abbd fff8 29be f424 28bd
00000290: 98bf 60be 98a5 adbe 53d1 dbbd 9fa1 d6bd
000002a0: 8f4b 07bf c917 72bf 844c abbf 3966 e5be
000002b0: b166 c7bf 1a0b 9bbf 15ab 1ebf 85d5 acbf
000002c0: c331 133d ce38 333e 936a 613e b936 653e
000002d0: 7842 753e c4dd 5a3d 08b6 203e be33 073e
000002e0: cc41 9b3d 0482 b1be 011d 56be 5658 a3be
000002f0: d38e 07bf 3a09 abbe bc26 d3be 7fce 6fbe
00000300: 55d3 523d 7f08 07bf 2e36 c73d ef2f 01bb
00000310: 0aeb 3ebd 75a6 ad3d 99f2 24be 46a3 0dbe
00000320: 1ed3 78bd 292b 1ebe 6fa7 f33d a14d 263e
00000330: 1262 023d 1f99 a8bd 34c7 2dbd c8be f9ba
00000340: b98d 94be cc64 32be 8502 92be ab04 95bd
00000350: e367 54be 61b2 c2bc 3fd0 1abe c488 9fbd
00000360: a5a6 24be 453a f5bd 8eaf f2bd ddd3 493c
00000370: 4ef3 b93d 50c0 98bd 778e 6fbd e0db 543d
00000380: 0453 c7bc dcb1 6ebe ce33 3abe 53cf 5ebd
00000390: 066c 66be bd50 3fbe 0135 5cbd e656 20be
000003a0: 51a6 0cbe 1723 8e3d 5b8e f1bd a692 04be
000003b0: ed95 5fbe e9b6 de3d ee19 103e 6615 30be
000003c0: eee4 0ebe 87e6 bebd 4567 babc a242 41bd
000003d0: 7cd1 7bbe 0620 83be 8fab 10be 40c3 3ebe
000003e0: 012d 3ebc b902 57be 650c ab3a ed71 e2bc
000003f0: 422c 11be ca97 8fbe 9dfa 35be 94a3 66be
0.26993468 -0.1749048 0.0011244566 0.43775627 -0.10660086 -3.1409323 -1.9348695 0.2817097
-0.9789954 0.12810531 -0.8646667 0.124002255 -0.35717323 -1.0598896 -0.52008605 -1.0697716
-0.17060816 0.0420498 0.028252838 0.8753219 -0.8115832 -1.8924236 0.6464012 0.14088431
0.042853437 0.13681273 -0.187425 0.5521871 0.48724112 -2.9388728 0.095082514 0.52276903
-0.013444728 0.17280422 -0.113396324 -0.15157565 -0.051948097 -0.2110529 -0.14726311 0.003242306
0.057579253 0.122889966 0.17251009 -0.039397523 -0.081887424 -0.12888363 -0.046379697 0.15942477
-0.23420621 -0.05283072 -0.24071936 -0.1995821 0.043861028 -0.2219836 -0.073947944 -0.034200348
-0.06340962 -0.2287837 -0.24014027 -0.022201397 0.029580826 0.011927321 0.0013782916 -0.1322905
0.3725088 0.17181297 -0.05442638 -0.42088908 -1.2552068 -0.09158452 -2.692239 0.17085434
0.41863546 -0.6770758 -0.062495124 -0.5093126 -0.91491044 -1.0583125 -0.42883953 -0.14289244
0.14174177 0.020344885 -0.15083113 -0.8586564 1.0973617 -1.1128197 -1.1701591 0.73028237
0.31941584 0.044829395 0.4827735 -1.3590797 0.38080433 0.44396198 -2.5182562 0.35799524
-0.3667148 0.13287222 0.43499002 0.13698144 -2.486048 -1.5536193 0.15664895 -1.5279796
0.29816967 -1.7055489 -0.04719956 -0.4003974 -1.846467 1.6693977 -1.176206 1.5536046
0.10458929 0.12702718 0.8493339 -0.42001948 -1.4370061 0.87583643 -0.30779794 -0.5846801
0.03234485 0.04253181 0.60424036 0.42202628 -2.8731573 0.47794214 0.37571833 -0.4601755
0.10409728 0.45541167 0.1793296 0.06605103 0.46510395 0.026665691 0.08232508 -0.054077476
-0.53037953 0.17808735 -0.7746157 -0.34800762 -0.58645105 -1.3157578 -0.30148584 -1.1042113
-0.2302586 0.18584865 0.2997846 0.03387866 0.20571606 -0.11060423 0.32415348 0.061698396
0.1738746 0.3106222 0.41508192 0.6529448 0.43071854 0.03340502 -0.0028560283 0.1810848
-0.12462731 -0.0836196 -0.1659889 -0.041050866 -0.21948087 -0.339154 -0.10733285 -0.104800455
-0.5284967 -0.94567543 -1.3382726 -0.44804552 -1.5578214 -1.2112763 -0.619798 -1.3502661
0.03593613 0.17502138 0.22013311 0.22384156 0.23951137 0.05343415 0.1569444 0.13203332
0.07580909 -0.34669507 -0.20909502 -0.31903332 -0.5295231 -0.33405477 -0.4124049 -0.23418616
0.051471073 -0.5274734 0.09727131 -0.0019712409 -0.04661087 0.08479015 -0.16108169 -0.13831815
-0.060748212 -0.15446152 0.1189717 0.1624055 0.03183181 -0.082323305 -0.042426303 -0.001905405
-0.29014376 -0.17421263 -0.28517547 -0.07276281 -0.20742755 -0.023766698 -0.15118502 -0.07789758
-0.16079195 -0.11974005 -0.11849891 0.012318579 0.0907961 -0.07458556 -0.058485474 0.0519675
-0.024331577 -0.23310035 -0.18183824 -0.05439694 -0.22502145 -0.18683143 -0.053761486 -0.15658149
-0.1373532 0.069402866 -0.1179473 -0.12946567 -0.21834536 0.10874731 0.14072391 -0.17195663
-0.13954517 -0.09321313 -0.02275432 -0.047182687 -0.2459163 -0.2561037 -0.14127944 -0.1862917
-0.011607409 -0.20997132 0.0013049959 -0.027642215 -0.1417704 -0.28045493 -0.17771383 -0.22523338

bias f4 [8]
00000000: 1240 9c3e 5f32 1dbe 548e d63e dc20 cc3e
00000010: c8de 32bf 8f47 913f ef4a e1bd 14c7 053b
0.30517632 -0.15351246 0.41905463 0.3986882 -0.6987119 1.1349963 -0.110006206 0.002041285

weight f4 [16, 32]
00000000: 0acd c7be 665a 0f3c 2dda 43bf eb14 debf
00000010: 5ae5 2d3e 1ca7 aa3d 92e3 a1bb 5146 2a3e
00000020: 5975 10bf 17bf 28bf e6a3 bbbf 1972 c5bf
00000030: 7dde 6abf a9aa 93bf cd84 87bf 37d5 c4bf
00000040: 5b22 d2be 354e cebd 1fb7 7abe 8b0f eebd
00000050: d488 083e eab3 303e 69d3 203d 87ce df3e
00000060: 0897 93bd 7145 463c 70af fe3d 464a af3d
00000070: 6d50 0d3d b0ae 083e 6b5a 6d3e a873 453e
00000080: fe9c bbbe c8f1 2ebf 5fc4 ebbe b7e0 9dbf
00000090: cc77 abbd df0c 253e 4485 b3bd 0f55 153d
000000a0: ab7a 9ebf 489a b6be 02b8 b3be 9026 b0be
000000b0: 9d4e 37bf 727c 82bf fab5 38bf 7395 a4be
000000c0: 2a56 c13e dd67 d13e f108 bf3e a687 e13e
000000d0: 4fb6 78bb 186b bd3d 9039 643e b284 273e
000000e0: 2fa1 babd bc3a bf3d db1e e03d 5c54 70be
000000f0: 6fe8 943d d50c 823e 2da9 903d 18b5 c1bc
00000100: 71e2 29bf c22d 4ebf 1a27 28bf af31 2bbf
00000110: 7777 f23c e35e 11be f4ef 93bd 1251 c0bb
00000120: 400e 26bf c15a c4be c477 5cbf 9ad3 25bf
00000130: 0897 f4be 89dd 2ebf 7384 34bf 9726 62bf
00000140: 7b7d 1e3f 1c49 b73e 7471 d83e d04e 183f
00000150: 6702 673e 641b b33d 9354 843d 527d b23d
00000160: 144c 1d3e f1f3 a8bd 76f1 fe3d ba30 e73c
00000170: 4a93 0c3e 4dab cb3d 5bde 733d c84a 87bd
00000180: 359b b6bf 1d1f 9fbf 9619 b0be 1d4a 223f
00000190: b0e6 c7bd f98a 5abd 309f 023d 21df 42bd
000001a0: 80a7 d5bf a7c6 45bf 7006 eb3d 52c9 863e
000001b0: 32b8 c2bf 0240 93be 7fd1 24be 0709 40be
000001c0: 4966 b03e 6dea c2bd 756a 89bf dccb c4be
000001d0: e25e 263e 6c8a 193e bfdc dfbd 66a1 b43e
000001e0: e26c 0a3c 9cc0 91bd 38aa 723e 6bc4 bcbd
000001f0: 8748 f7bb 48fc 8bbd 6857 1dbc db06 cb3d
00000200: 409e 95be 0157 9dbd 431e 683e 1fb4 0dbf
00000210: 0021 c43c 29d1 8f3d 3b90 6b3d d557 243e
00000220: 3ce8 15be 4623 073c 2de0 babe 2af2 b5be
00000230: 354a eebe 84e5 44be c245 87bc 9f55 00bf
00000240: 0cf0 a0bf 8e99 bdbe 265d 3dbc 6ad2 df3d
00000250: 6c27 813d bb31 bfbd 9b4a c5bd acca a7be
00000260: 9f73 8d3d b48e 52bb d1cd 1d3e 3922 373d
00000270: 8065 2b3e 14bd 5e3e 0795 963d c1e2 183e
00000280: eb6e 62bf 15fd 4dbf d33a 48bf 91fd 59be
00000290: d5e9 bbbd b384 eabd 4d78 f6bd e37e c03d
000002a0: 601f bbbe 07f3 28bf 4464 68bf 7d18 3bbf
000002b0: f09a f8be 3eb7 45be 39c9 01bf c4f6 52bf
000002c0: 2fe5 e73e 7dee 293e 3bd5 2e3e b0a6 833e
000002d0: 1ebc ab3e 1923 633e 576c a13d a850 a73d
000002e0: 42d1 8b3d 914f f33d 0da9 b83c c281 1bbc
000002f0: 45e7 693d 92ae ae3d 5440 c1bd 8558 bcbd
00000300: 7e76 40be f771 74be 4c3c c0bd 6c50 7ebe
00000310: 3805 38bc 7f78 f8bd d2eb e3bd bbac 223e
00000320: 39c8 51be e754 5fbe c8ca 6bbe 58c2 85be
00000330: 2af1 27be ace6 82be 781a 93be ddf0 93be
00000340: 1f98 12be 165b c5be 669d 3bbe ea49 0bbe
00000350: 2e78 32be b8eb 39be 2f90 bbbe 79a4 91be
00000360: 9e48 663d 9508 293e 91ec 9cbc 72c0 883d
00000370: 9708 64bd e0c4 2b3e 049b c53d 0bfa 843d
00000380: 4518 a53e b09f 333e 3d29 3c3e d1ad 763e
00000390: 6828 19bd e3fe fd3c 0f5b eabd 65cb 2ebe
000003a0: 86db 903e 1005 133e dd6e 423e 662a 283e
000003b0: a3c7 4f3e b866 4d3e 5643 353e f4bd 7a3e
000003c0: 14e3 18bf cd4e c2be f54e eebe 892d a2ba
000003d0: 2474 2a3e 5a77 a03e d0e2 223e a90c c63e
000003e0: 1a87 babe ebd9 9abe d554 da3d acd0 08be
000003f0: 51c5 ad3e 1ebe 323c 32fb e43d f3dc f23d
-0.3902362 0.00874958 -0.76504785 -1.7350134 0.16982022 0.08332655 -0.0049404586 0.16628386
-0.5642906 -0.6591658 -1.4659393 -1.5425445 -0.9174574 -1.1536456 -1.0587403 -1.5377568
-0.41041836 -0.100735106 -0.24483918 -0.11624058 0.13333446 0.17256132 0.039264116 0.43712255
-0.07206541 0.012101517 0.12435806 0.085590884 0.034500528 0.13347888 0.23179023 0.192824
-0.36643213 -0.6833768 -0.46048257 -1.2334203 -0.08372459 0.16118191 -0.08765653 0.03645807
-1.2381185 -0.35664582 -0.35101324 -0.3440442 -0.7160433 -1.0194228 -0.72152674 -0.3214527
0.3776105 0.40899554 0.3731151 0.44048804 -0.0037950461 0.09248942 0.22287583 0.16359213
-0.091127746 0.093373746 0.10943385 -0.2346968 0.07270896 0.25400415 0.07063518 -0.023645923
-0.6636115 -0.8053857 -0.65684664 -0.66872686 0.02959798 -0.14196353 -0.07223502 -0.0058690393
-0.64865494 -0.3835049 -0.8612025 -0.64776003 -0.47771478 -0.68306786 -0.705146 -0.88340133
0.6191022 0.35797966 0.42274058 0.5949526 0.2255951 0.08745459 0.06461444 0.08715309
0.15361053 -0.08249653 0.12448399 0.028221477 0.13728061 0.099447824 0.059538227 -0.0660606
-1.4266115 -1.243137 -0.3439452 0.6339434 -0.09760797 -0.05335519 0.031890094 -0.047576074
-1.6691742 -0.77256244 0.11475837 0.2632547 -1.5212462 -0.28759772 -0.16095541 -0.18753444
0.34453037 -0.095173694 -1.0735613 -0.38436782 0.16247132 0.1499421 -0.10930776 0.35279387
0.008448811 -0.071168154 0.23697746 -0.09217151 -0.0075464877 -0.06835228 -0.009603359 0.09913417
-0.29222298 -0.0768261 0.22667794 -0.5535297 0.023941517 0.07022316 0.057510596 0.1604913
-0.14639372 0.008248156 -0.36499158 -0.3553632 -0.4654099 -0.19228178 -0.016512755 -0.5013065
-1.2573256 -0.37031215 -0.011557853 0.10928805 0.06306347 -0.09335657 -0.096333705 -0.32771814
0.069068186 -0.0032128515 0.15410544 0.04471037 0.16737938 0.21751815 0.073526435 0.1493025
-0.884505 -0.804643 -0.7821476 -0.21288134 -0.09175459 -0.114510916 -0.12034664 0.09399202
-0.36547375 -0.6599583 -0.90777993 -0.7308424 -0.48555708 -0.19308183 -0.50697666 -0.82407784
0.4529204 0.16594882 0.17073528 0.2571311 0.3354196 0.22181357 0.07881992 0.08169681
0.06827022 0.118804105 0.022541547 -0.009491386 0.05710532 0.085293904 -0.09436098 -0.09196571
-0.18795201 -0.23871599 -0.09386501 -0.24835366 -0.011231713 -0.12132358 -0.111289635 0.15886204
-0.20486535 -0.21809731 -0.23026574 -0.26124835 -0.1640059 -0.25566614 -0.28731132 -0.28894702
-0.14315842 -0.38546056 -0.18321761 -0.13602415 -0.17428657 -0.18156326 -0.3663344 -0.28445795
0.056221597 0.1650718 -0.019155772 0.06677331 -0.055672254 0.1677432 0.096487075 0.064930044
0.3224508 0.17541385 0.18375106 0.24089743 -0.03739205 0.031005329 -0.11443149 -0.17069776
0.28292483 0.143574 0.18987603 0.16422424 0.20290999 0.20058715 0.17701468 0.24486524
-0.59721494 -0.37950745 -0.46544614 -0.001237319 0.16645867 0.31341058 0.15906835 0.38681534
-0.364312 -0.30244383 0.10660712 -0.13360852 0.33939603 0.010909585 0.11180724 0.11858549

bias f4 [16]
00000000: 3a95 bf3f 60b7 7d3f 899c 723f be94 e13e
00000010: ed6b 2bbe ab25 373f 95ba 80be 1dbf ae3e
00000020: 0dac 573e 2f05 03bf bd06 ce3f 6066 3abd
00000030: b3c9 083d c161 8dbe 4595 8fbd 0219 1d3f
1.4967415 0.99107933 0.94770104 0.44058794 -0.16740389 0.7154185 -0.2514235 0.34130183
0.21061726 -0.51179785 1.6095806 -0.04550779 0.03339548 -0.27613643 -0.07010893 0.61366284

weight f4 [2, 16]
00000000: 1427 6ebe 648c abbe 2157 e7be 831a 44be
00000010: 75b3 ae3b 9cad c0be 4051 f7bb aaf9 243e
00000020: 933b 003f e263 d3bd 4a3d 233f 4005 efbd
00000030: 2c6b a63d f2d5 2abe 3657 e73d 0741 9cbe
00000040: 1c83 023f cbb8 963e 21a0 ab3e be5b ec3d
00000050: b5e0 64bd 5db4 d03d 3756 d03e a222 1f3c
00000060: 060a 27bf fce5 c03d bf8d 43bf 5c98 6fbd
00000070: 90db 91bd f67d 18be 4236 efbb 0076 663e
-0.23257095 -0.33505547 -0.45183662 -0.19150738 0.0053314515 -0.37632453 -0.0075475276 0.16110864
0.50090903 -0.103217855 0.63765395 -0.11670923 0.0812591 -0.16683176 0.11295931 -0.30518362
0.5098131 0.2943786 0.33520606 0.11540936 -0.05587836 0.101906516 0.40690777 0.009712847
-0.6524967 0.09418866 -0.7638816 -0.05849491 -0.07121956 -0.148918 -0.007300169 0.22505951

bias f4 [2]
00000000: 6119 aa3d 1b19 f4be
0.08305622 -0.47675404
