saved_models/test.onnx (onnx, 27373 bytes, 14 tensors)

conv1.0.weight f4 [5, 1, 64]
-0.029394021 -0.11198825 -0.12068449 -0.026821267 0.10155329 0.13287225 0.08663453 -0.05467021
0.036759313 0.061685346 0.15952516 0.19335265 0.08959895 -0.06950067 -0.20433472 -0.1609486
-0.11280846 -0.27866226 -0.18315582 -0.09123311 0.034341425 0.21330558 0.2031561 0.24200994
-0.003151145 0.042734515 -0.036027625 -0.03105841 0.0018468444 -0.03738324 -0.0002708253 -0.18594494
-0.18720241 -0.12918957 -0.11886047 0.07713664 0.10266846 0.18253194 0.10988443 -0.02061767
-0.048958343 -0.23017687 -0.006318788 0.03469334 0.09026607 0.09823318 -0.10669089 -0.1457237
-0.21151981 -0.027896753 0.11352658 0.2551039 0.091570884 0.04705205 -0.16935699 -0.111943215
-0.07696318 0.04957921 0.039605968 0.055983864 -0.051069416 -0.080459446 -0.033816524 0.05662876
-0.15859792 0.013106556 -0.1563099 -0.19505936 -0.08799046 -0.15340203 -0.07908563 0.108669825
0.003471965 0.048009694 -0.040027034 -0.070285946 -0.062144894 -0.06827075 0.027629394 0.066451274
0.04978217 -0.013659421 0.17125076 -0.13647397 -0.11296739 -0.08443487 0.12768398 0.037586976
0.019380441 0.008382325 0.16066577 -0.20188324 -0.036369756 -0.15117092 0.04822532 0.021461295
-0.0862107 0.14237581 0.07571641 0.045049407 -0.15419142 -0.090211794 0.13588405 0.06431195
0.066706166 0.04602296 -0.04258662 0.19722852 -0.052697256 0.10406624 0.02485912 -0.0091147255
-0.1550097 -0.07090977 -0.07123163 -0.0895133 0.07178547 0.1710555 0.01595231 0.13060413
0.021351961 0.080045104 -0.0044353935 -0.04065243 -0.0315659 -0.088866815 -0.2112591 -0.26277754
0.0005186496 0.06845764 -0.017710913 -0.06212483 -0.09577165 -0.048633385 -0.035399064 0.09283579
0.11582333 0.19827263 0.039758738 -0.15628116 -0.14144816 -0.12149733 -0.18721502 -0.16973123
-0.081505716 -0.033735607 0.09044776 0.12238001 0.111175396 0.12847522 0.103164226 0.052689355
-0.09133148 -0.19478202 -0.10818585 -0.084942825 -0.11720708 -0.10441535 -0.03711752 -0.00024355162
0.036841173 0.003971155 0.117944404 0.19951822 0.07221986 -0.045383412 -0.12823911 -0.27215517
-0.18616064 -0.016836163 0.104582414 0.16187397 0.09140868 0.057377037 -0.07698174 -0.07111733
-0.055014092 0.090195306 0.07873064 -0.04488389 -0.16632296 -0.12332226 -0.047192346 0.096641056
0.1624147 0.1506188 0.07570795 0.00414635 -0.09997412 -0.10915173 -0.07462206 0.0029920707
-0.0021117514 -0.005370888 -0.021436816 -0.0357796 -0.036134344 0.025183802 -0.0423084 -0.04884465
-0.041901726 0.15830773 0.09390149 -0.025533412 0.039446607 -0.16497567 -0.06082815 0.06670744
-0.03001989 0.1708947 -0.027918175 0.13841413 -0.12024586 0.021237226 0.14966492 -0.17347828
-0.12282006 -0.16252369 -0.081785455 -0.17479542 -0.09539529 0.12410934 0.036258493 0.023512233
0.020181464 -0.05875816 0.06917507 0.16223168 -0.051903516 0.024844602 -0.019915195 -0.0729755
-0.18081476 -0.11726356 0.02888916 0.07681771 -0.031201046 0.10172107 0.08710934 0.10711128
-0.014819047 0.18033984 0.04308636 0.11438731 0.15875338 -0.099872224 -0.19300953 -0.055573333
-0.11501271 0.16966097 0.13899447 0.14237821 0.23840053 0.1507174 0.07837725 0.17984413
00000000: bbcb f0bc 185a e5bd 6e29 f7bd 46b8 dbbc
00000010: 2cfb cf3d aa0f 083e 726d b13d dfed 5fbd
00000020: ef90 163d c6a9 7c3d 905a 233e 3dfe 453e
00000030: a87f b73d 5e56 8ebd 1f3d 51be b6cf 24be
00000040: 1f08 e7bd d2ac 8ebe 338d 3bbe 6dd8 babd
00000050: 98a9 0c3d c76c 5a3e 2708 503e 74d1 773e
00000060: 7183 4ebb 630a 2f3d b491 13bd 356e febc
00000070: d111 f23a 2b1f 19bd 8efd 8db9 5a68 3ebe
00000080: fdb1 3fbe 454a 04be 1e6d f3bd d1f9 9d3d
00000090: d743 d23d a7e9 3a3e 170b e13d 63e6 a8bc
000000a0: 8b88 48bd 7cb3 6bbe d60d cfbb 9b1a 0e3d
000000b0: 6bdd b83d 7a2e c93d c180 dabd 9838 15be
000000c0: a698 58be bb87 e4bc a080 e83d fa9c 823e
000000d0: 8489 bb3d a6b9 403d eb6b 2dbe 7c42 e5bd
000000e0: df9e 9dbd 9213 4b3d de39 223d 564f 653d
000000f0: 2a2e 51bd ecc7 a4bd 3283 0abd 8ff3 673d
00000100: 7e67 22be e1bc 563c b40f 20be a4bd 47be
00000110: 5834 b4bd 6c15 1dbe a6f7 a1bd 498e de3d
00000120: e889 633b d0a5 443d 63f3 23bd 14f2 8fbd
00000130: a58b 7ebd 89d1 8bbd 0a57 e23c 9b17 883d
00000140: 64e8 4b3d c4cb 5fbc 5c5c 2f3e d5bf 0bbe
00000150: 725b e7bd 30ec acbd 97bf 023e cdf4 193d
00000160: bbc3 9e3c 0556 093c 9185 243e 7bba 4ebe
00000170: 74f8 14bd 8dcc 1abe ea87 453d 99cf af3c
00000180: 3c8f b0bd f7ca 113e 3511 9b3d ba85 383d
00000190: 5be4 1dbe f6c0 b8bd 3025 0b3e fcb5 833d
000001a0: 3e9d 883d 9282 3c3d 4f6f 2ebd 46f6 493e
000001b0: 14d9 57bd ae20 d53d 5aa5 cb3c ee55 15bc
000001c0: ddba 1ebe 2439 91bd e4e1 91bd c052 b7bd
000001d0: 4304 933d 2c29 2f3e 6bae 823c 17bd 053e
000001e0: 4fea ae3c b0ee a33d c756 91bb 2a83 26bd
000001f0: 3f4b 01bd ceff b5bd 4e54 58be c78a 86be
00000200: fcf5 073a 8533 8c3d 7a16 91bc 9b76 7ebd
00000210: ed23 c4bd cd33 47bd 9cfe 10bd b120 be3d
00000220: c834 ed3d fb07 4b3e 0fda 223d 2b08 20be
00000230: c9d7 10be 98d3 f8bd 4bb5 3fbe 06ce 2dbe
00000240: 78ec a6bd 592e 0abd ad3c b93d 5fa2 fa3d
00000250: edaf e33d 028f 033e c447 d33d cbd0 573d
00000260: 000c bbbd f074 47be 8b90 ddbd 81f6 adbd
00000270: 440a f0bd b7d7 d5bd 8a08 18bd e461 7fb9
00000280: c5e6 163d 7620 823b d68c f13d 814e 4c3e
00000290: 02e8 933d f5e3 39bd 1d51 03be ec57 8bbe
000002a0: e5a0 3ebe feeb 89bc 4e2f d63d 4ac2 253e
000002b0: 7934 bb3d 2f04 6b3d 9aa8 9dbd f6a5 91bd
000002c0: 7556 61bd 51b8 b83d 883d a13d 2bd8 37bd
000002d0: 9150 2abe 6290 fcbd c34c 41bd bfeb c53d
000002e0: 0a50 263e d13b 1a3e c50c 9b3d 1bde 873b
000002f0: 3bbf ccbd f18a dfbd 73d3 98bd 9e16 443b
00000300: 4f65 0abb 46fe afbb 439c afbc a18d 12bd
00000310: 9b01 14bd 434e ce3c 934b 2dbd 5411 48bd
00000320: 25a1 2bbd 6c1b 223e 6d4f c03d 722b d1bc
00000330: c492 213d 62ef 28be f026 79bd e99d 883d
00000340: 46ec f5bc 05ff 2e3e a8b4 e4bc 6fbc 0d3e
00000350: 7643 f6bd b1f9 ad3c c341 193e 4aa4 31be
00000360: 1589 fbbd 9c6c 26be 227f a7bd 92fd 32be
00000370: 9b5e c3bd 0a2d fe3d c983 143d ba9c c03c
00000380: 9953 a53c 65ac 70bd a9ab 8d3d 1020 263e
00000390: c898 54bd e886 cb3c 3125 a3bc 2e74 95bd
000003a0: 8127 39be e127 f0bd f6a8 ec3c 9b52 9d3d
000003b0: 5699 ffbc 2353 d03d 6266 b23d 295d db3d
000003c0: 97cb 72bc 02ab 383e 537b 303d e543 ea3d
000003d0: 3f90 223e cf89 ccbd 4aa4 45be dda0 63bd
000003e0: c98b ebbd 9bbb 2d3e 9154 0e3e 98cb 113e
000003f0: 451f 743e a955 1a3e 4084 a03d 0f29 383e

conv1.0.bias f4 [5]
-0.001195418 0.010306232 -0.0061358633 0.02316982 -0.0041669933
00000000: 92af 9cba 78db 283c 5a0f c9bb a2ce bd3c
00000010: 468b 88bb

conv1.2.weight f4 [5]
1.0106983 0.96904254 1.0328544 1.0091261 0.95022887
00000000: 905e 813f 2c13 783f 9334 843f 0b2b 813f
00000010: 3342 733f

conv1.2.bias f4 [5]
0.15184937 -0.022146555 0.13604257 -0.0140390815 -0.022826733
00000000: 677e 1b3e b16c b5bc be4e 0b3e 2d04 66bc
00000010: 21ff babc

conv1.2.running_mean f4 [5]
0.04424446 0.041033786 0.04151753 0.050187867 0.031824943
00000000: ae39 353d 0b13 283d 490e 2a3d cb91 4d3d
00000010: df5a 023d

conv1.2.running_var f4 [5]
0.010758559 0.0038261698 0.008686963 0.0061496105 0.003809734
00000000: ab44 303c 7ac0 7a3b c353 0e3c ac82 c93b
00000010: bbac 793b

conv2.0.weight f4 [5, 5, 16]
0.027267406 -0.016722612 0.07190872 0.039100308 -0.002633949 0.03771728 -0.014045418 -0.0057154903
0.037238657 -0.0046514813 0.063381866 -0.021180267 -0.07692273 0.061157517 -0.100693874 0.03693517
-0.0027803879 -0.14851768 0.048793957 -0.020526692 -0.13987024 0.015955454 -0.1491565 -0.09891268
0.009314959 -0.20196906 -0.009640251 -0.08380839 -0.06655489 -0.0054491404 -0.24355829 -0.073538095
-0.1089425 0.10876128 0.003131252 -0.025272068 -0.014048387 -0.029502964 0.11973172 -0.14598559
0.05283414 0.046696026 0.026747525 -0.026138872 -0.010574932 0.13668709 0.13270181 -0.024516292
-0.04218481 0.041282993 -0.15004124 0.056522857 -0.10717546 -0.1214602 0.11056714 -0.023590006
-0.045375645 -0.16805431 0.042233087 0.0042443946 -0.15311539 0.07419135 -0.106058046 0.0410618
0.068595365 -0.017924681 0.09983801 0.047153085 0.037511896 0.020795267 -0.07896264 0.036470484
0.013318135 0.033467025 0.14695886 -0.07727514 -0.06131493 0.1130158 0.047185335 0.024144264
0.007963101 0.0896571 0.1164954 0.10563786 0.11983453 0.0867077 0.036121324 0.029431513
-0.059080202 -0.11903118 -0.117202565 -0.18938565 -0.13168968 -0.26116702 -0.23233952 -0.10834243
-0.022494271 -0.035427593 0.0039889677 -0.0045440886 0.10444246 0.043146376 0.043994524 0.069021195
-0.027144318 0.0007182959 0.008491125 -0.05154218 -0.022524614 0.079284504 -0.07018908 -0.028243179
-0.06527478 0.035044797 0.041128207 0.060878195 0.039011348 -0.023947729 -0.08481417 0.05841398
0.07118509 -0.13755906 -0.07111516 -0.22608885 -0.22897652 -0.14502655 -0.13888331 -0.20124486
0.004998274 -0.005490237 -0.07088476 -0.0762322 -0.02991225 0.07583783 0.063238755 0.10448508
0.16099185 0.11918136 -0.0040476504 -0.050895028 -0.10555909 -0.0563801 -0.10305095 -0.030936345
0.13138534 0.08848254 0.032500423 0.100795776 0.00817205 -0.0444296 -0.052357778 -0.12465314
0.02305425 -0.08391373 -0.18103927 0.020818658 -0.04113813 -0.04480708 0.067559406 0.022765147
-0.029775111 -0.036668394 0.10352144 0.02391552 -0.08123647 -0.058005102 -0.03534634 -0.054460037
-0.006414317 -0.03962854 0.05944764 -0.061060473 -0.07036756 -0.019701116 -0.09303888 -0.050473344
0.04768855 0.0718225 -0.07326178 -0.14542328 0.044142645 -0.0576426 -0.12168834 -0.067136
-0.16816616 -0.018458944 -0.08094838 -0.082237765 -0.036268637 0.0057214284 -0.06094188 -0.0816692
0.08222626 0.029443325 0.00991138 0.14892836 0.093947 0.05627302 0.07922711 0.04713578
0.06307397 -0.027686633 0.061155856 -0.03059219 0.0204137 -0.0074866707 -0.006116702 0.064607315
-0.0463123 -0.05961213 0.111481145 -0.09542021 -0.22817406 -0.023045266 -0.00525742 -0.021796416
-0.032447796 -0.06694264 -0.07784459 -0.007837711 -0.012454027 -0.1084693 0.10839731 0.016218051
0.0639927 0.05427094 -0.010315949 0.060503494 0.07063606 -0.11112084 0.09590362 -0.07865032
0.048342727 -0.0031709597 -0.014296808 -0.06488696 -0.08326103 -0.1359606 -0.07895122 0.013814448
0.038897865 0.048051693 0.042204265 -0.013944778 0.0122387875 0.05806746 -0.109089755 0.07016018
0.094668716 -0.009781206 -0.09434973 -0.104555435 -0.096578486 0.08303414 0.02545027 0.02233686
00000000: e55f df3c dcfd 88bc e144 933d a527 203d
00000010: 559e 2cbb 6f7d 1a3d c11e 66bc 0249 bbbb
00000020: 9087 183d 746b 98bb 5ace 813d 3d82 adbc
00000030: aa89 9dbd 4e80 7a3d 9738 cebd 5549 173d
00000040: 2b37 36bb 0515 18be 2cdc 473d 9827 a8bc
00000050: 253a 0fbe 03b5 823c 7bbc 18be bb92 cabd
00000060: c59d 183c fad0 4ebe 25f2 1dbc bca3 abbd
00000070: ee4d 88bd b48e b2bb 5867 79be 249b 96bd
00000080: 3f1d dfbd 3cbe de3d b135 4d3b 5e07 cfbc
00000090: 352b 66bc 33b0 f1bc e735 f53d 3f7d 15be
000000a0: 9c68 583d 5544 3f3d a01d db3c 3021 d6bc
000000b0: 7b42 2dbc b3f7 0b3e fce2 073e 64d6 c8bc
000000c0: fbc9 2cbd 5b18 293d 69a4 19be 8384 673d
000000d0: cf7e dbbd 20c0 f8bd 0671 e23d d43f c1bc
000000e0: d0db 39bd 6e16 2cbe 9afc 2c3d 9014 8b3b
000000f0: 48ca 1cbe a2f1 973d f634 d9bd 6b30 283d
00000100: ba7b 8c3d c8d6 92bc df77 cc3d 9823 413d
00000110: 13a6 193d d65a aa3c 2ab7 a1bd 1362 153d
00000120: 4f34 5a3c b814 093d 627c 163e 6e42 9ebd
00000130: 5d25 7bbd d474 e73d 6945 413d 31ca c53c
00000140: ab77 023c 249e b73d 2495 ee3d aa58 d83d
00000150: ce6b f53d ce93 b13d f4f3 133d 5b1a f13c
00000160: 15fe 71bd 9fc6 f3bd e607 f0bd 50ee 41be
00000170: a9d9 06be afb7 85be 69ea 6dbe a3e2 ddbd
00000180: e845 b8bc 861c 11bd e3b5 823b 94e6 94bb
00000190: eee5 d53d 41ba 303d 9a33 343d fc5a 8d3d
000001a0: c35d debc 064c 3c3a 5c1e 0b3c e51d 53bd
000001b0: 8a85 b8bc ea5f a23d 4bbf 8fbd 3d5e e7bc
000001c0: c9ae 85bd 228b 0f3d 0d76 283d 6a5b 793d
000001d0: 5dca 1f3d 072e c4bc 0db3 adbd 7f43 6f3d
000001e0: 7dc9 913d 48dc 0cbe d3a4 91bd d683 67be
000001f0: d278 6abe d781 14be 6d37 0ebe 2213 4ebe
00000200: 90c8 a33b 72e7 b3bb 072c 91bd a11f 9cbd
00000210: 890a f5bc dd50 9b3d 5283 813d 46fc d53d
00000220: 0cdb 243e 5b15 f43d 27a2 84bb 4e77 50bd
00000230: 5d2f d8bd d2ee 66bd 600c d3bd 386e fdbc
00000240: e189 063e 5536 b53d 2a1f 053d 046e ce3d
00000250: 10e4 053c d0fb 35bd 1c75 56bd 254a ffbd
00000260: 44dc bc3c f6da abbd 5c62 39be e48b aa3c
00000270: 7580 28bd a187 37bd 965c 8a3d f97d ba3c
00000280: efea f3bc 9931 16bd 0c03 d43d 7bea c33c
00000290: 4e5f a6bd c296 6dbd 53c7 10bd 7d11 5fbd
000002a0: 312f d2bb 8951 22bd 5e7f 733d 8c1a 7abd
000002b0: de1c 90bd 3c64 a1bc 2b8b bebd 23bd 4ebd
000002c0: 1255 433d ad17 933d 460a 96bd d7e9 14be
000002d0: ebce 343d a61a 6cbd bd37 f9bd 997e 89bd
000002e0: c033 2cbe 3637 97bc 44c8 a5bd 466c a8bd
000002f0: 6c8e 14bd d27a bb3b 319e 79bd 2e42 a7bd
00000300: 3e66 a83d 2133 f13c 5763 223c ad80 183e
00000310: 4967 c03d 8a7e 663d d341 a23d 7311 413d
00000320: ed2c 813d 14cf e2bc 907e 7a3d 799c fabc
00000330: a23a a73c bf52 f5bb 9e6e c8bb d750 843d
00000340: f7b1 3dbd d92b 74bd 3a50 e43d ac6b c3bd
00000350: 76a6 69be 6dc9 bcbc 6f46 acbb 668e b2bc
00000360: fbe7 04bd 3919 89bd fc6c 9fbd be69 00bc
00000370: fa0b 4cbc 2725 debd 69ff dd3d b8db 843c
00000380: 9b0e 833d 354b 5e3d 3a04 29bc 83d2 773d
00000390: a3a9 903d 5393 e3bd 1e69 c43d 6b13 a1bd
000003a0: 0603 463d e0cf 4fbb 293d 6abc 74e3 84bd
000003b0: c284 aabd 4139 0bbe 2db1 a1bd ff55 623c
000003c0: 5e53 1f3d dad1 443d 61de 2c3d a378 64bc
000003d0: 3285 483c 25d8 6d3d 736a dfbd 24b0 8f3d
000003e0: ace1 c13d 5a41 20bc 6e3a c1bd 2921 d6bd
000003f0: f1ca c5bd ce0d aa3d 167d d03c cafb b63c

conv2.0.bias f4 [5]
-0.09767792 -0.23032011 -0.035353437 -0.19477007 -0.032763995
00000000: 5c0b c8bd 09d9 6bbe c4ce 10bd ce71 47be
00000010: 8a33 06bd

conv2.2.weight f4 [5]
0.9722843 1.3369699 0.9052119 0.8760061 0.8400704
00000000: a0e7 783f d421 ab3f f8bb 673f f041 603f
00000010: db0e 573f

conv2.2.bias f4 [5]
-0.0063547613 0.087008625 -0.0067690825 -0.0063046278 0.08410522
00000000: 9a3b d0bb 9431 b23d 2ecf ddbb 0d97 cebb
00000010: 5c3f ac3d

conv2.2.running_mean f4 [5]
0.17667508 0.06738576 0.21146801 0.15393546 0.16974339
00000000: 50ea 343e 8c01 8a3d 128b 583e 42a1 1d3e
00000010: 36d1 2d3e

conv2.2.running_var f4 [5]
0.059874013 0.028018255 0.074539065 0.0761824 0.14360587
00000000: 743e 753d 8a86 e53c f0a7 983d 8505 9c3d
00000010: 6b0d 133e

fc1.1.weight f4 [2, 260]
-0.06214609 -0.029185986 -0.053583533 -0.07525438 -0.028353719 -0.029200422 -0.039070096 -0.024262154
-0.07896773 0.018500866 -0.06437252 -0.05601098 -0.06476388 -0.07677004 0.020004632 -0.008360563
-0.07216826 -0.09436273 -0.07707709 -0.07200054 -0.055253066 -0.08977595 -0.08874185 -0.047117025
0.01423631 -0.048099145 -0.048030764 -0.06770672 0.008181594 0.013998323 -0.06412263 -0.047844596
-0.02229935 -0.057899095 -0.019448383 -0.028066764 -0.031812966 -0.046150208 -0.067264065 -0.050967567
-0.056891907 -0.10165473 -0.007921354 -0.045253936 -0.039721344 -0.038394157 -0.007742249 -0.026876504
-0.0939554 -0.04716339 -0.047506273 -0.060682125 0.06533299 0.10346173 0.054670155 0.120652325
0.08094069 0.12318334 0.10174491 0.096332155 0.08817981 0.09418032 0.074097425 0.066736326
0.09049431 0.08359122 0.122218944 0.10790779 0.104549 0.101087935 0.14131331 0.05501522
0.09725918 0.13212536 0.08514824 0.13769102 0.052797433 0.12529808 0.109569825 0.10638365
0.1195785 0.060773693 0.10502464 0.098014295 0.083241284 0.16005176 0.0980303 0.093524896
0.10402253 0.11766345 0.13674709 0.082288794 0.12900512 0.092609644 0.08464144 0.094586104
0.087595545 0.09728642 0.11325847 0.07913919 0.09302297 0.028787287 0.040412016 0.03825913
0.013242823 -0.03928787 0.0393459 -0.029351408 -0.020664126 0.007313722 0.01733388 0.0062680338
0.03762351 -0.05636465 -0.08397194 -0.00923561 -0.01655295 -0.017633813 -0.0049749524 -0.08532414
-0.06261759 -0.00020756508 0.020401865 -0.032746363 -0.021296145 0.005907154 -0.030604314 0.0061930697
-0.023666404 -0.018200202 -0.050224863 -0.030075299 0.012924782 -0.02182379 -0.0067207892 0.0024850504
0.00024605615 -0.078814365 -0.007235471 6.282359e-05 -0.015763449 -0.032895178 -0.042162232 -0.04643399
-0.032495365 0.009396432 0.037081107 -0.0034666995 0.009313611 -0.053507257 -0.018156903 -0.00047308835
-0.073265746 -0.018248504 -0.03689236 -0.01717797 -0.05053008 -0.03987165 -0.061147254 -0.013622109
-0.057459902 -0.031291965 -0.055200696 -0.02797742 0.03010944 -0.05809195 -0.0097261965 0.004605746
-0.034685288 -0.039846927 0.0050304066 -0.009094318 -0.014482621 -0.014523928 -0.0359963 0.051507283
-0.020035237 -0.039198548 -0.07329561 0.0026840384 -0.07146256 0.0028063 -0.060056813 0.014978609
-0.0319442 -0.0005237957 -0.049439896 -0.050628413 -0.050461963 -0.017473033 -0.0044024396 -0.00073792017
-0.018758977 -0.028507283 -0.040797096 -0.040023293 0.012419824 -0.038165823 -0.030282028 0.010327358
0.0039282846 -0.03488358 -0.016092082 0.01556114 0.022235662 -0.01452182 -0.031445898 0.03394618
0.037918422 0.02745836 -0.056076158 0.05576758 0.03805159 0.0034772516 -0.010175871 0.0010394083
0.009185877 0.04362263 0.050584007 0.015025166 0.023418745 -0.023804238 0.011556812 0.0005657661
0.023643086 -0.010644871 0.0020944565 0.021559918 -0.0101170475 0.007985836 0.070860095 0.047186736
0.017634425 0.06555246 0.0040898407 -0.024443906 -0.01302315 -0.061992366 0.015928576 -0.052344482
0.0028862553 0.0142297605 0.06187271 0.027269691 -0.07989605 -0.0029741281 0.034458205 0.0792118
0.049732435 -0.03462917 0.049513463 0.03554415 0.04457008 -0.0060614226 0.0028328935 -0.01809131
00000000: e68c 7ebd 7317 efbc 687a 5bbd f81e 9abd
00000010: 0f46 e8bc b935 efbc f707 20bd 6dc1 c6bc
00000020: d5b9 a1bd 218f 973c bdd5 83bd c56b 65bd
00000030: eda2 84bd 9c39 9dbd c1e0 a33c befa 08bc
00000040: f4cc 93bd 3f41 c1bd 98da 9dbd 0575 93bd
00000050: 0a51 62bd 74dc b7bd 49be b5bd c8fd 40bd
00000060: 693f 693c 9c03 45bd e8bb 44bd d2a9 8abd
00000070: 180c 063c 3959 653c ba52 83bd b2f8 43bd
00000080: 20ad b6bc 9a27 6dbd 3752 9fbc 45ec e5bc
00000090: 504e 02bd 0008 3dbd bec1 89bd 5ec3 50bd
000000a0: 7d07 69bd 5b30 d0bd 91c8 01bc 315c 39bd
000000b0: d9b2 22bd 3143 1dbd b1b2 fdbb 1d2c dcbc
000000c0: b06b c0bd 662e 41bd f095 42bd d28d 78bd
000000d0: 4dcd 853d bee3 d33d d0ed 5f3d 9118 f73d
000000e0: 3cc4 a53d 8c47 fc3d a35f d03d cb49 c53d
000000f0: 9e97 b43d 9de1 c03d 64c0 973d 0ead 883d
00000100: 1555 b93d e031 ab3d ed4d fa3d c2fe dc3d
00000110: c91d d63d 3107 cf3d 70b4 103e a457 613d
00000120: d22f c73d df4b 073e 3362 ae3d e0fe 0c3e
00000130: 1f42 583d 244e 003e 2566 e03d acdf d93d
00000140: 93e5 f43d d6ed 783d 2917 d73d b8bb c83d
00000150: 687a aa3d 9ce4 233e 1cc4 c83d fb89 bf3d
00000160: c409 d53d 89f9 f03d 6e07 0c3e 0787 a83d
00000170: eb19 043e 20aa bd3d 7e58 ad3d 5cb6 c13d
00000180: 4b65 b33d 1a3e c73d 0ff4 e73d ba13 a23d
00000190: d482 be3d 51d3 eb3c 1287 253d 9bb5 1c3d
000001a0: 6df8 583c 51ec 20bd 2b29 213d 5d72 f0bc
000001b0: d047 a9bc f2a7 ef3b c8ff 8d3c 1464 cd3b
000001c0: 1c1b 1a3d 9fde 66bd 7bf9 abbd f550 17bc
000001d0: 0d9a 87bc c974 90bc ed04 a3bb 6cbe aebd
000001e0: a73d 80bd d4a5 59b9 d021 a73c 0d21 06bd
000001f0: 4175 aebc cd90 c13b e6b5 fabc 3cef ca3b
00000200: 0ce0 c1bc 9718 95bc 96b8 4dbd 7960 f6bc
00000210: 77c2 533c cec7 b2bc 113a dcbb 3adc 223b
00000220: 1901 8139 6d69 a1bd 8817 edbb 28c0 8338
00000230: 5922 81bc 18bd 06bd 4eb2 2cbd 9131 3ebd
00000240: dc19 05bd 7ef3 193c 5ce2 173d 9131 63bb
00000250: 1e98 183c 6d2a 5bbd c9bd 94bc d808 f8b9
00000260: 5a0c 96bd e37d 95bc 711c 17bd d0b8 8cbc
00000270: a1f8 4ebd 7550 23bd 8b75 7abd 442f 5fbc
00000280: 135b 6bbd 012c 00bd 201a 62bd e730 e5bc
00000290: 13a8 f63c d3f1 6dbd a05a 1fbc cceb 963b
000002a0: 2912 0ebd 8836 23bd 1cd6 a43b 5600 15bc
000002b0: 8448 6dbc c5f5 6dbc db70 13bd 4df9 523d
000002c0: f020 a4bc a88e 20bd 021c 96bd b1e6 2f3b
000002d0: f65a 92bd e7e9 373b 22fe 75bd d768 753c
000002e0: ecd7 02bd 564f 09ba 7d81 4abd bd5f 4fbd
000002f0: 34b1 4ebd 9b23 8fbc 5742 90bb fc70 41ba
00000300: 6dac 99bc 1b88 e9bc db1a 27bd 77ef 23bd
00000310: 847c 4b3c c453 1cbd 0412 f8bc 1434 293c
00000320: d7b8 803b 16e2 0ebd 8bd3 83bc 27f4 7e3c
00000330: 9027 b63c edec 6dbc 6acd 00bd 260b 0b3d
00000340: 5950 1b3d 5bf0 e03c 1db0 65bd 8c6c 643d
00000350: fcdb 1b3d 9ae2 633b b2b8 26bc c13c 883a
00000360: 5c80 163c a5ad 323d 2d31 4f3d 1d2c 763c
00000370: abd8 bf3c 1b01 c3bc c858 3d3c ec4f 143a
00000380: 25af c13c d367 2ebc 2643 093b 6d9e b03c
00000390: f9c1 25bc 06d7 023c 191f 913d e146 413d
000003a0: 1276 903c 5e40 863d 1204 863b 963e c8bc
000003b0: 0d5f 55bc b5eb 7dbd a57c 823c 2b67 56bd
000003c0: 5427 3d3b f123 693c 3d6e 7d3d b064 df3c
000003d0: 8aa0 a3bd 97e9 42bb 0c24 0d3d cc39 a23d
000003e0: 3db4 4b3d 51d7 0dbd a1ce 4a3d be96 113d
000003f0: 1e8f 363d e69e c6bb 11a8 393b 3a34 94bc

fc1.1.bias f4 [2]
0.009670363 -0.04101655
00000000: 7170 1e3c f800 28bd
