saved_models/the_IEGM_net_state_dict.pkl (torch, 12237 bytes, 14 tensors)

conv1.0.weight f4 [5, 1, 64]
000000 b5 d1 00 be fe b0 91 bd d8 55 87 bd 84 a9 0c bd
       -0.12579997 -0.07113837 -0.0660817 -0.03434135
000010 70 e7 a1 bd fe ae 70 3d 72 63 50 3c 37 9a 1f 3e
       -0.07905471 0.058760636 0.012719022 0.15586172
000020 c3 1e 70 bd d4 bf f8 bb c3 e5 1e be 1c 23 81 bd
       -0.058623087 -0.007591227 -0.15517335 -0.06305525
000030 a7 e7 91 bd f3 3a cd bd 8c d8 1c 3e 81 a1 53 3c
       -0.07124262 -0.10021009 0.15316981 0.0129169235
000040 8d fc ee 3d 20 b6 ec 3d a6 1b 01 3e 68 e9 76 3d
       0.11669264 0.11558175 0.12608203 0.060281187
000050 03 db 21 3c dc 41 ef bd 42 27 b0 bc 2b 93 ee 3c
       0.009878877 -0.116824836 -0.021503095 0.02912291
000060 24 a1 0c 3d 23 4b 4e 3d 70 77 00 3b 0e 88 11 3e
       0.034333363 0.050364625 0.001960244 0.14212057
000070 55 23 0a 3e de cb 8e bd c9 00 d8 bd 63 31 91 3d
       0.1349004 -0.06972478 -0.10547025 0.07089498
000080 6b c0 1c be 07 2b 0a 3b 5c af b4 3d 5c cd 1c 3e
       -0.15307777 0.0021082775 0.0882251 0.15312713
000090 f2 17 7b bd e6 f4 9a bd d6 82 25 bc 25 46 8f 3b
       -0.061302133 -0.07566242 -0.0101019945 0.0043723756
0000a0 cd ed 2a 3e 21 ee d3 ba 0d e7 0d 3e 41 72 02 be
       0.16692276 -0.001616899 0.1385767 -0.12738897
0000b0 d5 a1 1f be 11 13 bf bd dd 28 c2 3d af 96 8d 3d
       -0.15589078 -0.093298085 0.0948045 0.06913506
0000c0 58 8c 57 bc 3c 14 52 3c c7 3f 36 3d d3 a3 ee bd
       -0.013156019 0.012822207 0.044494417 -0.11652341
0000d0 c3 21 df bd 0c b6 94 bb 7e 4f 61 bd 2f 04 4c bd
       -0.108951114 -0.0045383032 -0.05500745 -0.049808677
0000e0 1c 93 36 bd db 99 83 3c 62 e4 b7 bd 89 02 d3 b9
       -0.04457389 0.016064575 -0.089791074 -0.00040246945
0000f0 d2 5b 26 bd f5 2f d4 bc 50 08 b6 3d fd 79 d4 bd
       -0.04061491 -0.025901774 0.08888304 -0.1037483
000100 c2 33 06 39 48 09 93 bc 27 c2 aa bd dd 18 f6 3b
       0.00012798517 -0.017948762 -0.08337813 0.007510288
000110 2e 15 d3 bc ef 5e ec 3c 0d bb 26 3d 23 ac 3b 3d
       -0.025766935 0.028853862 0.04070573 0.04581846
000120 62 ca dd 3c dc 1b 2c bd fe 03 61 bd 49 56 0a be
       0.027074043 -0.042018756 -0.054935448 -0.13509478
000130 09 e8 c9 bd e8 33 e4 bc bf f6 f4 3d e8 4f 37 3e
       -0.0985871 -0.027856782 0.119611256 0.17901576
000140 05 9e 4f 3e 2d 36 1b 3e 15 17 09 bc 83 4d d3 bb
       0.20275123 0.15157385 -0.00836732 -0.006448449
000150 a4 03 08 bd c2 c1 cb bc 92 1f 6b 3d 9e 65 ff 3c
       -0.033206597 -0.024872664 0.057403155 0.031176385
000160 15 55 13 be 30 17 da bd fd ef 02 be b1 13 e5 bd
       -0.14387925 -0.10648954 -0.12786861 -0.111853965
000170 e4 bd 2f bd 26 59 ad 3d 19 c2 c8 3b 08 c0 e4 3d
       -0.042905703 0.08464269 0.006126654 0.111694396
000180 9e 5d 3f 3e b0 bc 0b 3e 4e 65 54 3d ae af 8b 3d
       0.18688056 0.13646197 0.051854424 0.068206176
000190 9c 07 15 bd 40 4b c7 bd e9 81 fb bd e9 68 24 be
       -0.03638421 -0.0973115 -0.12280638 -0.16055645
0001a0 ee 72 16 bd fa 7e b4 3d 69 92 b5 3c 0a e9 87 bd
       -0.0367307 0.08813281 0.02216454 -0.066362455
0001b0 dd 18 e1 bd e9 03 ad bc 79 06 47 3d 21 5e 4f 3e
       -0.109910704 -0.021120029 0.048590157 0.20250751
0001c0 24 e1 3a 3e 90 ef 3e 3d 6a bc 72 bc 44 cf fe bd
       0.18249947 0.046615183 -0.014815429 -0.124418765
0001d0 0a 7d 23 be 37 7e f6 ba 52 cd 7d 3d c8 7e 6b 3d
       -0.15965667 -0.0018805926 0.061963387 0.057493955
0001e0 85 29 ed bd 45 a7 32 bd 68 c8 eb bc db fd 0d 3d
       -0.11580185 -0.043616552 -0.028782085 0.034665924
0001f0 7c 8f 0f 3d ff 05 4b bd 2c 7f a0 bd 83 0a 85 3b
       0.035048947 -0.049566265 -0.07836756 0.004060091
000200 ed de 41 3d 63 2d 9d 3d 20 68 e9 bd 64 0a d0 3d
       0.04733174 0.076746725 -0.113968134 0.10158232
000210 56 a7 01 bd c8 ee 23 3e 87 e7 3f 3d 05 69 6e 3d
       -0.031653725 0.16009057 0.04685166 0.058205623
000220 bc ae 92 3d 74 9c 57 bc 2c 64 ea 3c 48 c5 67 3d
       0.07162234 -0.01315986 0.028612219 0.056584626
000230 6f 94 13 be 43 00 a5 bb a8 cc f6 bd 9c db 14 3c
       -0.14412092 -0.0050354316 -0.12050754 0.009085562
000240 83 61 86 3d 66 7f ae bd b3 46 4d 3d e4 32 33 3d
       0.06561568 -0.08520393 0.050116252 0.043749705
000250 f2 2f e1 bc b0 df db 3c 02 6e de 3c 1a c1 2c 3c
       -0.027488682 0.026840061 0.027152065 0.010544086
000260 30 58 9d bc 49 30 35 bd f6 14 88 bd 25 76 18 3d
       -0.01920709 -0.0442355 -0.06644623 0.037222046
000270 85 c6 c3 bd 15 f1 5f bd d2 4e 27 3d 25 b3 bc bd
       -0.09559349 -0.054673273 0.040846653 -0.092138566
000280 b6 65 a4 3d 3e f0 28 bc 65 23 3e bd f7 2e 4b 3d
       0.08027212 -0.010311184 -0.046420474 0.049605336
000290 ce 10 da bc eb a5 f1 3d 0a 68 92 bd 2b ad ff bd
       -0.026619341 0.117992245 -0.0714875 -0.12484201
0002a0 54 76 cd bc fc 60 83 3d 84 7e 40 bd c2 7a ac 3d
       -0.025080837 0.06414983 -0.046995655 0.08421852
0002b0 94 ac 06 3e 50 8a 07 3e e0 09 58 bd c9 60 02 3e
       0.13151771 0.13236356 -0.052743793 0.12732233
0002c0 57 e5 35 3d 22 f2 06 3e ab ba bb bb a9 ef bc bd
       0.04440817 0.13178304 -0.0057290397 -0.09225399
0002d0 ac e4 6f bc d2 16 ab 3d 64 b3 01 bd 5a 7e ed bd
       -0.014641922 0.08353962 -0.03166522 -0.11596365
0002e0 32 75 bd bc 65 83 8f bd fc 31 92 3d 3e 09 b0 bc
       -0.023127172 -0.070074834 0.0713844 -0.021488782
0002f0 b7 13 8e bd b9 c1 d3 3d 60 fb 25 3d 1e 2e 80 3c
       -0.06937354 0.10339684 0.040522933 0.01564699
000300 a9 4e c7 3d e0 3c 0c 3e a6 bb b4 bd 06 e8 9b 3d
       0.097318 0.13695097 -0.088248536 0.07612614
000310 d9 43 fa bd 0a 3c c3 3d b2 2a 03 ba 73 21 10 3c
       -0.12219972 0.09532936 -0.00050036155 0.008797037
000320 31 fd 10 3e b3 e4 f7 bd 8e 80 93 bd 18 3e 29 be
       0.14159085 -0.12104168 -0.07202254 -0.16527593
000330 1d 0e c1 bd 6c c3 8a bc 47 af 85 3c 16 0a 23 3e
       -0.0942652 -0.016938888 0.01631893 0.15921816
000340 9c b6 55 3c 7c 48 67 bd fd 4f e6 ba 1e f7 55 3b
       0.013044026 -0.05646561 -0.0017571446 0.0032648514
000350 2f 49 00 bd b1 00 0f 3e 6b 11 91 3d 6e b6 f4 bb
       -0.031319793 0.13965108 0.070834 -0.0074680364
000360 63 1f 4c 3c 51 92 54 bd 4c 62 00 3d f4 dc fe bd
       0.012458655 -0.05189735 0.031343743 -0.12444487
000370 76 f9 52 3d 3d 70 b8 b9 b0 11 08 3e 1a 26 e1 3c
       0.051507436 -0.0003517884 0.13287997 0.027483989
000380 04 b8 01 3e 1a 95 d3 3d 77 b0 96 3d 56 7d 27 3d
       0.12667853 0.10331173 0.07357877 0.040891014
000390 e8 af 43 bd 9b 90 2b 3c 05 27 7c bb 47 f0 b9 3d
       -0.04777518 0.010471488 -0.0038475406 0.090790324
0003a0 2a 34 d4 3c 41 e8 9d bd 73 17 02 3e 54 9c c3 bd
       0.02590378 -0.077103145 0.12704258 -0.095513016
0003b0 58 ec c6 bd d3 f5 91 3d 38 bf f7 3c b2 bd a6 3d
       -0.09713048 0.071269654 0.030242547 0.0814165
0003c0 46 6a 37 3d b9 d1 14 3e 7e 11 fc 3d 8e 5f ee bc
       0.044779085 0.14533128 0.12308024 -0.029098298
0003d0 ac 21 0d bd 36 00 18 bd 2c d5 0d 3e 66 18 a7 3c
       -0.03445594 -0.037109576 0.1385085 0.020397376
0003e0 28 93 b3 bd 83 ac 7d 3d 1b ff 83 bd 69 5e da bd
       -0.08768302 0.061932098 -0.06445142 -0.106625386
0003f0 75 ff 2a 3d 26 d0 04 bc 17 8f 1c bd 53 5b ca bd
       0.04174753 -0.008106267 -0.0382224 -0.098807

conv1.0.bias f4 [5]
000000 93 4a 8c 3d 84 cc 45 ba d9 0f 1a bc d5 17 bc bc
       0.068501614 -0.0007545429 -0.009403192 -0.022960583
000010 df 53 54 bc
       -0.01295945

conv1.2.weight f4 [5]
000000 b1 8b 84 3f 3b 5e 8c 3f 4a 0e 83 3f 08 b9 82 3f
       1.035513 1.0966257 1.0238736 1.0212717
000010 47 9f 87 3f
       1.0595483

conv1.2.bias f4 [5]
000000 0e c7 5f bb 83 50 6f 3c 18 e1 f2 3b 04 81 d3 bc
       -0.0034145745 0.014606598 0.007412087 -0.025818355
000010 68 83 e1 bb
       -0.00688212

conv1.2.running_mean f4 [5]
000000 65 eb a6 3d 36 91 bf 3c 71 91 a7 3c 23 17 92 3b
       0.08150367 0.023384672 0.020455094 0.0044583245
000010 08 e2 6e 3d
       0.05832103

conv1.2.running_var f4 [5]
000000 42 53 58 3b 22 b2 fb 3a d8 be 53 3a 09 e3 96 39
       0.003300861 0.0019202868 0.0008077449 0.00028779384
000010 58 92 3f 3b
       0.0029231515

conv2.0.weight f4 [5, 5, 16]
000000 31 34 9a bd 9a 7b 13 3d cd 0b fa 3c e9 ed 17 3d
       -0.07529486 0.036006548 0.030523205 0.037092123
000010 bd 4f 0b 3c 06 7c 20 3e 49 a8 b5 3d f0 ec c1 bc
       0.008502898 0.15672311 0.088699885 -0.02367255
000020 80 04 b8 bd 68 d3 72 3d 92 1e 8e 3d 8a 67 a8 bd
       -0.08985233 0.059283644 0.069394246 -0.082228735
000030 3d 9a 24 3d 2e c9 ee bd 6f 7b 0d bd 81 1d e8 3c
       0.040186156 -0.11659466 -0.034541544 0.028334381
000040 11 81 81 bc 96 fd 67 bc 3b 6b 3b be 89 48 6a be
       -0.015808614 -0.014159581 -0.18302624 -0.22879232
000050 16 e3 11 be 0c 0a 8f be 97 16 f8 bd 57 ef 25 be
       -0.14246783 -0.27937353 -0.12113684 -0.16204582
000060 33 3f 19 be 64 13 63 3c 68 f5 ec 3c a6 04 4b bd
       -0.14965515 0.013859604 0.028925613 -0.04956498
000070 58 97 86 bd e5 05 81 3d 39 57 f4 bc 4b 39 de 3d
       -0.06571835 0.062999524 -0.029826747 0.108507715
000080 30 59 b0 39 51 6b 80 3d df f9 aa bd 5d b3 09 3e
       0.00033635786 0.06270469 -0.083484404 0.13447328
000090 6f a2 22 bd 75 c3 3a 3d 37 73 eb 3d 9d 8f 55 3d
       -0.03970569 0.04559656 0.11496585 0.052138913
0000a0 5b 07 08 bd 86 57 d3 3d 4a 23 a7 3c 0c 7d 31 3e
       -0.03321014 0.10319428 0.02040257 0.17332858
0000b0 3c a0 13 bc 19 04 cd bc 01 71 a9 3d 57 4b 98 3d
       -0.009010371 -0.025026368 0.08273507 0.07436245
0000c0 9b 7c 17 3e a4 a3 4f 3d b7 4b 9e 3d d2 2f 19 be
       0.14793627 0.05069317 0.07729285 -0.14959648
0000d0 e6 a9 55 bd e9 c1 ab bd 9c 03 8e 3c ba da 60 3c
       -0.05216398 -0.08386595 0.017335705 0.0137240235
0000e0 b9 7e 5b 3b 3a 85 b6 3c a7 2f 8e bd f7 73 08 3e
       0.003349228 0.022280324 -0.06942683 0.13325487
0000f0 51 14 c8 bd 3c 6a e5 3d 86 3d 18 3d 92 29 38 3d
       -0.097695 0.11201903 0.03716805 0.04496152
000100 c2 84 de bc 01 63 0f bc 75 71 76 bd 46 bf 93 bd
       -0.027162913 -0.008751632 -0.060166795 -0.07214217
000110 f0 99 09 be 0c 4c 4f bc c6 b5 16 3d d1 a6 c2 39
       -0.13437629 -0.012652408 0.036794446 0.0003712685
000120 c6 ac 7c bd 2a f0 4b bd 32 1b 48 bd fe 9f cc bd
       -0.061688207 -0.049789585 -0.04885406 -0.099914536
000130 2a 54 18 3e 70 af 3b bd 2c 35 f7 3d 93 35 0b 3e
       0.14875856 -0.045821607 0.120706886 0.13594656
000140 39 c3 d2 bd ad 7e 14 3e f4 39 5c bd b8 b2 55 3d
       -0.10291142 0.14501448 -0.053766206 0.052172393
000150 c9 3c 0b be 2f 7b ff bc 48 d1 02 be 5b 0d f5 bb
       -0.13597406 -0.031186668 -0.12775147 -0.0074783987
000160 6d 29 a3 3d 1f e6 1d bd 7c c3 1f bd 92 a0 e8 bc
       0.07966886 -0.03854954 -0.039004788 -0.028396878
000170 d4 a6 0c be a9 b8 7f 3d 7e 84 ab bd 5b 41 00 3a
       -0.13735515 0.062431965 -0.0837488 0.0004892551
000180 9c 66 30 3d f4 b5 93 3d 68 15 5b bc db 19 85 bb
       0.043066606 0.07212439 -0.013371803 -0.00406192
000190 b5 c4 a2 3d c1 64 b1 3c ea e5 d1 3d 10 9c 54 bd
       0.07947675 0.021654489 0.10248931 -0.051906645
0001a0 59 49 47 3b 54 ed c7 3d 09 03 b0 bd 42 4e b8 3d
       0.003040871 0.097620636 -0.08594329 0.089993015
0001b0 ec 87 4a 3d db f0 b7 3d 5e 84 b7 bc 87 d5 46 3d
       0.04944603 0.089814864 -0.022401985 0.04854348
0001c0 05 cd 3b bd 8d 0b b3 bd f7 e5 c1 3d c8 ad b9 3d
       -0.04584982 -0.087424375 0.094676904 0.09066349
0001d0 65 d0 c1 3c 18 7d 69 3c 61 81 13 3e d6 7c fe 3a
       0.02365894 0.014251016 0.14404823 0.0019415866
0001e0 21 57 cb bd ee a3 38 bd a5 0f c4 3d 42 6d 8b 3d
       -0.09928728 -0.04507821 0.095732965 0.06807949
0001f0 21 48 19 be d4 3c 21 be 51 e0 a2 bd 0f af ac 3c
       -0.14968921 -0.1574586 -0.07952941 0.021079568
000200 1d ee 75 bb 43 1f 1a 3d 64 ba ad 3d b8 04 9f bc
       -0.003752596 0.03762747 0.08482817 -0.01941143
000210 7a ac 1a bd c0 44 91 3c cc 31 e3 bd 44 4e ca bd
       -0.037762143 0.017732978 -0.110934824 -0.09878209
000220 d4 99 28 bd 97 42 31 be e2 07 c9 bc a4 b5 27 3d
       -0.041162327 -0.17310558 -0.024539892 0.04094471
000230 35 1d ab bd 75 14 4c 3d be 6f 05 bd 1e a4 34 bd
       -0.0835518 0.049824197 -0.03257727 -0.044101827
000240 5c ca 18 bc 36 11 a3 3b 11 68 a3 3c 6b fb 4a bd
       -0.00932559 0.004976417 0.019947084 -0.049556177
000250 7d 47 bb 3d 97 fb 02 bc 54 ea b9 bd 10 cf 7f bc
       0.09144495 -0.007994554 -0.09077898 -0.015613332
000260 d5 36 30 bd 09 7a 3a bd 22 fe 40 bd 06 3b 8a 3d
       -0.043021042 -0.045526538 -0.04711736 0.06749539
000270 71 64 b3 3d 5b f6 2c 3d 6b 4f 09 3e 5e 67 cb 3d
       0.08759392 0.04222713 0.13409202 0.09931825
000280 ca ef 75 3d 22 b7 04 3e fc d3 5d bd fd 0b f8 3d
       0.060043134 0.12960485 -0.054157242 0.121116616
000290 f3 7d ab 3d 1f a2 a1 3d 26 08 c7 bd a1 11 44 bd
       0.08373632 0.0789225 -0.09718351 -0.047868375
0002a0 43 9c 28 3d c0 ba 62 3d 66 35 d4 3c 50 1d 07 3d
       0.041164648 0.05535388 0.025904369 0.03298694
0002b0 7f f1 92 bd 97 d8 a4 bc 68 55 95 3d ea 36 cc 3d
       -0.07174968 -0.02012281 0.072916806 0.099714115
0002c0 c7 0e 9b bb a8 a1 e3 bc bf c3 b7 bd db e2 52 3d
       -0.004731986 -0.027787045 -0.089728825 0.051485877
0002d0 58 62 4a 3d 35 3b 81 bd 16 0a 2f be 31 02 b7 bb
       0.049410194 -0.06310121 -0.17093691 -0.005584978
0002e0 19 ce 8a 3c b1 5c 45 be 98 96 26 be 91 82 67 3d
       0.016943978 -0.1927364 -0.16268384 0.056521002
0002f0 2a 98 3d ba 83 93 1c be c6 8c d2 3d 2a a9 38 3d
       -0.0007232452 -0.15290646 0.10280757 0.045083202
000300 c5 94 93 bd 14 4a 12 3e 10 d1 fc 3c 61 40 b5 3d
       -0.0720611 0.14286071 0.030861408 0.0885017
000310 2b 94 81 bd af 79 89 3c 64 4c 35 bd ea 9d 25 3d
       -0.06327089 0.016781656 -0.044262305 0.0404338
000320 ff 53 99 bd 73 59 8c bd 55 c7 d6 3d f8 e3 99 bc
       -0.07486724 -0.068529986 0.10487238 -0.018785462
000330 3e 81 24 3d a7 19 0b bd e4 bd b4 3d 31 57 6f 3d
       0.040162317 -0.03396001 0.08825281 0.05843276
000340 bd 6f a0 3a a9 b5 49 3d ef 46 d5 3d e8 b9 f9 3c
       0.0012240332 0.04924551 0.1041392 0.030484155
000350 cb e9 3d bc c7 03 14 bd b6 20 fb 3d 1b 29 31 bd
       -0.011591385 -0.036136415 0.122620985 -0.04325209
000360 9a fd 19 3d 74 db a7 3d e7 99 a6 ba f9 f2 b4 bd
       0.03759537 0.08196154 -0.0012710661 -0.08835406
000370 0c c5 f6 bd cf 37 c0 3c 09 25 75 bd e8 b8 aa 3d
       -0.120493025 0.023464112 -0.059849773 0.08336049
000380 fe 8e 88 bd 91 d8 d3 3d 4e f0 87 bd f1 90 33 3d
       -0.066678986 0.10344041 -0.06637631 0.0438394
000390 6b 97 6c 3d 57 5f 85 3d d9 5b 1e be 9e ce 8c bd
       0.05776159 0.06512325 -0.15464725 -0.068753466
0003a0 3e 40 44 3d fe 0f 81 bd 23 9c 8a bd ef 9c be 3d
       0.04791283 -0.063018784 -0.06768062 0.093072765
0003b0 83 cb af bb 85 06 c9 bd 7e b5 d4 3c 7a f3 a2 3d
       -0.0053648367 -0.098156966 0.025965448 0.07956596
0003c0 f1 c2 a3 3d 7f c1 b1 bd 4e f3 30 bc b3 ae e2 bd
       0.079961665 -0.086794846 -0.010800196 -0.110684775
0003d0 7b e3 53 3d c5 dc 85 3d eb 1e 32 bd 41 00 f4 bd
       0.051730614 0.06536249 -0.043486517 -0.11914111
0003e0 53 3b 17 be 37 cd e6 bd a2 a9 ca 3c 95 2c bc 3c
       -0.14768724 -0.112696104 0.02473909 0.022970477
0003f0 b6 a3 21 3e db 86 d1 3a 48 46 16 3e ea 98 3e 3d
       0.15785107 0.0015985625 0.14675248 0.04653255

conv2.0.bias f4 [5]
000000 f9 1e f2 bd 74 7b fc bd dd 51 f8 3c d2 2a 00 be
       -0.11822314 -0.12328234 0.030312473 -0.12516335
000010 13 99 0b 3c
       0.008520382

conv2.2.weight f4 [5]
000000 cf 4c a3 3f d8 3c 80 3f 69 b1 85 3f 7a f9 78 3f
       1.2757815 1.0018568 1.0444766 0.9725567
000010 31 d4 79 3f
       0.97589403

conv2.2.bias f4 [5]
000000 34 8d 17 bd a5 5c 26 3d 9c 41 97 bc 52 8e 1f 3d
       -0.036999896 0.040615696 -0.018463902 0.038954087
000010 d4 30 23 3d
       0.039841488

conv2.2.running_mean f4 [5]
000000 7b e9 f7 3d bf 02 ed 3d f9 41 2c 3e ff a4 ff 3d
       0.1210508 0.115727894 0.16822042 0.124826424
000010 fa 68 2b 3e
       0.16739264

conv2.2.running_var f4 [5]
000000 c7 09 48 3d 98 ea 4c 3d 05 14 8b 3d 0c 59 7f 3d
       0.04883745 0.050028414 0.06790928 0.06234078
000010 e2 66 aa 3d
       0.083204046

fc1.1.weight f4 [2, 520]
000000 fd 10 a9 3d f9 df c3 3d 01 ad 8b 3d 65 c0 8b 3d
       0.082551934 0.09564204 0.06820107 0.06823806
000010 97 a5 b8 3d 44 01 79 3d 46 33 90 3d e6 0b 8e 3d
       0.09015959 0.060792223 0.0704103 0.06935863
000020 d7 55 4b 3d 98 31 19 3d 66 f3 d2 3d 5a 04 42 3d
       0.04964241 0.037400812 0.10300331 0.04736743
000030 27 da 85 3d f1 e3 7a 3d 4e 39 43 3d f4 97 a1 3d
       0.0653575 0.061252538 0.047662072 0.07890311
000040 f8 1f 40 3d 62 81 69 3d 43 ff 97 3d d3 3c 9d 3d
       0.046905488 0.057008155 0.07421734 0.07677617
000050 fd cd cf 3d ed a5 ae 3d a1 d0 57 3d 5f 98 82 3d
       0.10146711 0.085277416 0.0526892 0.06376719
000060 10 c8 d6 3d b0 ba 98 3d 58 6c 9f 3d 57 81 aa 3d
       0.10487378 0.07457483 0.07784337 0.08325451
000070 9d 08 b7 3d ff 34 73 3d 6a b5 9f 3d c8 b8 7b 3d
       0.0893719 0.059376713 0.07798274 0.061455518
000080 b1 fd 40 3d 9f 4c 61 3d de a0 f9 3c ec 50 40 3d
       0.04711694 0.055004712 0.030472215 0.046952173
000090 da ac ef 3d ab 7a c7 3d 46 57 b1 3d 70 bf 6c 3d
       0.11702891 0.09740194 0.08659224 0.057799757
0000a0 61 aa 85 3d db 40 21 3d b8 c9 96 3d b7 12 60 3d
       0.06526638 0.03936849 0.073626935 0.054705348
0000b0 05 ba 6a 3d 36 9e bd 3d c9 d3 3d 3d 9c 86 1d 3d
       0.05730631 0.09258692 0.046344552 0.03845845
0000c0 8b f0 b4 3d e9 02 6c 3d 60 02 b9 3d bc 9f a5 3d
       0.088349424 0.057619963 0.09033656 0.080871075
0000d0 e0 7c a8 3d 0c 7d b9 3d 7d 12 88 3d 08 bb 8c 3d
       0.08226943 0.09057054 0.06644151 0.06871611
0000e0 c0 73 75 3d 66 f2 d0 3d 84 1a 61 3d 41 52 2f 3d
       0.05992484 0.10202484 0.054956928 0.042803053
0000f0 d7 4d d7 3d 5a 3d a6 3d 32 6a 8f 3d f0 8a 9a 3d
       0.10512894 0.08117171 0.07002677 0.075460315
000100 fb a0 59 3d a1 77 91 3d 52 44 be 3d ae 17 ab 3d
       0.05313204 0.071028955 0.09290375 0.08354126
000110 f1 6b 74 3d 6b a3 ae 3d 8f 79 88 3d f3 2a 65 3d
       0.059673253 0.08527263 0.066638105 0.055949163
000120 68 0e 2b 3d d5 ac ed 3d 87 c3 40 3c d1 e4 8c 3d
       0.041761786 0.11605231 0.011765367 0.06879581
000130 77 36 90 3d 84 35 48 3d b2 15 ae 3d f8 10 5d 3d
       0.07041638 0.04887916 0.08500232 0.05397126
000140 59 ce 94 3d 38 25 a7 3d b9 ba d3 3d 2d d5 c8 3d
       0.0726592 0.08161396 0.10338349 0.09806285
000150 96 c9 75 3d fc fe 9a 3d cd f5 5b 3d 6d fa 87 3d
       0.0600067 0.07568166 0.05370121 0.06639562
000160 c9 8a a1 3d bc 5f 02 3d a0 88 97 3d 89 a4 9b 3d
       0.07887799 0.03182958 0.07399106 0.07599742
000170 14 a9 8d 3d aa 69 6f 3d 87 de 19 3d 1c e3 a6 3c
       0.06917015 0.05845038 0.037565734 0.020371966
000180 75 c1 fa 3c 22 3d ad 3d ca 7b 73 3d 94 99 c3 3c
       0.030609826 0.08458926 0.059444226 0.023876943
000190 f6 d7 82 3d 7c 0a 6f 3d c7 ad c2 3c b4 1d 9b 3d
       0.063888475 0.058359608 0.023764504 0.07574025
0001a0 64 82 05 3c fd ae 25 bc 83 72 53 bd 65 d7 8a 3c
       0.008148763 -0.010112521 -0.05162288 0.016948411
0001b0 75 d3 c1 bc 85 e1 9b 3c c6 52 0a bd 4a b9 8f ba
       -0.0236604 0.019028435 -0.033770345 -0.0010965255
0001c0 0b e2 63 bc 27 a3 2d 3b ba 87 e7 bb 8b e9 b6 bd
       -0.013908873 0.0026494951 -0.0070657404 -0.089312635
0001d0 41 34 73 ba 59 26 3a bd d8 4f 04 bd 1c 42 14 3c
       -0.0009277501 -0.045446727 -0.032302707 0.009048965
0001e0 bd 32 26 bc 96 78 e9 3b 4a 08 01 3d 27 cd 14 bd
       -0.010143933 0.0071249707 0.031502046 -0.03632846
0001f0 cc 78 8a bc eb 98 7b bd 75 87 c5 bc 12 fa c5 bc
       -0.016903304 -0.06142513 -0.024112443 -0.024167094
000200 95 b4 15 bd d3 f1 d4 bc 3a d8 81 bd 68 aa 9c bc
       -0.03654917 -0.025994217 -0.0634007 -0.019124225
000210 22 78 bc bc 08 b0 ff bb 39 f2 c8 bc 4c d6 23 bd
       -0.023006503 -0.007802967 -0.024529563 -0.03999929
000220 4f bc 12 bd ec c6 09 bc de b5 22 bd 69 c1 2b bd
       -0.035824116 -0.008409243 -0.039724223 -0.041932497
000230 51 f2 6e bd 40 3e 06 3c 49 b1 b7 bc d0 64 3a bd
       -0.05833656 0.0081935525 -0.022423403 -0.0455063
000240 d2 d4 bd bc 9d 63 99 bd 6c f3 12 3d 23 79 ef bc
       -0.02317277 -0.07489703 0.035876676 -0.029232567
000250 a3 f7 16 bd 37 70 9d 3b 07 9c 09 bd fe e6 06 bd
       -0.03685726 0.004804637 -0.033596065 -0.032935135
000260 ea 7a 3e bb 89 88 e4 bc d0 72 57 bd b1 67 21 bd
       -0.0029064962 -0.027897136 -0.052599728 -0.03940553
000270 fc 90 64 3c a3 10 83 3b 2d 70 5d 3c 0e 53 62 bc
       0.013950583 0.003999786 0.013515514 -0.013813747
000280 16 87 05 bd c4 40 c1 3b 84 01 39 bd 9c 77 23 bd
       -0.03259953 0.0058976132 -0.04516746 -0.03990899
000290 bc f9 70 bc 14 11 6a bd ba 6a 86 3b e5 2c d3 bb
       -0.014707979 -0.057145193 0.0041020783 -0.006444561
0002a0 de c8 2c bd c6 4d 4e bd 43 91 14 bb 56 88 dd 3b
       -0.04218375 -0.05036714 -0.002266959 0.0067606373
0002b0 56 ef 94 3c 30 26 60 bc 44 b7 c4 bc f6 08 89 bd
       0.01818053 -0.01368098 -0.02401317 -0.06691162
0002c0 ce e8 be bc 3b 39 d8 3a d8 fd 10 bd 2d 70 30 bc
       -0.02330437 0.0016496548 -0.035398334 -0.010768932
0002d0 bc 5f c2 bb d1 0b a2 bc 02 61 ee ba b0 04 90 bc
       -0.0059318226 -0.019781025 -0.001818687 -0.01758036
0002e0 14 6e aa bc 80 83 a2 bd c5 42 a6 bc c8 06 a5 bc
       -0.020804442 -0.07935238 -0.02029551 -0.020144835
0002f0 24 53 b7 3b 0f 32 88 bd c6 35 26 bd d7 30 05 bd
       0.005594628 -0.06650173 -0.040578626 -0.03251728
000300 91 a2 05 bd ff 94 c7 bc 56 ea 01 3d 69 23 db bc
       -0.03262574 -0.024363039 0.03171762 -0.026750283
000310 fc 19 5a bd c1 00 a0 3c eb 98 78 bd 01 b5 42 bd
       -0.053247437 0.01953161 -0.06069271 -0.0475359
000320 48 44 a2 bd 43 fa 50 bd 0d 8b 16 bd ae 7e 3e bd
       -0.0792318 -0.05101992 -0.036753703 -0.04650753
000330 70 3f 25 bd ec 45 a6 bd 43 86 f5 bc 81 b3 6c bd
       -0.0403437 -0.08118805 -0.029971248 -0.057788376
000340 33 d0 08 3d ea d9 62 3d db 12 b3 3b 47 98 06 3d
       0.03340168 0.0553836 0.005464894 0.032860067
000350 f9 2f ac 3d fd 5c ad 3c 61 26 92 3d 2f c3 b7 3c
       0.084075876 0.021162504 0.071362264 0.022431938
000360 8c c3 88 3c 9f 6a 49 3d 0e 35 92 3d 0e 2e 08 3d
       0.016694807 0.049173947 0.07139026 0.033247046
000370 a3 0a 93 3d 60 e0 57 3d c1 e6 6f 3d 6b 1c 1d 3d
       0.07179763 0.052704215 0.058569673 0.03835718
000380 98 d0 05 3d b2 08 b4 3c 1a 0c 92 3c 89 01 20 3d
       0.032669634 0.021976802 0.017828036 0.039063964
000390 5a 7b 71 bc 42 fa 29 3d 1b ed 6b 3d 74 76 49 3d
       -0.014738882 0.04149843 0.05759917 0.04918523
0003a0 78 f1 67 3d 4d 41 54 3d 40 c2 a7 3d bd fa a3 3d
       0.056626767 0.05182009 0.08191347 0.08006809
0003b0 65 c3 ec 3c 3d 77 b7 3d 13 67 08 3d bc f9 0b 3d
       0.028901765 0.0895829 0.033301424 0.034173712
0003c0 9b 7a 4b 3d 2d 85 3a 3d f6 15 e1 3c b3 1f 2d 3d
       0.049677473 0.045537163 0.027476292 0.04226656
0003d0 d4 c1 30 3d 8f 24 0c 3d c5 bc b8 3c 60 98 c0 3d
       0.0431536 0.034214552 0.02255095 0.09404063
0003e0 b2 fe 05 3c 33 c3 4a 3d 30 e8 bf 3c 66 04 fe b9
       0.0081784 0.049502563 0.023426145 -0.00048449932
0003f0 56 32 0b 3d b8 7a 55 3d 00 32 0b 3d c4 c6 ed 3c
       0.03398355 0.052118987 0.03398323 0.029025443

fc1.1.bias f4 [2]
000000 03 e9 5b bd 92 49 52 3d
       -0.053689014 0.051339693
